workplace/wav_emotion/model_c.pt (torch, 735691 bytes, 26 tensors)

weight f4 [16, 1, 3, 3]
00000000: 49b1 d4bd 44ea 53be 22c7 9fbe 5f8b 0b3f
00000010: e1e1 7c3e 2b54 a43e b725 4f3f 93c9 493f
00000020: c8ab 263f b652 07be 5bd5 e4be e35e f3be
00000030: 2de4 57be 1832 a2be dbe1 abbe 354c 02bf
00000040: 8f37 093e a758 45bd f0f9 23be a4ef d2be
00000050: 2741 3ebf d17b 14bf e912 0abe 75df 2bbf
00000060: de56 07bf 210b f1bd 19f2 77be d61a 323f
00000070: 9012 883e fd9d 993f dd5b cfbd 9def 573e
00000080: 46c5 e83e 94a9 68bf c053 54bf 1944 6cbd
00000090: f93b cfbe f148 99be f366 09bf 742a 5d3e
000000a0: 3fb2 4e3f b543 a9bd 88a7 b83f 43b6 8c3f
000000b0: f1ec 013f 0a76 633f 58b4 103f bc0c 0e3f
000000c0: 33bf 88bf f436 08be 6bb5 8fbf 00a1 6fbf
000000d0: 60ac 4abe b315 b2be 859f 473f 715b ff3f
000000e0: 50be 893f 14ec 77bd eac9 0e3f 5420 d53e
000000f0: 6dfc eebd e071 8b3e 0a86 26be 6df3 5c3f
00000100: 4bfe ac3e fe7f 043f 0242 02bf c81c 103c
00000110: 4dc7 a2bf e7fa adbf 2fd9 913d 57c0 ffbe
00000120: a75f 383f f310 923f b21e 1c3f f99c ea3e
00000130: c0d5 1a3f 3fef e63e 2042 1c3e 62df c53e
00000140: 0a21 a63d d1ca 70be a3f8 1fbe 1e8b 4ebd
00000150: c2be b03e aa20 273d 25fa 60be 466e 7f3f
00000160: 8da7 b13e e06e 513f 60a6 4f3f eeba 14be
00000170: 099a 4a3f b2ab ddbd 56de cbbf 131b 8bbe
00000180: 8faa 72be d069 6bbf 0ae1 43be 3f12 6dbe
00000190: 2a6f 803f 5700 b4be 3d0a bf3e ae48 bc3f
000001a0: 26ce e5be 34db 1b3e be01 ae3f a4a1 44bd
000001b0: 0325 c5be 4cf8 a9be 6d9d 33bf de60 093f
000001c0: 2cf1 553f ee52 f7bd fc75 5a3f a467 fd3f
000001d0: 7234 c53e 24a1 173f 52aa 503f 8646 983f
000001e0: dd4c d5be 7412 e63e 111c 083f 87bd 8dbf
000001f0: 75b4 06be c7d0 a4be 9cc4 5ebf 6e62 f0be
00000200: 8f83 98be 1673 bfbc f419 55be df28 f9bd
00000210: 7acb a63f 5680 4f3f 91f1 b33f c36c 603f
00000220: 350a 453f acd8 3d3f c2b9 29bf 44aa c3be
00000230: 9cd0 03bf 113f f9be cc6e 7fbf 2858 1dbe
-0.10385377 -0.20694834 -0.31206614 0.5450954 0.24695541 0.32095465 0.80916923 0.788232
0.6510587 -0.13215145 -0.44694027 -0.4753333 -0.21083136 -0.31678843 -0.33570752 -0.5089753
0.134001 -0.04818025 -0.16013312 -0.41198456 -0.74318165 -0.5800143 -0.13483776 -0.67137843
-0.52866924 -0.11769701 -0.24213447 0.695722 0.26576662 1.2001339 -0.101249434 0.21087499
0.45463008 -0.90883756 -0.8294029 -0.05768213 -0.40475443 -0.29938462 -0.53672713 0.21598226
0.8074073 -0.08264867 1.4426126 1.0993122 0.5075217 0.8885199 0.5652518 0.5548818
-1.0683349 -0.13302213 -1.1227239 -0.9360504 -0.19792318 -0.3478218 0.7797778 1.9949781
1.0761204 -0.060527876 0.55776846 0.41626227 -0.1166924 0.27235317 -0.1626207 0.8630894
0.3378776 0.517578 -0.5088197 0.0087959245 -1.2717072 -1.3592194 0.071215026 -0.4995143
0.72020954 1.1411422 0.6098434 0.45822886 0.60482407 0.45104405 0.152596 0.3864699
0.081117705 -0.23514868 -0.15622191 -0.05042564 0.34520537 0.040802635 -0.21970423 0.9977764
0.34698144 0.81809807 0.81113243 -0.14524433 0.7914129 -0.10823764 -1.5927227 -0.27169093
-0.23697875 -0.9195833 -0.19128814 -0.23151492 1.0033925 -0.3515651 0.373125 1.470968
-0.4488384 0.15220338 1.3594282 -0.048005715 -0.385048 -0.33197248 -0.7016209 0.5366343
0.83571124 -0.120763645 0.8533628 1.9797254 0.38516575 0.59230256 0.8150989 1.1896522
-0.41660205 0.44935954 0.53167826 -1.1073464 -0.13154776 -0.32190534 -0.8701875 -0.46950096
-0.2978787 -0.023370307 -0.20810682 -0.12165999 1.3030846 0.810552 1.4058095 0.8766596
0.769687 0.7415874 -0.6629907 -0.3821584 -0.5149019 -0.48680928 -0.9977844 -0.1536566

bias f4 [16]
00000000: ef0a c03d 52e3 923d 68ee 733e 549e 6bbf
00000010: 11fd d1be 7667 103f ab86 b0be 1f65 013f
00000020: 31ef b43d 3b0f 4cbe 28cd 34bf 2ed0 9a3e
00000030: 6ac5 a1be 42fb c7bd 0564 3d3f da38 1d3f
0.093770854 0.07172264 0.23821414 -0.92038465 -0.41013387 0.5640787 -0.34477744 0.50544924
0.08834685 -0.19927685 -0.70625544 0.30236953 -0.31595927 -0.097647205 0.7398074 0.61414874

weight f4 [16]
00000000: a081 b13f e7bb c53f 0146 b83f 04d6 c23f
00000010: 479a ba3f 7934 ab3f 4202 c23f bb9d 973f
00000020: 5e25 d23f 01e3 b53f f4d5 853f 4fe7 d63f
00000030: 4b28 b93f ae21 b53f 9a6a b73f e1de 643f
1.3867683 1.5447968 1.4396363 1.5221562 1.4578332 1.3375388 1.5156939 1.184501
1.6417654 1.4209901 1.0455918 1.678934 1.4465421 1.4150903 1.4329407 0.89402586

bias f4 [16]
00000000: 2119 52be d617 323d de7f 3abd acdd 58be
00000010: 11b8 cabd a305 2f3e f564 b5be 2f5e 3a3e
00000020: 8afc b0be f1b8 c8bd 0f33 a83d 8627 bbbe
00000030: 58ef 84be fabb e3be 75df 17be 11d0 833f
-0.20517398 0.043479763 -0.0455321 -0.21178311 -0.09898389 0.17091994 -0.35428587 0.1819999
-0.34567672 -0.098009 0.08212864 -0.3655359 -0.25963855 -0.44479352 -0.14831336 1.0297872

running_mean f4 [16]
00000000: ee3e d83d 2756 723d a759 5f3e e513 6ebf
00000010: 5d0e c5be 0639 093f 761a 9dbe 7fb1 f93e
00000020: ee59 003e c71e 3bbe 38b1 38bf eacd a53e
00000030: 0fe9 97be 11af 94bd fb94 3e3f 3d3b 203f
0.10558878 0.059164193 0.21811543 -0.92999107 -0.3848752 0.53602636 -0.3068425 0.4876823
0.12534305 -0.1827346 -0.72145414 0.32383662 -0.29669997 -0.07259954 0.74446076 0.6259039

running_var f4 [16]
00000000: 1149 e540 5e36 a340 63bf 3a41 3c11 b03f
00000010: b9bb f840 53ee 6440 89a7 a941 43a7 5840
00000020: 3646 9c41 aca7 7240 df61 7d40 c3d9 2d41
00000030: 3d52 1f41 0a93 3940 8721 4640 bbb7 a73f
7.1651692 5.1003866 11.671725 1.375526 7.7729154 3.5770462 21.206804 3.3852088
19.534283 3.7914839 3.9590986 10.8656645 9.957578 2.8995996 3.0957963 1.3102945

weight f4 [32, 16, 3, 3]
00000000: 9f45 603e 2ae0 52be 03dc ae3e 1519 433f
00000010: 2883 b93e 10e1 3dbe 8fd0 f53e 04a1 043e
00000020: 9480 9abc 04b1 49bd 6f6c d2bc 9c05 b73d
00000030: 4fa4 673e 6881 863e c653 b63e 3793 5f3e
00000040: 9d49 3a3e c14e 343e 73ef 94bd 889b cc3d
00000050: c952 b83d 0bb4 4b3e 12f3 5b3e a094 b83e
00000060: 7ffd b33d 4ecd 083e bc45 0a3d 94d2 d3bc
00000070: 100c 9abe 89f7 14bf 991c 16be ac0c 8fbe
00000080: 0312 0e3d a063 fd3e e932 e33e 323a 2ebe
00000090: 8784 4b3f 2655 91be 51bf c13e 9643 303f
000000a0: 0cc0 663f 6bbf 07be bdfc d9bd b565 46be
000000b0: e829 11be 0fdb 9d3d 3170 cebd 84c1 96bd
000000c0: c937 2c3e 36d0 3f3e 25a6 983e 7f96 08bd
000000d0: a6be 1cbe bd4b 2d3e 1ce6 ab3e e764 863f
000000e0: 583c 423e ca28 213f 9324 293d b298 32be
000000f0: 2a02 143e 9118 533f 3b3d 603e 991e fdbd
00000100: de03 f9bb 4a9a ebbd 59e7 3e3e 4182 a33e
00000110: 8b92 853e 731a 633d a09c bfbc 53b7 c03d
00000120: 7588 063f acbb 3d3f 0a22 533d 3a7d 4d3f
00000130: 4685 0abf 2de9 45bd 6838 e93e 7e4a 9c3f
00000140: 310f 95bd a2b8 703f 734c 093f 6c26 a83e
00000150: eaec 913e fa46 14bd 206f 453e 9145 0f3e
00000160: 65d0 113e 0d9d 37bd ce8d 1c3d e885 9fbc
00000170: d138 c2bd b9fe 463e ee93 863e b4fd 743e
00000180: 0a9c 4f3d 10e7 993e 42ee 1f3e 3bef 6b3e
00000190: f1c7 0540 fe97 bc3c c81a edbe d3dc 033f
000001a0: 9111 073f ae17 193f 9410 593f f0f6 a1be
000001b0: 84b7 563f 5f08 0c3f f2a8 6a3f 47c4 cf3e
000001c0: e934 e03e 129e 40bd 0613 e83e b563 af3c
000001d0: 08f0 7ebd 92d5 533e 6d39 d5bd 68a0 31bf
000001e0: 133a e93d 76b7 0b3e 1467 8dbe eae2 e83e
000001f0: 6c17 6b3e dfbe acbd dac5 f2be 1d49 cf3e
00000200: 6dbd 69be ef85 f33e aa5a 9abe 06af e0bd
00000210: 8c49 21be 4ba1 0c3f a235 34be 21ed 03bf
00000220: c4ff 26bf 2185 3fbf 231f 23bf cc39 2bbf
00000230: f23a 5dbf b00e f2bc 2780 b5bd c802 88be
00000240: 047f 16be f61c 06bf 8a79 51be ae1c 9fbe
00000250: 4896 2bbe bce9 c5bd 0ab7 2fbe f7b1 e6be
00000260: 6b14 11bf e6bb 82be 19f6 523e 025f 03be
00000270: 99ea 4e3f 2141 2d3f 1c42 bd3e 94f2 223e
00000280: 7f2a cf3d 47f1 07bf 4541 a8bc 96a0 5f3e
00000290: b702 b73e 7972 1e3f 4336 d43e ad4b c53e
000002a0: 144d 66be 601a 51bd 1829 f4be 0f6d a63f
000002b0: c4a4 3e3f 896d ad3d e81c edbe 1ce1 4cbf
000002c0: 4365 bdbf f27b 59bf 1457 b0bf d126 aabf
000002d0: 8eb8 77be c8c1 9abe d84b c5be 34e9 a43d
000002e0: 7bdf 10bf d379 81be 0214 813e e722 97bd
000002f0: e6eb 81be 4ea8 113f eaf8 2d3e 52c8 8a3f
00000300: 1c42 4c3d 5637 7e3e 47b4 c0be 9e88 41bf
00000310: f0af 44bf 2043 29be 5c5b d03e 6487 dcbc
00000320: 7e59 c6be 9a94 16bd d666 c63d dc0d fabd
00000330: e2c2 99be bd08 55bc ca79 0ebe 5405 d33e
00000340: 6e43 063f bf28 663f 0d5d 04bd cae4 453e
00000350: 600a 74be a5ca ffbe cf27 bbbe 9613 0d3e
00000360: 4e16 0e3f 86dd fc3d 8fe5 5bbe dbb9 dd3d
00000370: 7566 b13d c4dd bbbd 50fe 8bbe 74a2 13bd
00000380: bc38 18be 4c2a 55bd 230f 47be a82a 81be
00000390: 7d7c f1be 2098 90be 60ab 7cbe 7e98 c3bd
000003a0: 33f6 09bf 9bf7 31bf c1ff 553f c063 103f
000003b0: 266b 0a3f 8730 a23d 556c dcbd ad3f 9cbe
000003c0: 4b75 4abf c189 d7be c72d 67be a3ed 853e
000003d0: 4ea5 c638 a33c 3dbe 9372 52be dc5d abbe
000003e0: a791 bcbd 7ab8 0fbf b4e4 c4be 08de 9dbe
000003f0: 3475 67bd ffbf 6cbe 0912 38be 7779 72be
0.21901558 -0.20593324 0.3415223 0.7621015 0.36232877 -0.18542886 0.4801068 0.12952048
-0.018860139 -0.04924108 -0.02568647 0.08936617 0.22621273 0.26270604 0.3561079 0.21833502
0.18192144 0.17608167 -0.07272234 0.09990603 0.09000165 0.198929 0.21479443 0.36050892
0.08788585 0.13359568 0.03375791 -0.025857247 -0.30087328 -0.5819021 -0.14659347 -0.27939355
0.034685146 0.4949007 0.4437478 -0.17014387 0.79499096 -0.28385276 0.37841275 0.6885313
0.9013679 -0.13256614 -0.10643909 -0.19374736 -0.14176142 0.07707798 -0.100799926 -0.07361129
0.16818155 0.1873177 0.29814258 -0.03334665 -0.15307102 0.16923423 0.33573997 1.0499543
0.18968332 0.62952864 0.041294646 -0.17441061 0.1445395 0.8245936 0.21898358 -0.12359352
-0.007599338 -0.11504038 0.1864294 0.31935313 0.26088366 0.055445146 -0.023390114 0.09409966
0.52551967 0.7411449 0.051546134 0.80269206 -0.5410961 -0.048318077 0.45550847 1.2210233
-0.07278288 0.9403173 0.5363228 0.32841814 0.28501064 -0.0362005 0.19280672 0.13991381
0.14239652 -0.04482751 0.038221173 -0.019473031 -0.09483493 0.19433106 0.26284736 0.23924905
0.05068592 0.300591 0.15618232 0.23040478 2.0903285 0.023021694 -0.46309495 0.51508826
0.5276118 0.5980176 0.8479092 -0.3163371 0.8387377 0.54700273 0.9166404 0.40579435
0.43790367 -0.047025748 0.45327014 0.021409849 -0.06224063 0.2068694 -0.10411344 -0.69385386
0.1138803 0.13644204 -0.27617705 0.45485622 0.22958153 -0.08434843 -0.47416574 0.40485469
-0.22826166 0.4756312 -0.30147296 -0.10970883 -0.15750712 0.54933614 -0.17598584 -0.51533705
-0.6523402 -0.74812514 -0.63719386 -0.66885066 -0.8641807 -0.02954802 -0.08862334 -0.26564622
-0.1469689 -0.5238794 -0.2045652 -0.31076568 -0.16756546 -0.09663722 -0.17159668 -0.4505765
-0.5667178 -0.2553398 0.20601691 -0.12829211 0.8082672 0.67677504 0.369645 0.15912849
0.10115527 -0.53102535 -0.020538935 0.21838602 0.3574426 0.6189342 0.41447648 0.385343
-0.2249034 -0.051050544 -0.47687602 1.3002032 0.7447016 0.08468158 -0.46311116 -0.8003099
-1.4796528 -0.8495475 -1.3776574 -1.3293096 -0.24191496 -0.30225968 -0.38534427 0.080522925
-0.56591004 -0.25288257 0.25210577 -0.07379704 -0.2537529 0.5689744 0.16989484 1.0842383
0.049867734 0.24825796 -0.3763754 -0.75599086 -0.7683096 -0.16529512 0.40694702 -0.026920028
-0.38740152 -0.03676281 0.09687583 -0.12209675 -0.30031496 -0.013002572 -0.13913646 0.41215003
0.5244664 0.89905924 -0.032315303 0.19325557 -0.23832083 -0.49959293 -0.3655381 0.13777003
0.55502784 0.1234694 -0.21474288 0.10826465 0.0866212 -0.09173158 -0.27342463 -0.0360436
-0.14865392 -0.05204229 -0.19439368 -0.25227857 -0.4716529 -0.28241062 -0.2467475 -0.0955057
-0.53891295 -0.6951844 0.83593374 0.56402206 0.54069746 0.07919412 -0.1076285 -0.3051733
-0.79085225 -0.42097285 -0.22576056 0.26157865 9.472166e-05 -0.18480162 -0.20551519 -0.33470047
-0.092074685 -0.56140864 -0.38455737 -0.3083346 -0.056508258 -0.23120116 -0.1797563 -0.23679148

bias f4 [32]
00000000: 9ba3 843b 8862 023d 6e17 7e3a 4b36 593d
00000010: 6bc2 1c3d 968d 923c dc38 04bd a4fd 4a3d
00000020: 835b 02be 3648 0d3c afff 06bd abac 20be
00000030: 0779 d2bc 7ea2 c9bd 9efb e03c c719 5a3d
00000040: f607 e33c 9270 4e3c f14e 19be 7429 8dbd
00000050: 1f7a 04bd 26aa c13d c41b 4e3d 0ff1 6abd
00000060: 0f02 86bd c18d 3cbd 8914 a83d 4ac3 3a3d
00000070: ec9d 9fbd f722 cdbd e664 08bd 2128 8dbc
0.0040478236 0.031832248 0.00096928224 0.053030293 0.03827135 0.017889779 -0.032280788 0.049558297
-0.12730221 0.008623173 -0.032958683 -0.15690868 -0.025692476 -0.09845446 0.02746373 0.05324724
0.027713757 0.012600081 -0.1497152 -0.06892672 -0.032343026 0.09456281 0.050319448 -0.057358798
-0.065433614 -0.046033625 0.08207042 0.0455964 -0.07793793 -0.10016435 -0.03329935 -0.017231049

weight f4 [32]
00000000: 63cc 173f 9b23 c93f 4ee0 7e3e b062 de3f
00000010: 80f0 e23f 91c1 2d3f 0a3a ba3f 52ba ab3f
00000020: 2a37 8c3f 4840 bb3f afc5 ec3e 59fb 5a3f
00000030: 2494 0040 fae8 133f 7573 bd3f 56b2 d33f
00000040: 3255 973f 2c4f 0b3f a903 e33f 3cb2 883f
00000050: 9193 203f c217 3a3f bea3 c13f 0c78 e23f
00000060: 98fa ca3f 646d 9b3f cdd2 163f ccf1 c03f
00000070: 1d8c ab3f 51eb 0d40 4b0e 393f 168d b43f
0.59296244 1.5713991 0.24890253 1.7373867 1.7729645 0.67873484 1.4548962 1.3416235
1.0954335 1.4628992 0.4624457 0.85539776 2.0090418 0.5777737 1.480086 1.6538799
1.1822875 0.5441768 1.7735492 1.0679393 0.6272517 0.726925 1.5128095 1.7692885
1.5857725 1.2142758 0.58915406 1.507379 1.3402134 2.2174876 0.72287434 1.4105556

bias f4 [32]
00000000: e93d 14be 5299 1ebf ca8d f0be 3e34 4abf
00000010: 2f4e 9dbf 9617 3ebe 98bd babe 7618 22bf
00000020: 4170 f33c b5ea a9be 8f23 d13d c7f0 39bf
00000030: f30b 39bf 6b60 f1be 6ba7 d3be 0447 c3bf
00000040: a10d 91be cc4f 13be c111 98bf aa2d 59bf
00000050: 2c3c 17be b719 36bd ffa2 d6be 24c4 a6bf
00000060: ffdc b1be dfbd 8ebe 8468 40bd afef 51bf
00000070: ae0f a8bf 9c0b c8bf 4c6b 8abe b87b b8be
-0.14476742 -0.619527 -0.46983176 -0.78985965 -1.2289485 -0.18563685 -0.36472774 -0.63318574
0.029716613 -0.3318688 0.102118604 -0.7263302 -0.7228386 -0.47143874 -0.41338667 -1.5256047
-0.2833071 -0.14385909 -1.1880418 -0.848353 -0.14769047 -0.044458117 -0.4192123 -1.3028607
-0.3473892 -0.27879235 -0.046974674 -0.82006353 -1.3129785 -1.5628543 -0.27034986 -0.3603189

running_mean f4 [32]
00000000: 1996 1941 be32 0cc1 ddad 91c0 487f 2cc2
00000010: 0261 e8c1 9db3 3e41 29da 13c1 065b 47c1
00000020: 98ed 6541 6105 8ec1 8e77 a041 9981 98c0
00000030: 5e4b 25c2 7298 3cbe 1b60 bfc1 c6b0 83c1
00000040: 9f84 2041 790b 5b41 41dc 0cc2 cf22 a8c1
00000050: 743c df40 85d1 6b41 af08 afc1 c11e 1bc2
00000060: 9122 d0c1 7a50 2e40 1b64 4741 9e3e e6c1
00000070: fb82 c7c1 deaa b9c1 6e97 2141 d07e 8fc1
9.599145 -8.762388 -4.5524735 -43.1243 -29.047367 11.918851 -9.240762 -12.4597225
14.370506 -17.752626 20.058376 -4.76582 -41.3236 -0.18417528 -23.921926 -16.461315
10.032378 13.690301 -35.21509 -21.016996 6.9761295 14.738652 -21.87924 -38.780033
-26.016878 2.723662 12.46194 -28.780575 -24.938955 -23.208431 10.09947 -17.93692

running_var f4 [32]
00000000: 8fc2 9843 196b eb43 86e7 5643 dd13 0344
00000010: 0be4 9943 3d8b 8643 1a5b 5844 02f8 8b43
00000020: 4750 d243 dee9 9f44 4ecf a643 cbec a442
00000030: 67a0 1b44 b59f b443 bff8 5944 dae0 4f43
00000040: 3047 cd43 4605 ff43 8b5c d243 9ce7 4543
00000050: c208 b843 3f79 a843 07c1 2b44 b596 d743
00000060: ee42 4044 87ff 1244 a75d 9843 9f42 f743
00000070: 47f3 6843 60c4 a443 f127 ad43 93ca 2744
305.52 470.8367 214.90439 524.31036 307.7816 269.0878 865.42346 279.93756
420.62717 1279.3083 333.61957 82.46249 622.5063 361.2477 871.88666 207.87833
410.55615 510.0412 420.723 197.90472 368.06842 336.94724 687.01605 431.1774
769.0458 587.9926 304.73166 494.52048 232.9503 329.53418 346.31204 671.1652

weight f4 [64, 32, 3, 3]
00000000: 3578 74bf e5bd b8bf eeab 9ebc 5865 61bf
00000010: 3a80 1fbf 052e 093e b3ac ee3e a724 91bf
00000020: 91c0 70bf b103 7d3f 4a05 ed3e 0a7e dcbe
00000030: 84da fd3e 1748 163f e426 24bf 9fd5 9cbe
00000040: da2b 19be 5bcb 96be 8cec 02bf acf8 6cbf
00000050: fed9 72be a35e 29bf 1d99 2cbf a03b bcbe
00000060: 1353 4c3e a672 acbe dbde fabe 8dc4 6b3e
00000070: 84f6 1b3f 4169 723f e8eb 9d3f 5664 2f3f
00000080: 96f2 ec3e 8118 ed3e 5b66 583e 04a5 173f
00000090: 1dc7 00bf a8b3 933e b46a f83d 31bc 223f
000000a0: e0cd e9bd 1b9f 94be 398c 443e a364 1f3e
000000b0: ed9d be3e 89e3 4ebf a808 3bbf 93a1 9f3e
000000c0: 0de8 d1bd 8b96 97bc d756 453e 6f0b 0d3f
000000d0: ff1c 80bf 8e2c 18bf cb51 b63e 96bc 953e
000000e0: c8f4 5bbf 0457 263f be26 813e 6150 10bf
000000f0: 991e 33be 7b08 db3e 4f57 1ebe 8902 993e
00000100: f2b5 1e3f 06dc dd3c b293 0a3f 02a7 773f
00000110: c4a2 8ebe 35a3 57be ac2e 2e3f c489 14bf
00000120: c0f7 933e e0d5 8bbe b469 6fbf 6896 003e
00000130: 2ae7 2c3e 31bf 063e ca57 653e 64e7 abbe
00000140: 48ff 1fbe 85d7 e23e c321 953e e5da 92be
00000150: d6ec ac3e d9a0 513f de07 96be 79ef e7bd
00000160: 0aeb 1b3e a7f2 993d 02d0 89bf 9b12 a1bf
00000170: 5e8b 0abe 7eae 2cbf b2f9 e9be 1830 4a3d
00000180: 5cc5 c73e e096 a0bf 0770 5cbf 3ce1 c2bd
00000190: 87da 5ebf e1be 68be 13bd 3ebd 5746 8abe
000001a0: 8695 5abd 87e2 c23e 8419 68b8 57eb 87bf
000001b0: 125a 753f 753d 5c3f d49b 833e b5cc 403f
000001c0: 741a df3d 5c24 ae3e e8d4 90be 1cb1 eb3e
000001d0: 9e23 64bd c863 87bf 2a7e 84bf 2474 063f
000001e0: d0d4 84be 78de 47be 8de6 543e 3144 303f
000001f0: eca8 a4be 57b8 5ebf 911e 903f 09d8 0c3f
00000200: b4fa 8cbe 4cf9 153f 9c59 9a3f 655a 223d
00000210: d1fb fabd d9b1 083f 5e2b 9f3e bbbc 82bf
00000220: 142c 0ebf f06c 3bbe 1c09 21be d228 88be
00000230: a81a a53e bd6b c43f 594b 1a3f 9f85 353e
00000240: 11a3 33bf 2168 67bf 633f 3bbf af8f a53d
00000250: 915c 0c3f 1ff3 d6bd 936a 3f3f 6485 6e3e
00000260: ac82 bb3e d924 d1be 55b2 4bbf 3556 f83e
00000270: a401 7abe 45e1 39be 65ed 3d3e daa8 813b
00000280: 17fd 09bf 0339 25bf c885 633f a57b 6f3f
00000290: 9ecd 05be 3bc8 813f f05d 523f 39ec 0f3f
000002a0: 1355 2ebe bcfa 763f 8d28 983e 0ef0 a0bf
000002b0: 18a0 3abf 8ef3 dabe 7363 2ebf dced a2bf
000002c0: 40e9 a3bf 6baf f33e fab0 1ebd 61d8 0cbe
000002d0: a50f 4bbf dfb0 66bf 7647 4a3e 9e6f 52bf
000002e0: 10af 28bf 2358 1cbe e8f0 503d fe52 72bf
000002f0: 42c7 24bf 10f8 80bf 8d12 94bf 45e1 273e
00000300: 83f1 02bf c330 d8be f42f e13d 07ab a23d
00000310: afb2 1abf 04d9 7bbf 9538 bf3f 9718 213f
00000320: 0a56 05be 4440 ad3e 35d5 8e3f 2330 f03d
00000330: 2e2b 71be 607c 56be 8492 43be 1318 803e
00000340: c98b 103f 8fc2 493e 9e8a 133f 9e8b ea3e
00000350: f13f 783d 1b80 4f3f e1cb b33e 9385 e63e
00000360: ed63 a53e 4dfe 383f 691d dbbe 2fbf 673f
00000370: e08a 123e 87b5 c8be d687 283d 9c86 ef3e
00000380: aa29 6bbd 85f2 0dbe dfb8 c4be e054 3bbf
00000390: 48c1 543e 5d28 3d3f 5752 213d 62d0 ab3f
000003a0: 2e4d 8e3f 5080 243e d5f3 4abf 7f35 94bf
000003b0: a151 06bc 1aff 11bf 54cd 07bf fd7e 493d
000003c0: 5e57 023f 13b9 30bf 9f8c 61bf 987e c23d
000003d0: 672d d63e 09e5 d63d 29b6 1f3f 5321 433f
000003e0: 7239 383d 1ace d13e 6bc6 543e b30d 1d3e
000003f0: 69fa 85bf 0b6c 8fbf a3e5 85bf d2e2 4c3e
-0.9549592 -1.4432951 -0.019369092 -0.88045263 -0.62305033 0.13396461 0.46616134 -1.133931
-0.94043833 0.9883376 0.46293098 -0.4306491 0.49580777 0.5870375 -0.6412184 -0.3063173
-0.14958134 -0.29452023 -0.5114219 -0.92566943 -0.2371597 -0.6616003 -0.6742113 -0.3676424
0.19953565 -0.3368122 -0.4899815 0.23024197 0.6092303 0.94691855 1.2337618 0.68512475
0.46278828 0.46307757 0.21132796 0.5923617 -0.5030382 0.28848004 0.12129727 0.6356841
-0.11416221 -0.29027638 0.19194116 0.15565734 0.37229863 -0.8081594 -0.73060083 0.3117796
-0.10249338 -0.018504402 0.19271408 0.5509557 -1.0008849 -0.59442985 0.35609278 0.29245442
-0.8592038 0.64976525 0.2522487 -0.5637265 -0.17492141 0.42779908 -0.15462993 0.29884747
0.61996377 0.027082454 0.54131615 0.9673921 -0.27858555 -0.21058352 0.68039966 -0.58022714
0.28899956 -0.2731161 -0.93520665 0.12557375 0.16885057 0.13158871 0.2239677 -0.33574975
-0.15624726 0.44305053 0.2912732 -0.28682628 0.3377444 0.8188606 -0.29302877 -0.11324973
0.15226379 0.075169854 -1.0766604 -1.2583803 -0.13529727 -0.67453754 -0.45698315 0.049362272
0.3901776 -1.2546043 -0.8610844 -0.09515616 -0.87052196 -0.22729065 -0.046567034 -0.2700679
-0.053365253 0.38063452 -5.5336874e-05 -1.0618695 0.9584056 0.86031276 0.25704825 0.7531236
0.108937174 0.34012115 -0.28287435 0.4603356 -0.05569803 -1.0577326 -1.0351002 0.52520967
-0.25943613 -0.19518459 0.20791073 0.6885405 -0.32160127 -0.8700003 1.1259328 0.55017143
-0.2753502 0.5858352 1.2058597 0.03963699 -0.122550614 0.53396374 0.31087774 -1.0213846
-0.5553601 -0.18303275 -0.15726131 -0.26593643 0.322469 1.5345379 0.6027122 0.17726754
-0.70170695 -0.90393263 -0.73143595 0.08084046 0.54828745 -0.104955904 0.74771994 0.23293072
0.36623132 -0.40848425 -0.7956899 0.4850327 -0.24414688 -0.1815234 0.1854759 0.0039568963
-0.5390181 -0.6454012 0.8887601 0.9354804 -0.13066718 1.013923 0.8217459 0.5621982
-0.1702464 0.9647634 0.29718438 -1.2573259 -0.72900534 -0.42763942 -0.681205 -1.2728839
-1.2805557 0.4759477 -0.038742997 -0.13754417 -0.79320747 -0.90113634 0.19753823 -0.82201564
-0.65892124 -0.15267996 0.051010996 -0.94657886 -0.64366543 -1.0075703 -1.1568161 0.16394527
-0.5114977 -0.42224702 0.109954745 0.07942777 -0.604289 -0.98378015 1.4939142 0.62928146
-0.13021103 0.33838093 1.1158816 0.11727931 -0.23551628 -0.20945883 -0.1909886 0.25018367
0.56463295 0.19703124 0.5763339 0.45809644 0.060607854 0.8105485 0.35116485 0.45023784
0.323028 0.7226303 -0.42795876 0.905261 0.14310789 -0.39200994 0.04114517 0.46782386
-0.05741278 -0.13862045 -0.38422295 -0.73176384 0.20776856 0.73889714 0.039385166 1.3422968
1.1117303 0.16064572 -0.7927831 -1.1578826 -0.008198173 -0.5702988 -0.5304768 0.04919337
0.5091456 -0.690324 -0.88105196 0.09496802 0.41831514 0.10492904 0.6238733 0.76222724
0.04497666 0.40977556 0.20778815 0.15337257 -1.0467044 -1.1204847 -1.0460705 0.200084

bias f4 [64]
00000000: 00fe 5a3b 8994 7dbd 892c 2bbd 1216 12bb
00000010: 59cf 073c 015f 11bd a134 3dbc 1624 15bd
00000020: f53b 66bc 4f36 97bd 7d73 91bc 10d8 c5bc
00000030: 293b 823c 2e13 3dbd 4ccc 823d 425c 373b
00000040: 5cf7 a23d 67bf 513d b073 323b 9a0b 8cbd
00000050: 1939 2ebc ec56 403d 5cc0 8bbd 8996 c03c
00000060: 02c5 b83d b804 f1bc 2b5e cb3c 432f 2d3d
00000070: 116c 0f3d c415 db3c 9ac5 e4bd 46b5 0abd
00000080: 6e26 733c eadd b13d 9861 593c 4266 273d
00000090: 1d02 3abc c58e 0b3d 01e0 6abb 8296 2d3d
000000a0: 16eb 033b 8590 d3bd cf5b fa3b 4557 bc3d
000000b0: fcb9 d33c abb7 8639 fa7e 25bd 184d 82bd
000000c0: d421 2dbd d3b3 88bc aa74 123d 9291 b3bc
000000d0: b17d 70bd e5e6 93bd 0a87 053d adad bdbd
000000e0: ef50 f5bc 8014 2cbd 9711 913c e50f 9b3c
000000f0: d06d 2f3d 0326 ddba 60b2 e73c f570 1e3d
0.0033415556 -0.061909232 -0.04179052 -0.0022290987 0.008289182 -0.035490993 -0.011548192 -0.036411367
-0.014052381 -0.073834054 -0.017755264 -0.024150878 0.01589735 -0.04616087 0.06386623 0.0027978574
0.07957336 0.051207926 0.00272296 -0.0683815 -0.01063373 0.046957895 -0.06823799 0.02350928
0.09021951 -0.029421195 0.024825176 0.0422814 0.03501517 0.026743777 -0.11170502 -0.033864282
0.014840705 0.08684905 0.013267897 0.040869005 -0.011353043 0.034071703 -0.0035839083 0.042379864
0.0020129136 -0.10330299 0.007640339 0.09196333 0.02584552 0.00025695315 -0.040404297 -0.06362361
-0.04226859 -0.01668731 0.03575579 -0.02192 -0.05871362 -0.07221774 0.032599486 -0.09261642
-0.029945819 -0.042011738 0.017708583 0.018928478 0.042829335 -0.001687229 0.028283298 0.038681943

weight f4 [64]
00000000: f6f8 a53f c69e a03f 1499 b83f 57ab 083f
00000010: 1112 533f d83d 0a3f 2627 003f 9737 9c3f
00000020: e458 803f 3bc1 933f 1d32 ef3e 5f45 fe3e
00000030: c97e 8b3f 53f9 073f b9df 9b3f 0a52 ae3f
00000040: be0c b43f b040 e03e 06c9 6c3f ecdb 7b3f
00000050: 5a18 cb3f 94b3 863f 6c36 e33e 78ce da3e
00000060: a597 ae3f 352c b03f 5264 af3f 1e10 383f
00000070: 951b b43f 3061 853f 4089 893f f6b1 9e3f
00000080: 8fe4 bd3f b554 803f e7f8 913f 60ea 233f
00000090: d307 423f 06f8 1b3f 40fc 893e 2a53 853f
000000a0: 4f38 113f ebc3 cc3f f9b4 5e3f 239f 7e3f
000000b0: d473 ae3f 9052 313d 99a2 713f 00cd 473f
000000c0: ac38 c03f 5fb5 b33f 8124 8a3e 649d 783f
000000d0: 9691 713f 3558 963f ac25 863f 1880 863f
000000e0: d6cb 613f ce67 983f 2443 f03e 5fe2 883f
000000f0: e7d9 d43d 3286 c73e 08dd af3f 7b80 8f3f
1.2966602 1.2548454 1.4421716 0.53386444 0.8244944 0.54000616 0.50059736 1.2204465
1.0027127 1.1543344 0.4671792 0.496623 1.0898067 0.53114814 1.217765 1.3618786
1.4066389 0.43799353 0.9249424 0.9838245 1.5866807 1.0523553 0.44377458 0.42735648
1.3640028 1.3763491 1.370249 0.7189959 1.4070917 1.0420284 1.074501 1.2398059
1.4835376 1.002585 1.1404084 0.640295 0.7579319 0.6092533 0.26950264 1.0416005
0.56726545 1.599729 0.8699489 0.99461573 1.3629098 0.04329163 0.9438873 0.7804718
1.5017295 1.4039725 0.26980975 0.9711516 0.9436277 1.1745669 1.0480247 1.0507841
0.88201654 1.1906679 0.46926224 1.0694083 0.10393124 0.3896957 1.3739328 1.1211084

bias f4 [64]
00000000: 216a 99bf 6fb9 71bf 19cb d7bf 761a 5dbf
00000010: 5294 cbbf fa7a 98bf bb25 7bbf 4356 e8bf
00000020: 6d1f bbbf 3d61 c1bf c4ad 50bf 1297 08bf
00000030: bd21 58bf 68df 62bf d28b aebf 48b1 8fbf
00000040: ba39 c0bf 63c7 3cbf b811 2ebf 0f27 a3bf
00000050: 6f19 fcbf cec7 c5bf a658 8abf 1cc0 61bf
00000060: 7a87 dfbf 271d f3bf 2864 e8bf 8ebe a8bf
00000070: 1cee a4bf c4a6 c7bf f4cc bfbf 4eed 84bf
00000080: cfc7 afbf a4bb d9bf f61a 95bf e081 90bf
00000090: 34d8 babf 775a 49bf 37a9 2abf fc02 a8bf
000000a0: 02be 94bf ee77 c9bf ad5f b5bf 3ba3 b4bf
000000b0: a1f8 c6bf 6ef3 06bf 78db c5bf 9203 a7bf
000000c0: 0f6c 98bf b4e2 8ebf e00d 16bf 06ca 63bf
000000d0: dcd0 a6bf b1df 8ebf 4db1 d1bf d19a 6bbf
000000e0: 9567 c3bf 0e77 86bf 125c 77bf fb2a b4bf
000000f0: 7de6 dbbe 1ab6 18bf 32ec cabf 36e9 b3bf
-1.1985513 -0.94423574 -1.6858855 -0.863685 -1.5904639 -1.191253 -0.9810445 -1.8151325
-1.4618965 -1.51078 -0.81515145 -0.53355515 -0.8442648 -0.8862214 -1.363642 -1.1225977
-1.5017617 -0.7374174 -0.67995787 -1.2746295 -1.9695262 -1.54516 -1.0808303 -0.8818376
-1.7463219 -1.8993272 -1.8155565 -1.3183153 -1.2885165 -1.5597768 -1.4984422 -1.038492
-1.3732852 -1.7010388 -1.1648853 -1.1289635 -1.459723 -0.78653663 -0.6666445 -1.3125911
-1.1620486 -1.5739725 -1.4169823 -1.4112314 -1.5544626 -0.52715194 -1.5457602 -1.3047965
-1.1907977 -1.1162934 -0.5861492 -0.8898014 -1.3032489 -1.1162015 -1.6382233 -0.92033106
-1.5265986 -1.0505083 -0.96624863 -1.4075617 -0.42949286 -0.59652865 -1.5853331 -1.4055545

running_mean f4 [64]
00000000: 9564 9340 c0e7 13c2 59ed 26c2 c8d2 ccc1
00000010: 94cf 04c2 3f68 bcc1 a07d 9abf 4452 a1c0
00000020: a1a4 9fc1 81b2 dbc1 bdb6 a2c1 2df2 05c2
00000030: 4118 1e40 7be2 e4c1 ebad 90c1 af89 0dc2
00000040: 1b9d 0a3f a64e 5ac1 5e46 20c2 1983 23bf
00000050: 6bde 8dc1 5805 17c2 3c91 a0c1 2ef4 c9c1
00000060: 7294 62c1 fcbf 08c2 9b3f b4c0 6d6e 2dc1
00000070: de71 80c1 56ff 6bc1 3d76 24c1 6233 c6c1
00000080: 9563 f6c1 fb02 b5c1 d775 bfc1 6769 b3c1
00000090: 5c45 47c1 0da3 43c2 2055 c6c1 ffcb 0fc2
000000a0: e1b2 05c1 4f3d 90c1 00cf 76c1 c133 07c2
000000b0: 10b8 9fc0 528c 0bc0 3eb2 0ec2 62b3 b4c0
000000c0: fbe0 81c1 03e6 89c1 617c 06c1 7de7 60c2
000000d0: e22f 3bc2 c662 a7c0 4324 0cc2 60d9 60c2
000000e0: 218e 9cc1 76e2 e6c1 c6c1 87c1 9e8c a941
000000f0: b474 38c1 466b d9c1 d34a 3ac0 f823 49c2
4.606028 -36.97632 -41.731785 -25.60292 -33.202713 -23.550901 -1.2069588 -5.041292
-19.955385 -27.46216 -20.339228 -33.4865 2.4702303 -28.610586 -18.08492 -35.384457
0.54145974 -13.644201 -40.068718 -0.63871914 -17.733603 -37.75522 -20.070915 -25.244228
-14.161242 -34.187485 -5.6327643 -10.839459 -16.0556 -14.749838 -10.278867 -24.77509
-30.798624 -22.626455 -23.932539 -22.426466 -12.454433 -48.90923 -24.791565 -35.949215
-8.356172 -18.029936 -15.425537 -33.80054 -4.9912186 -2.1804395 -35.674065 -5.6468973
-16.234854 -17.23731 -8.405366 -56.226063 -46.79676 -5.2308073 -35.03541 -56.21228
-19.569399 -28.860577 -16.969616 21.19366 -11.528492 -27.17738 -2.910817 -50.285126

running_var f4 [64]
00000000: 2cd1 3f44 63ac 0344 2e5a de43 e7f2 5d43
00000010: fe53 4443 388f 2543 d4a4 af43 69b5 b743
00000020: bea6 8143 9a8d bb43 8242 6b43 cd4c 7643
00000030: ac2a e743 d8de ec43 4eb7 a743 c811 0944
00000040: 81d0 1e44 f33d 5643 5e5e 0444 aea7 8343
00000050: 7c99 d843 9d45 9f43 c838 2c43 b10a 4f43
00000060: 0501 bb43 f88d 9043 3242 ef43 0719 6143
00000070: 0c9a 0044 f644 4e43 5818 9843 f362 0044
00000080: a3fc e843 de92 7b43 b0f0 cf43 371d 2643
00000090: d52b 3543 54ea 9a43 5dce 7f43 0650 9543
000000a0: 68b6 0343 c0c2 0044 4556 3a43 c84b 8d43
000000b0: bf3d cc43 4430 1442 daa4 7e43 6c11 8543
000000c0: ccd4 1044 0cf8 d943 8257 d941 7112 c843
000000d0: cb9e 9643 17d7 2644 9169 5a43 db1a 2044
000000e0: d340 8243 d1a9 db43 2d20 5343 426a e843
000000f0: fdbb c641 7f95 2c43 b184 dc43 c4cb 8c43
767.2683 526.69354 444.70453 221.94884 196.3281 165.55945 351.28772 367.41727
259.30267 375.10626 235.2598 246.3 462.33337 473.74097 335.43207 548.27783
635.2579 214.24199 529.4745 263.31 433.1991 318.54385 172.2218 207.04176
374.00797 289.10913 478.51715 225.09776 514.407 206.26938 304.1902 513.5461
465.97372 251.5737 415.88037 166.11412 181.17122 309.8307 255.8061 298.62518
131.71252 515.04297 186.33699 282.59204 408.4824 37.047134 254.64395 266.1361
579.32495 435.93787 27.167728 400.14407 301.24057 667.3608 218.41237 640.4196
260.50644 439.3267 211.12569 464.83014 24.841791 172.58397 441.03665 281.59192

weight f4 [256, 64, 3, 3]
00000000: b6f4 403f bf14 b7be ca63 9bbe fe46 753f
00000010: 2ca0 3ebd 3379 523f a573 773e a930 07bf
00000020: ee1e 883c 9705 833e a385 9cbf 3a8a 383f
00000030: cf94 cabe 5182 3d3d d323 363f f8ee 2c3f
00000040: c8ad 4fbf 9552 6d3e 8340 d6bd dde3 23be
00000050: 9063 73bf 6b5f 05bf d05c 8c3f 6831 82bf
00000060: d0a5 38bc 8c7c 313f 3d75 66be fd39 97be
00000070: 9964 a23e df44 a13e 3441 b23d 7151 8dbe
00000080: 39b9 283e 273a f53e 94e1 f2be ccc0 09be
00000090: 0129 7a3d 404f 713f 0aee 14be 158e 553f
000000a0: b62e 1abf e4f8 47bf 0310 013e 4601 69bf
000000b0: 497b 55bf 0ec8 8bbe 5846 913f af70 7d3e
000000c0: bcec 813e 0c68 a7be 1419 cdbe 249b 2b3e
000000d0: 119f 17be 1688 02be af55 09bf 4949 413f
000000e0: b0af 47be f6c8 823d b031 c0be a907 37be
000000f0: d1fe f53e 459e f3bd 0458 f6be 907e e33d
00000100: 4bcd bbbd 4807 e63e 1567 7f3f eb47 f3be
00000110: 41c5 3dbf 90fb 383d f4a5 24bf fb7c f1be
00000120: 628a 24bf 0a00 d33d d016 743e f18a 743f
00000130: 127c 07be 60f0 b6be 65f5 6e3e e2a8 9b3d
00000140: e06e 7dbe 9605 123f 5cad c1be 0442 673e
00000150: 1e9b b2be da86 433e 23ff 85be 4963 903f
00000160: 0f05 763a 35f2 8a3f f057 c13d 484e 9f3d
00000170: 79fb e5bd dc17 b43e a867 41ba d174 89bf
00000180: f4d5 a83f 6d01 56be ba51 bd3e d379 9e3e
00000190: dd0a f53d 64ed 4abe b49d 143f 5b0c 1d3f
000001a0: e766 debe 9b4e 953e 2840 2c3f 0a74 59bf
000001b0: 7446 aabe 366a 6d3f 41e2 16bf 84d2 653d
000001c0: 5b55 06bc 7cec e4be 4191 0e3f f815 6b3f
000001d0: edf2 2d3e b68d 30be 47b3 fe3d 4641 473f
000001e0: b030 ec3e a696 873e 7e2d 0d3f ffa0 87bc
000001f0: 7ef5 1ebf 5eb5 763d e9d6 cdbe 29d7 1a3f
00000200: 181a aa3d 32b8 2fbe d48e ad3f 5dfe acbf
00000210: f804 cd3e 9012 71be e9ed 68bf 7b4f ccbd
00000220: 50ce acbe a58e 5abe 697e 37bf ce04 13be
00000230: 1383 513e 0678 0fbf c071 0e3f a90d be3f
00000240: c094 903e 1b4c 26bf 03b3 6fbd 2fe5 3d3f
00000250: b168 9abf 699d 0dbf 295b 033f eebe cd3f
00000260: c715 83be 38f2 333f 9bd5 113e e685 09be
00000270: 3ce3 803f ea33 2cbf e8f8 833e c010 1b3f
00000280: 8f9b 21be c2f8 f53e dc55 82be 32eb 6c3e
00000290: 1141 173e 6096 6ebe 999d a0bf b939 72bf
000002a0: 5a0e c8be 7a0a b4be 377e 683e 097e ebbd
000002b0: cbf2 42be 462b 9c3e 1ac5 05be 7d1d debe
000002c0: 8fa1 913f dc16 a4bd 94ed d7be bda6 30be
000002d0: ead6 e0be 10be febe 4c43 85bf 74c3 0fbd
000002e0: e890 5fbe abcf a2bf 45e7 94bc 7022 a63f
000002f0: 98e2 7f3d adcc 033f acb4 013f 17b9 1d3f
00000300: 8180 29be a9ef 4cbf c9b2 99bf 4f56 d2bd
00000310: dec3 3bbf 6e41 1dbf f9ee 0b3c 7e66 3c3f
00000320: adcf 26bd 0bcc 153f 5779 12bf 480d 963e
00000330: e212 2dbe 5b3c edbe 0786 01bf cd5d b93d
00000340: 27c9 be3e 48ff 743e 5758 0a3f 75f8 49bf
00000350: 29db 01be 1202 52bf 12f0 67bf a372 19be
00000360: 4be3 93bf c09a 04bf 738d 50bf ef55 31bf
00000370: 4920 46bf f3f3 37bf b0f6 063f fbd3 7dbe
00000380: 7c70 4fbe 7222 2dbe 5bbd 29bf 0bfb 1cbf
00000390: 4769 263e bb49 f73e f9b3 823f 487c 2bbe
000003a0: 6b2c 8fbe de1e 9fbe b7e4 03bf 637b a6be
000003b0: bdf1 3bbe 4ef9 9fbf 5a12 0fbe d580 99be
000003c0: 512f 6bbe 09d2 08be 86f6 143f b311 94bf
000003d0: 11b9 1a3f d487 083f 09ae 58bd 8ad6 4f3d
000003e0: b319 88be 2d6d 713d 8474 313f a2cf 5c3f
000003f0: 7a9d 9cbc 0a2c ee3e 7b9d 89be 7dd2 943f
0.753734 -0.35758016 -0.3034957 0.9581145 -0.04653947 0.82216185 0.24165209 -0.52808625
0.01661631 0.25590202 -1.2228283 0.72085917 -0.39566657 0.046266858 0.71148413 0.6755214
-0.81124544 0.23176034 -0.104615234 -0.16004892 -0.95073795 -0.5209872 1.0965824 -1.0171328
-0.0112700015 0.6933067 -0.2250566 -0.2953643 0.31717375 0.31497857 0.08703843 -0.27601197
0.16476907 0.4789593 -0.47437727 -0.13452452 0.06107426 0.9426155 -0.1454393 0.83419925
-0.60227525 -0.7811415 0.12603764 -0.9101757 -0.83391243 -0.27301067 1.1349592 0.24750017
0.25375926 -0.3269657 -0.40058196 0.167584 -0.14806773 -0.12747225 -0.5364637 0.7550245
-0.19500613 0.063859865 -0.3753791 -0.17874016 0.48045972 -0.11895422 -0.48114026 0.11108124
-0.09170016 0.4492743 0.99766666 -0.47515807 -0.7412911 0.045161784 -0.64315724 -0.47165665
-0.64273655 0.10302742 0.23836827 0.9552451 -0.13230923 -0.35730267 0.23335798 0.07600571
-0.24749327 0.57039773 -0.37827575 0.22583777 -0.3488397 0.1909441 -0.26171216 1.12803
0.0009384909 1.0855166 0.09440601 0.07778603 -0.11229605 0.35174453 -0.00073778117 -1.0738775
1.3190293 -0.20898981 0.36976415 0.3095232 0.11964963 -0.1981712 0.58053136 0.6134698
-0.43437883 0.29161534 0.67285395 -0.84942687 -0.33256876 0.9274019 -0.58938986 0.056108966
-0.008199061 -0.44711673 0.5569039 0.91830397 0.169872 -0.17241558 0.12436538 0.77833974
0.46130896 0.26482123 0.5514754 -0.016556261 -0.6209334 0.06023156 -0.40203026 0.6048456
0.08305758 -0.17160109 1.3559213 -1.3515126 0.40042853 -0.23542237 -0.9098802 -0.09976097
-0.33751154 -0.21343477 -0.7167726 -0.14357302 0.20460157 -0.56042516 0.5564232 1.4847919
0.28238487 -0.6495988 -0.05852033 0.7417783 -1.2063199 -0.55318314 0.51310974 1.6073892
-0.25602552 0.7029147 0.1424164 -0.13429984 1.0069346 -0.67266715 0.25775838 0.60572433
-0.15781997 0.4804135 -0.2545613 0.23136595 0.14770915 -0.23299551 -1.2548095 -0.9461933
-0.3907345 -0.35164243 0.22704397 -0.11498649 -0.1903793 0.30501765 -0.1306347 -0.43381873
1.1377429 -0.080121726 -0.42173445 -0.17251106 -0.43913966 -0.4975438 -1.0411162 -0.035098508
-0.21832621 -1.2719625 -0.018176684 1.297926 0.062471956 0.51484185 0.5066631 0.6161055
-0.16552927 -0.8005319 -1.2007686 -0.10270368 -0.73345745 -0.6142796 0.008540862 0.7359389
-0.0407254 0.5851447 -0.572164 0.29307008 -0.16901734 -0.4633511 -0.50595134 0.09051094
0.37262842 0.23925507 0.54041046 -0.7889474 -0.12681259 -0.8203441 -0.90600693 -0.14985137
-1.1553739 -0.5179863 -0.81465834 -0.6927175 -0.77393013 -0.7185661 0.52720165 -0.24787895
-0.20257753 -0.16907671 -0.6630456 -0.6132056 0.16251098 0.4829844 1.0211173 -0.16746628
-0.27963576 -0.31078237 -0.51520866 -0.32516012 -0.18353935 -1.2497957 -0.13971844 -0.29981104
-0.22967269 -0.13361372 0.58188665 -1.1567901 0.6043864 0.5333226 -0.052900348 0.05074171
-0.26582107 0.05894201 0.69318414 0.8625432 -0.01911806 0.46517974 -0.2687796 1.1626736

bias f4 [256]
00000000: 97e3 9cbb fc2e 10bd bc06 9abc 7aef 853a
00000010: 9f98 773b 483e bd3c 98af 533c 8591 c63c
00000020: 2884 403c b99c da3c 0626 bbbc c8f0 303c
00000030: b806 65bd af37 ba3a 5c0b e33c d89a 1c3d
00000040: cfbf 353d fff9 d6bc 3739 dc3c 09f1 183d
00000050: ffc7 48bd 5a0a e9bb cab6 653c f0a3 49bd
00000060: 4365 753a 205c 8a3d 4710 823c 6810 6fbd
00000070: 697d 61bd 558a 19bd a8ca 9f3c ee7f 503d
00000080: fa04 c8bc 1106 163d 4133 083d 03f7 d33c
00000090: fc35 063d ab4a 3b3d 801c 94bc 18a6 193c
000000a0: dc60 e6bc f7bc 46bc ae79 6a3c 3e0e 4a3d
000000b0: a7f9 bcbc 6102 f03b 9a73 603d 80c5 8cba
000000c0: 097c 1b3b fdc6 76bc b62b 333d 2b6d 23bc
000000d0: 47fb 39bd 02e2 9fbc e2a3 5dbd f488 2d3c
000000e0: d722 823d 317c 0bbd 32bd 353d 0653 06bc
000000f0: 84ed fd3b b1d2 aabc 3e9d 1f3d 3594 e53c
00000100: 8a0a bdbc 765c a0bc c261 4abc 8532 edbc
00000110: 388c b13b c0b1 38bc d371 093c ba81 253d
00000120: 7417 8cbc b47b a63c 8dd4 2e3d 04c6 f2bb
00000130: 2a93 02bc 3566 b5bc b3fa 473d 80ec 563b
00000140: 808f a63c 932d b93c 9603 8c3c 9fb8 71bc
00000150: 4015 89bc 8876 263c 83a7 f83c 1afc d43b
00000160: 5a55 253c a609 363d 0b04 a33c 99fe b9bc
00000170: c4ce 9c3c 7a62 c0bc e77c 59bd 23cd c83c
00000180: cacd 003c 5735 88bc 74bc 77bd 52a1 813b
00000190: 695e 063d 2bf5 e43b 7877 3c3c 905b 853c
000001a0: a72e b53b 041b 2dbd 1c5c f63c c1b3 b63c
000001b0: cdf0 f93a 2cfc 44bd 1eba 943c cfaf 913d
000001c0: c5c5 c93b 5761 973c 59fe 353c 70f3 303d
000001d0: 8b08 673c ab81 1cbd 1494 173c 1117 7f3c
000001e0: 3531 fb3c 9bef 12bd 2946 42bc ec27 613d
000001f0: cd1d 0ebd dad2 0cbb 3772 453b 852b 0e3b
00000200: 8b6a 603c 7002 453d 9c20 893d 69fc 823d
00000210: dc00 fd3a 9c89 333d d82d 353d 894e 3d3d
00000220: 2004 abbd eb8d 01bd 3d8c 863d 9c48 16bd
00000230: 1420 e33c 8913 19bc bc2b b43c 4f86 f3bc
00000240: e9d5 023d 7cd5 643d c87c 253d 840c 883b
00000250: 49da c1bc 759f 51bc 4030 b8bc 6b61 e0bc
00000260: 7877 a8bc 61a9 383c e9c3 513c bd36 26bc
00000270: adaa 9f3c a9e7 c03b 6655 983c 4ec8 0bbc
00000280: 24d6 823c 2f54 f93c ae6e 323d 1147 103d
00000290: a97c d4b9 1a57 33bc 7f46 98bc eda9 e0bc
000002a0: 0db3 9abc 25f0 14bd 2440 033c 07be 533b
000002b0: ee4b f3bb f591 d0bc 6dd5 42bc 4439 e6bc
000002c0: 3bcb 2ebc 54aa 0e3d cd34 af3c b214 8fbc
000002d0: 454b 8f3b 5b14 783c 4b05 d0bb 1b56 3c3b
000002e0: 4763 1b3d d816 743d 8ca7 42bd a1f9 a13c
000002f0: 8904 193c 3272 c43b bf64 a7bb 6181 1b3d
00000300: 47a1 9bbb a021 92bc 7b96 fc3c 75e8 8f3c
00000310: 2cca 8a3a c2c8 a1b8 674c b43d 2f63 30bd
00000320: e17b 84bb 0a05 fb3c 0332 c9bc 3df4 413c
00000330: fd3f 863c 42d3 f63b 07a5 dfbc dfba 31bd
00000340: 2385 643c 7fd0 16bb 81f9 883c 46d8 63bc
00000350: e3f5 97bc 0a18 f03b 3a13 123d 03f4 763c
00000360: d96a 023a 9d5c 56bd 213b e93c 97d9 81bc
00000370: f372 d1b9 26c9 c43c f08e 55bd edbe 4ebd
00000380: 43e6 e4bc 018e 363d 0384 4ebd 606f 213d
00000390: 8a93 36bd 0f3e 8fbc 925f cbbb 9973 2f3d
000003a0: e694 5b3c 7a26 87bc beac 063d 7bed 36bd
000003b0: 32a0 d93c f4d5 bbbb c614 18bd 27a4 203d
000003c0: acd4 e9bc 3530 74bc 575e c43c 3f8e 6e3a
000003d0: 1611 e4bc 7f6d 2a3d 4749 2dbd 1f27 4eb9
000003e0: 8b20 f7bc a9bd e939 4f7e 8237 5096 993a
000003f0: 0d40 d8bc a8e2 4b3c de7c 30bd 938d b1b9
-0.004787873 -0.035201058 -0.01880204 0.0010218464 0.0037780178 0.023100987 0.012920283 0.024239311
0.0117502585 0.02668606 -0.02284528 0.010799594 -0.05591461 0.0014207269 0.027715378 0.038233608
0.044372376 -0.026242254 0.02688275 0.037339244 -0.049018856 -0.0071118297 0.014020631 -0.04922861
0.00093610975 0.06755853 0.015876902 -0.058365256 -0.05505124 -0.03748544 0.019505814 0.050903253
-0.024416436 0.03662688 0.033252005 0.02587462 0.032766327 0.045725506 -0.018079996 0.009377979
-0.028122358 -0.012130014 0.014311237 0.04932999 -0.023068262 0.0073245023 0.054797746 -0.0010740012
0.0023725054 -0.015062091 0.043742858 -0.009974758 -0.045405652 -0.019516949 -0.05411137 0.010591734
0.063543014 -0.034053985 0.044369884 -0.008198505 0.0077492613 -0.020852419 0.038968317 0.028024772
-0.023076314 -0.019575339 -0.012352409 -0.028954754 0.0054183267 -0.011272848 0.008388954 0.04040692
-0.017101027 0.020322658 0.042683173 -0.007408859 -0.007969657 -0.022143463 0.04882307 0.0032794774
0.020332098 0.02260474 0.017091554 -0.01475349 -0.016733766 0.010160096 0.030353313 0.0064997794
0.01009115 0.044442795 0.019899389 -0.02270441 0.019141562 -0.023484457 -0.05309763 0.02451188
0.007861564 -0.016626997 -0.060482457 0.0039559985 0.03280488 0.006987234 0.011503093 0.016279012
0.005529243 -0.042262092 0.030073218 0.02230251 0.0019068957 -0.048092052 0.018155154 0.07113611
0.006157609 0.018479032 0.0111080045 0.04320091 0.014101158 -0.0382096 0.009251613 0.015569464
0.030663112 -0.035873037 -0.011857548 0.054969713 -0.03469639 -0.0021487982 0.0030127892 0.002169342
0.013697277 0.048098028 0.06695673 0.063958 0.0019302624 0.043832406 0.044233173 0.046217475
-0.08350396 -0.031629484 0.06569717 -0.03669034 0.027725257 -0.009343036 0.02199351 -0.02972713
0.031942282 0.055867657 0.040402204 0.0041518826 -0.023663657 -0.012794365 -0.022483945 -0.027390203
-0.02056478 0.011270852 0.012803056 -0.010144887 0.019490564 0.005886991 0.018595409 -0.008531643
0.01597125 0.03043565 0.043562584 0.035224024 -0.0004052867 -0.01094606 -0.018588303 -0.027424777
-0.018884206 -0.036361832 0.008010898 0.003230931 -0.007424823 -0.025460223 -0.011891705 -0.028103478
-0.010668571 0.034830406 0.021387482 -0.017465923 0.0043729865 0.015141572 -0.006348287 0.0028737846
0.037936475 0.059592098 -0.047523066 0.019772353 0.00933946 0.0059950585 -0.0051084454 0.037965182
-0.0047494504 -0.0178383 0.030833473 0.017566899 0.0010588816 -7.714472e-05 0.08803635 -0.04306334
-0.004043088 0.030642051 -0.02455998 0.011838016 0.016387934 0.007532508 -0.02730037 -0.043391105
0.013947758 -0.0023012457 0.016720535 -0.013906544 -0.018549865 0.0073270844 0.035662867 0.015072825
0.0004975028 -0.052334417 0.028470578 -0.015850825 -0.0003994923 0.024021696 -0.05213827 -0.05047505
-0.027941829 0.04456902 -0.050418865 0.039412856 -0.044574298 -0.017485647 -0.006206461 0.042834852
0.013402199 -0.01649784 0.032879584 -0.044660073 0.026565645 -0.0057322923 -0.037129186 0.039219048
-0.028543793 -0.014904072 0.023970766 0.0009100176 -0.027840178 0.04160833 -0.04230621 -0.00019660265
-0.030166885 0.0004458253 1.5556025e-05 0.001171777 -0.02639773 0.012444176 -0.043087833 -0.00033865552

weight f4 [256]
00000000: f954 423f afc4 573f 404b 6e3f f998 643f
00000010: 4428 523f 644a 4e3f 99d5 303f 6b9f 413f
00000020: 34ac 363f 14fa 553f 091e 553f 058e 713f
00000030: 883c 5f3f b92f 5b3f 6453 563f 1b5b 293f
00000040: d5fc 643f a949 5d3f 3db7 373f 46a8 503f
00000050: 4cdf 343f 9b10 593f 28e7 343f 3bf6 393f
00000060: 6d0e 303f 0134 483f d2f3 4c3f af6b 593f
00000070: 1085 4e3f 94b4 2a3f 3ccc 3a3f 495e 573f
00000080: bcea 573f 4723 3f3f af40 503f e404 273f
00000090: 8892 673f 57be 7b3f c13d 523f eef4 393f
000000a0: 9d46 403f d71f 4d3f 590b 433f d653 313f
000000b0: b486 333f 13b8 453f cc02 433f 2ff0 323f
000000c0: ecfb 633f 4785 333f f586 353f 7fbc 493f
000000d0: 6370 2e3f 432e 4a3f 57dd 4b3f 1705 463f
000000e0: aea7 5f3f e1c3 513f 0696 4e3f c891 4f3f
000000f0: e15e 443f d496 453f 7f62 493f d5af 2e3f
00000100: d143 373f 0479 533f 30c8 303f 1ef2 5f3f
00000110: 0291 4c3f a4f2 2e3f 40ef 683f bbb5 713f
00000120: 63aa 583f 5356 1e3f c1b6 683f f3fa 2a3f
00000130: 24ef 3a3f e935 233f 0825 3e3f 79df 4b3f
00000140: 886e 733f 19d1 533f b6c4 363f 1ab7 5f3f
00000150: 1f8d 473f f0e9 4b3f b1fb 3c3f db83 483f
00000160: 26df 4d3f 07c5 473f a219 4a3f ceea 363f
00000170: 5c8f 6b3f aede 483f 2517 553f f549 243f
00000180: 97e3 333f c933 4c3f a312 813f c709 383f
00000190: eb0b 2c3f dcd2 4c3f f3c6 473f 6544 443f
000001a0: 829f 3b3f 6d80 393f 3063 3d3f c303 433f
000001b0: 4bec 3e3f ce7b 3f3f 3a19 4f3f b9c4 413f
000001c0: 6db2 573f aafc 683f 5135 293f cb49 5e3f
000001d0: 5414 2b3f 9088 603f 5f62 3c3f d652 3e3f
000001e0: c250 2f3f 975e 383f cff1 4e3f 905e 363f
000001f0: b680 4a3f ebfa 303f dc37 623f 61d5 153f
00000200: 5a13 5a3f 6eab 6f3f f825 3b3f f463 683f
00000210: f163 2c3f 3164 523f d6d8 1d3f ac58 673f
00000220: ad09 583f 803c 563f 0a99 423f 4e92 593f
00000230: 08ac 253f 529e 463f d71d 653f 9cae 423f
00000240: 8400 403f 32d1 5a3f 9144 4e3f 571f 343f
00000250: c7b2 653f 4184 333f c78e 4f3f 59eb 313f
00000260: 2b02 4f3f 0745 673f 45eb 243f 2264 3a3f
00000270: 055d 4c3f db30 5a3f 48e6 493f 5a35 233f
00000280: f08a 573f da82 2e3f 40c4 3b3f 8c94 6b3f
00000290: 2e56 593f 7323 1d3f 6c14 113f 462e 5a3f
000002a0: ae7f 543f 5a44 4e3f 1b32 473f b38b 3f3f
000002b0: 7501 4c3f d986 4c3f 7e34 4c3f 295d 553f
000002c0: 8b86 743f 72ef 693f 43ea 3f3f ae24 693f
000002d0: 25e0 483f 281b 4e3f b965 503f 8d2a 2a3f
000002e0: a0a0 333f 3c2a 523f cea9 633f 086a 463f
000002f0: 3fad 273f 4caf 233f 7fc3 413f 3f51 3a3f
00000300: 247c 713f 7d13 443f 1d66 543f e3f2 483f
00000310: c2cf 473f 0eca 533f 61ef 563f b2ca 5a3f
00000320: a1ee 4e3f b62f 3a3f 4eda 6b3f fdf6 513f
00000330: 578e 653f 8940 4a3f 42e5 4f3f 25be 473f
00000340: bb01 3d3f 828f 343f c2f7 543f 319e 5b3f
00000350: ab15 3c3f 149c 4b3f e9de 423f 8588 493f
00000360: 8a94 6b3f 2ecf 453f dbd7 283f 36da 413f
00000370: 97dd 463f b6f9 593f d62e 3d3f 73ab 533f
00000380: 08ae 413f 87a7 3b3f fc53 3c3f b161 523f
00000390: ac7b 233f 6dae 443f 2041 233f 529c 4b3f
000003a0: 264f 343f 9d79 463f eecd 3d3f d441 293f
000003b0: 7073 4c3f 1a69 513f 0cf5 573f 6cd8 4b3f
000003c0: 1a32 603f c06c 4b3f d793 5d3f 12fe 533f
000003d0: e162 3c3f ebbf 543f d926 4a3f 9852 583f
000003e0: 0d36 313f 408c 403f 982e 503f 7077 433f
000003f0: 20f9 3d3f 46ef 373f 1f44 673f 7a83 663f
0.7591091 0.8428449 0.9308357 0.8929592 0.8209269 0.8058226 0.69075924 0.7563388
0.7135651 0.83584714 0.83248955 0.9435733 0.8720174 0.85619694 0.83720994 0.6615464
0.8944829 0.8644052 0.71763974 0.81506765 0.70653224 0.8479096 0.70665216 0.7264134
0.6877201 0.7820435 0.8005954 0.8492994 0.8067179 0.6668179 0.72967887 0.8412824
0.8434255 0.74663204 0.813487 0.6524184 0.90457964 0.9833731 0.8212548 0.7263936
0.7510775 0.8012671 0.7618919 0.6926855 0.70127416 0.77234 0.7617614 0.6989774
0.8905628 0.7012524 0.70909053 0.7880325 0.6814024 0.7897684 0.7963461 0.77351516
0.87365234 0.8193951 0.8069767 0.8108182 0.76707274 0.7718327 0.7866592 0.6823705
0.71587855 0.8260653 0.6905546 0.87478817 0.79908764 0.6833899 0.90990067 0.94417924
0.8463499 0.6185047 0.9090386 0.6678917 0.7302115 0.63754135 0.74275255 0.7963787
0.9509053 0.8274093 0.7139391 0.87388766 0.7794971 0.79653835 0.7382155 0.78326195
0.8041862 0.78035015 0.7894536 0.71452034 0.92015624 0.7846478 0.8323844 0.6417535
0.7026915 0.7976652 1.0083812 0.7188992 0.67205685 0.80009246 0.7803795 0.7666686
0.73290265 0.7246159 0.73979473 0.76177615 0.74579304 0.74798286 0.8089787 0.756908
0.8425663 0.91010535 0.6609698 0.8683135 0.66827893 0.8770838 0.735876 0.7434515
0.684826 0.7201933 0.8083772 0.7123804 0.7910265 0.6913287 0.88366485 0.58528715
0.8518578 0.93620956 0.7310481 0.90777516 0.6734 0.8218413 0.6165899 0.9036968
0.84389764 0.83686066 0.7601477 0.8498887 0.64715624 0.7758533 0.89498657 0.7604768
0.75000787 0.85475457 0.80573374 0.7036032 0.8972592 0.7012368 0.81077236 0.6949974
0.80862683 0.903397 0.6442149 0.7280904 0.79829437 0.852308 0.78867006 0.63753283
0.84196377 0.68168414 0.7334633 0.9202354 0.84897125 0.61382216 0.56671786 0.8522686
0.83007324 0.80573046 0.7781083 0.7482254 0.79689723 0.7989326 0.79767597 0.83345276
0.95517796 0.9138099 0.7496683 0.91071594 0.7846702 0.8051019 0.81405216 0.6647118
0.7016697 0.82095695 0.88930976 0.7750554 0.6549873 0.63939357 0.7568893 0.7278022
0.9433005 0.76592237 0.8296831 0.78495616 0.7805139 0.82730186 0.83959013 0.8546554
0.8083287 0.7272905 0.9212998 0.820175 0.8967032 0.7900472 0.81209195 0.7802451
0.73830765 0.70531476 0.8319055 0.85788256 0.7347056 0.7953503 0.76121384 0.7872394
0.9202353 0.77269256 0.6595437 0.7572359 0.7768187 0.85146654 0.7389959 0.82683486
0.75656176 0.733025 0.7356565 0.82180315 0.63860583 0.7682865 0.6377125 0.795354
0.7043327 0.7752932 0.7414235 0.6611607 0.79863644 0.81801 0.84358287 0.7962711
0.8757645 0.79462814 0.8655371 0.82809556 0.7358838 0.83105344 0.78965527 0.8450103
0.692231 0.75214005 0.81321096 0.7635412 0.7420826 0.7184948 0.9033832 0.9004437
