workplace/wav_emotion/model_b.pt (torch, 735691 bytes, 26 tensors)

weight f4 [16, 1, 3, 3]
0	0x3fa30105	1.2734686
1	0x3f0127a5	0.5045112
2	0x3f0c4970	0.54799557
3	0x3f43f885	0.76551086
4	0xbf064d04	-0.52461267
5	0x3eb18725	0.3467342
6	0x3f1c8a3b	0.6114842
7	0xbe821be1	-0.25411895
8	0x3e301df7	0.1719893
9	0x3f25f5b4	0.6482804
10	0x3eec30a5	0.46130863
11	0x3ed86e5e	0.42271703
12	0x3ed433c1	0.41445735
13	0xbe2890f5	-0.16461547
14	0x3ea21216	0.31654423
15	0x3e83c711	0.25737813
16	0xbe4f4cef	-0.20244192
17	0x3e769960	0.24081945
18	0x3f47f18f	0.78102964
19	0x3d79b408	0.060962707
20	0xbed335b7	-0.4125192
21	0xbe220ced	-0.15825243
22	0xbd9c56c7	-0.07633739
23	0xbf30ec14	-0.69110227
24	0xbfaa0ba1	-1.3284799
25	0xbe054d8b	-0.13017862
26	0xbee196e5	-0.44060436
27	0xbf0d00b1	-0.5507918
28	0x3cdb811c	0.026794963
29	0x3ca37e80	0.01995778
30	0xbe98eea3	-0.29869565
31	0x3eb1a1ff	0.34693906
32	0xbea796d9	-0.32732275
33	0xbf930057	-1.1484479
34	0xbf1c4b88	-0.6105275
35	0xbf9e16f9	-1.2350761
36	0x4002f0f1	2.045956
37	0x3f2aab8f	0.6666803
38	0x3e7931ee	0.24335453
39	0x3f8f977d	1.1218106
40	0x3e4083eb	0.18800323
41	0x3d54f346	0.051989816
42	0x3f4fd8ee	0.81190383
43	0xbf092b96	-0.5358213
44	0xbdaad822	-0.08342005
45	0xbf375ee0	-0.7162914
46	0xbd5e6de8	-0.054304034
47	0x3e63ee22	0.22258809
48	0xbf1b1ede	-0.60593975
49	0x3eefcbde	0.46835226
50	0xbf271bef	-0.65277
51	0xbfe92a5e	-1.8216054
52	0xbdafeb24	-0.085897714
53	0xbfab4915	-1.3381678
54	0xbd9d437e	-0.07678889
55	0x3fc16048	1.5107508
56	0x3f256460	0.64606285
57	0xbf2d2a5f	-0.6764278
58	0x3f9f1c5e	1.2430532
59	0x3e84fd5b	0.25974545
60	0xbf98f241	-1.194893
61	0x3f7b9c2a	0.9828516
62	0x3ea1e358	0.31618762
63	0x3f70bc11	0.94036967
64	0xbf0cd66f	-0.550147
65	0xbec2212f	-0.37915942
66	0xbe38e77a	-0.18057051
67	0x3bdbae7c	0.00670415
68	0xbf47d5aa	-0.780604
69	0xbff109b7	-1.883109
70	0x3e578ec0	0.21050549
71	0xbf17e46d	-0.59332925
72	0x3eedf18d	0.4647335
73	0x4003ea50	2.0611763
74	0x3eff2736	0.49834603
75	0xbe8e4353	-0.2778574
76	0x3f57fc97	0.84369797
77	0x3d3ddc34	0.04635258
78	0xbf32a57a	-0.6978375
79	0x3f3b7953	0.73232
80	0x3d59c757	0.05316862
81	0xbedd7ff6	-0.4326169
82	0xbf065718	-0.52476645
83	0xbf7b969e	-0.982767
84	0x3f4fac11	0.8112193
85	0x3c4bde30	0.01244311
86	0xbf38719e	-0.72048366
87	0x3f8d3d9e	1.1034429
88	0x3f43c5a2	0.7647344
89	0x3e51e41d	0.20497175
90	0x3e5b22a9	0.2139994
91	0xbea6bfaa	-0.32568103
92	0xbf949e22	-1.1610758
93	0x3f726da3	0.9469854
94	0x3ea1392d	0.31488934
95	0xbf12b88e	-0.5731286
96	0x3f801a61	1.000805
97	0x3f4720eb	0.77784604
98	0xbe9e22ad	-0.3088583
99	0x3ebef578	0.37296653
100	0x4014e07d	2.3262017
101	0x3f2cfc9e	0.67572963
102	0x3c9f8ad0	0.01947537
103	0x3f590b0d	0.8478249
104	0xbe16c5cf	-0.14723895
105	0xbf1a136e	-0.601859
106	0x3f2fa86c	0.68616366
107	0x3d950b0f	0.072775
108	0x3f77d93d	0.96815854
109	0xbe28b452	-0.16475037
110	0xbf2cd791	-0.6751643
111	0x3fb4932d	1.4107414
112	0x3bddde05	0.0067708516
113	0xbf93bff3	-1.1542953
114	0x3f868203	1.0508426
115	0x3e251de1	0.16124679
116	0xbe592cda	-0.21208516
117	0x3f09cec1	0.53831106
118	0xbecb45ec	-0.39701784
119	0xbf62493a	-0.88392985
120	0xbf35309b	-0.7077729
121	0x3e03e3b8	0.12879837
122	0xbe3c019a	-0.18359986
123	0xbfe8f318	-1.8199186
124	0x3eb2d0c9	0.34924915
125	0xbf67daaf	-0.9056806
126	0x3f8f9ae6	1.1219146
127	0x3f4553f3	0.7708122
128	0x3f2dcb1f	0.67888063
129	0x3f832cde	1.0248067
130	0xbe44bbc1	-0.19212247
131	0x3f0af4e1	0.54279906
132	0x3f383ef2	0.71971047
133	0xbc511b38	-0.012762837
134	0x3ef8664a	0.4851554
135	0x3f79077d	0.9727705
136	0x3f32faec	0.69914126
137	0x3e6c6cc1	0.23088361
138	0xbd5ad4e3	-0.05342568
139	0xbefe2dd7	-0.49644348
140	0xbf0d4287	-0.5517964
141	0xbf08e8e1	-0.53480345
142	0xbff6b2c9	-1.9273311
143	0xbe6011a3	-0.21881728

bias f4 [16]
0	0x3d14082d	0.03614061
1	0xbe1c2d03	-0.15251546
2	0x3cae5495	0.021280566
3	0x3d469967	0.04848614
4	0x3f2ceb45	0.6754649
5	0x3f0b1081	0.5432206
6	0x3eaac1a1	0.33350852
7	0xbddafc56	-0.106926605
8	0xbef9bab8	-0.48775268
9	0xbe8f17de	-0.27947897
10	0x3d3a1d07	0.04543784
11	0xbe124c5d	-0.14286943
12	0xbf4eada8	-0.8073373
13	0xbca4be7f	-0.020110367
14	0x3e1f34cf	0.15547489
15	0xbe3d4819	-0.18484534

weight f4 [16]
0	0x3fc935d5	1.5719553
1	0x3fcde5e9	1.6085788
2	0x3fa4b28d	1.2866989
3	0x3fc6340e	1.5484636
4	0x3fc43adb	1.5330461
5	0x3fd5f0ff	1.6714171
6	0x3fff684f	1.9953707
7	0x3fb34e83	1.4008335
8	0x3fcbbeb5	1.5917574
9	0x3fafbf91	1.3730336
10	0x3f99274f	1.1965121
11	0x3fcd8e09	1.6058971
12	0x3fa6b317	1.3023404
13	0x3fb34f4d	1.4008576
14	0x3fb65c50	1.4246922
15	0x3f828222	1.0195963

bias f4 [16]
0	0xbea9a4b8	-0.33133483
1	0xbe976e58	-0.29576373
2	0x3e8fb434	0.28067172
3	0xbe485e4f	-0.19567226
4	0xbf0bc778	-0.5460124
5	0xbe680a62	-0.2266021
6	0xbf34f9de	-0.7069377
7	0x3dc920b5	0.098206915
8	0xbf010f6f	-0.50414175
9	0xbf3361bd	-0.7007101
10	0xbf1aed45	-0.60518295
11	0xbea8d31d	-0.32973567
12	0xbf1ff417	-0.62481827
13	0xbcc7eddc	-0.024405412
14	0xbe520438	-0.20509422
15	0x3f4a03a5	0.7891181

running_mean f4 [16]
0	0x3da1feeb	0.0790995
1	0xbdf6f91f	-0.12059235
2	0xbc9a6ff3	-0.01885221
3	0xbb8aeb3f	-0.0042394693
4	0x3f3b8b45	0.73259383
5	0x3ef7abcd	0.4837326
6	0x3ec294a6	0.38004035
7	0xbe115be8	-0.14195216
8	0xbedd1341	-0.43178752
9	0xbe90a838	-0.2825334
10	0x3d8a726d	0.06760106
11	0xbda502ab	-0.080571495
12	0xbf499791	-0.78746897
13	0xbd8a7502	-0.06760599
14	0x3e66035d	0.2246222
15	0xbe4323fd	-0.19056697

running_var f4 [16]
0	0x412e42a2	10.891268
1	0x40a57a67	5.1711917
2	0x409f794a	4.983556
3	0x414ced18	12.807884
4	0x419bb419	19.462938
5	0x41977f9f	18.937315
6	0x4111b07e	9.105589
7	0x41149cf0	9.288315
8	0x414dd957	12.8655615
9	0x3f45610e	0.7710122
10	0x3fe20e48	1.7660608
11	0x41888965	17.067087
12	0x402d8625	2.7113125
13	0x4151d3d1	13.114213
14	0x41bf9b79	23.950914
15	0x40726424	3.787362

weight f4 [32, 16, 3, 3]
0	0x3f0004cb	0.50007313
1	0x3e012a1c	0.1261372
2	0xbcc88c57	-0.024480982
3	0xbbaa44d7	-0.0051961946
4	0x3def2434	0.11676827
5	0x3e116081	0.1419697
6	0x3f6bdf0a	0.92137206
7	0x3f52eb16	0.8238996
8	0xbda85048	-0.082184374
9	0x3e4a755f	0.19771336
10	0x3f6e1a68	0.9300904
11	0xbf215ace	-0.6302918
12	0x3f773f02	0.9658052
13	0x3d2788f6	0.0409021
14	0x3c916f62	0.017753307
15	0x3e87181b	0.2638558
16	0xbdacf03d	-0.08444259
17	0x3d94c7ea	0.07264693
18	0xbed24eaf	-0.41075656
19	0xbee7e54a	-0.4529212
20	0xbf179761	-0.5921536
21	0xbe212c48	-0.15739548
22	0xbe6c676e	-0.2308633
23	0xbeac101f	-0.3360605
24	0xbea826ac	-0.32842004
25	0xbe01a1fd	-0.1265945
26	0xbe21ac14	-0.15788299
27	0xbdd5c220	-0.10437417
28	0xbd8110b2	-0.063020125
29	0xbe345eb0	-0.17614245
30	0x3dd53dab	0.10412153
31	0x3bb20793	0.005433032
32	0x3d14d686	0.036337398
33	0x3d21cf78	0.0395045
34	0x3d0f0ae8	0.03492251
35	0x3d73b69a	0.059500314
36	0x3f695f9c	0.91161513
37	0x3f3eedba	0.7458149
38	0xbd1b5947	-0.03792694
39	0x3f2c5c33	0.67328185
40	0x3d93a2b7	0.0720877
41	0x3d13856a	0.036015905
42	0x3f1b5a64	0.606848
43	0x3db000d8	0.08593911
44	0x3e4fc533	0.2029007
45	0xbd90113f	-0.070345394
46	0x3d39b957	0.04534277
47	0xbe8985cc	-0.2685989
48	0x3d9eeeab	0.07760366
49	0x3dbc8695	0.09205357
50	0xbd07175a	-0.032981254
51	0xbd393822	-0.045219548
52	0x39bf0b6c	0.0003643887
53	0x3d33d389	0.043902908
54	0x3e1f81dd	0.15576883
55	0x3f11786d	0.5682438
56	0xbe2a29ea	-0.16617551
57	0x3faa31ed	1.3296486
58	0x3ef44852	0.47711426
59	0xbe5b74e5	-0.2143131
60	0xbfb1667b	-1.38594
61	0xbf1e6651	-0.6187487
62	0xbf06f01c	-0.5271013
63	0xbe911281	-0.2833443
64	0xbe432bdc	-0.190597
65	0xbeba2dab	-0.36362967
66	0xbe12a53f	-0.14320849
67	0xbd067871	-0.032829706
68	0xbdcdb957	-0.100451164
69	0xbddb4330	-0.107061744
70	0xbdc7867c	-0.09742448
71	0xbeebc64b	-0.46049723
72	0x3fad612a	1.3545277
73	0x3efa64ea	0.48905116
74	0xbe70f892	-0.23532322
75	0xbe492767	-0.19643937
76	0x3ed9e4c9	0.42557362
77	0x3d6fc861	0.058540706
78	0xbdad3549	-0.08457429
79	0x3e8fb69f	0.28069016
80	0xbf4edb71	-0.8080359
81	0x3d430fef	0.047622617
82	0x3f897db9	1.0741493
83	0x3f2fa3da	0.6860939
84	0x3d08729b	0.03331242
85	0x3d9cb014	0.07650772
86	0x3f12f69d	0.5740755
87	0x3e73ea51	0.23819853
88	0x3cb16736	0.02165566
89	0x3f5f388a	0.87195647
90	0x3f0f4a54	0.5597279
91	0xbf5a10c0	-0.8518181
92	0x3e037c42	0.1284037
93	0x3f6380a3	0.8886816
94	0x3f1bbaa9	0.60831696
95	0x3f02a1cb	0.51028126
96	0xbd4ee7a1	-0.050513867
97	0x3d449ccf	0.048001107
98	0x3edccd19	0.43125227
99	0xbd753cf1	-0.05987257
100	0x3f488cf3	0.7834007
101	0xbd87262a	-0.06599076
102	0x3ec86fb7	0.39147732
103	0x3e12d9c0	0.14340878
104	0xbe9ffde0	-0.3124838
105	0x3b1874f4	0.002326307
106	0x3f06239f	0.52398103
107	0xbe7e2590	-0.24819016
108	0x3de7f40f	0.11325847
109	0x3f72efad	0.94896966
110	0x3fb80cb6	1.4378879
111	0x3ed450d2	0.4146791
112	0x3f37c097	0.71778244
113	0x3f6097ee	0.87731826
114	0xbdc44d84	-0.095850974
115	0x3ed1c245	0.40968528
116	0x3f2b4e7d	0.6691664
117	0xbe5185b6	-0.20461163
118	0xbdc773ea	-0.09738906
119	0xbe600003	-0.21875004
120	0xbddb99cf	-0.10722696
121	0xbcdc196d	-0.026867593
122	0xbd22532f	-0.03963011
123	0xbe1e9a3b	-0.15488522
124	0xbd1cadc6	-0.03825166
125	0x3ca91d59	0.020643877
126	0x3f330d77	0.6994242
127	0x3e017fd4	0.12646419
128	0x3ccd2743	0.025043136
129	0x3ef40bf7	0.47665378
130	0x3ec44b7a	0.38338834
131	0x3db64e2d	0.089016296
132	0x3ef69c09	0.4816592
133	0x3d16dff1	0.03683466
134	0xbe7314de	-0.23738429
135	0xbf4c482c	-0.79797626
136	0xbf53aba5	-0.82683784
137	0xbec523b3	-0.385038
138	0xbf777be2	-0.96673405
139	0xbf1c3224	-0.6101401
140	0xbed49949	-0.41523197
141	0xbf554a8e	-0.83316886
142	0xbf3cec47	-0.7379803
143	0xbf291c4c	-0.660588
144	0x3f6722c7	0.9028744
145	0x3ead7bfd	0.33883658
146	0x3d7ef0ea	0.062241472
147	0x3ecd3f82	0.40087515
148	0x3e979448	0.29605317
149	0x3d94661b	0.072460376
150	0x3e6ee571	0.23329712
151	0x3f17a637	0.59238
152	0xbee8062d	-0.45317212
153	0x3e686a81	0.22696878
154	0x3f193f79	0.59862477
155	0x3e0f1b7d	0.1397533
156	0x3f66228c	0.89896464
157	0xbec9543e	-0.39322084
158	0x3f301f92	0.6879817
159	0xbeec5183	-0.46155939
160	0x3ee55c93	0.4479719
161	0xbf12a973	-0.5728981
162	0x3df3a7f9	0.118972726
163	0x3d0b132f	0.03395384
164	0xbce9dbab	-0.028547129
165	0xbea21643	-0.3165761
166	0xbe4ee792	-0.20205525
167	0xbe81d0dc	-0.2535466
168	0xbe0cfca2	-0.13768247
169	0x3e682bb3	0.2267292
170	0x3d39c55d	0.045354236
171	0x3dea6d49	0.11446626
172	0x3e31f7a3	0.17379622
173	0x3d0d296b	0.034463327
174	0x3bfc0795	0.0076913335
175	0xbccedd18	-0.02525191
176	0x3da9a8d4	0.082841545
177	0x3e88d78d	0.26726952
178	0x3de28884	0.110611945
179	0x3dca81c6	0.098880336
180	0xbe56e052	-0.20984009
181	0x3f6688e0	0.90052605
182	0x3f2185e1	0.6309491
183	0xbf3a719c	-0.72829604
184	0x3eab0980	0.33405685
185	0xbf87fc92	-1.0623953
186	0xbe7b6049	-0.24548449
187	0xbd93dd84	-0.07219985
188	0xbe992562	-0.29911333
189	0xbd159243	-0.03651644
190	0x3dd4f019	0.103973575
191	0x3d2eab3f	0.04264378
192	0x3d2e6694	0.042578295
193	0x3d0a6a65	0.033792872
194	0x3dbcd337	0.092199735
195	0x3dde78de	0.10862897
196	0x3da786dd	0.0818002
197	0xbd54e98f	-0.05198055
198	0x3f0655f2	0.5247489
199	0x3fb70baf	1.430044
200	0x3eaa0500	0.3320694
201	0x3f077bcd	0.5292328
202	0xbe052e9d	-0.13006063
203	0x3f43a710	0.7642679
204	0x3f3d83cc	0.7402923
205	0x3f77a3a7	0.9673409
206	0xbf06e241	-0.52688986
207	0xbe1fb6c1	-0.15597059
208	0x3e323084	0.1740132
209	0xbe4e7455	-0.20161565
210	0xbec593e8	-0.38589406
211	0xbd6d7eea	-0.057982363
212	0xbe5ff01c	-0.21868938
213	0xbe8aef8d	-0.27135888
214	0x3dce865f	0.10084223
215	0xbdb9b4a7	-0.0906766
216	0x3f00928c	0.5022361
217	0xbde889a0	-0.11354375
218	0x3f1b90ab	0.6076762
219	0xbf4ecccd	-0.8078125
220	0xbea35142	-0.31897932
221	0x3eac8c8c	0.3370098
222	0x3f1ddf0a	0.61668456
223	0x3f620696	0.882913
224	0xbf033649	-0.5125471
225	0x3f2df319	0.6794906
226	0x3fb406ed	1.4064614
227	0x3e634e46	0.22197828
228	0xbf89e3a6	-1.0772598
229	0xbf07ff3c	-0.5312383
230	0xbe3a9a0f	-0.18222831
231	0xbddb8a94	-0.10719791
232	0xbeedd07b	-0.4644812
233	0xbefa572e	-0.48894638
234	0x3ecab5ea	0.39591914
235	0x3e8066df	0.25078484
236	0x3f4e906a	0.8068911
237	0xbf4bff6b	-0.7968661
238	0xbd1ff8b6	-0.03905555
239	0xbe0be700	-0.13662338
240	0xbe9f06f5	-0.31059995
241	0xbef01a78	-0.46895194
242	0xbf2638f4	-0.64930654
243	0x3f1186ec	0.568465
244	0x3f43b2b4	0.76444554
245	0x3f3a9032	0.72876275
246	0x3e80352e	0.25040573
247	0xbe15ce0c	-0.14629382
248	0x3ebc52e1	0.36781982
249	0x3f0fee1d	0.5622271
250	0x3e02fa2c	0.12790745
251	0x3e7d8764	0.24758679
252	0x3e020109	0.12695707
253	0x3e0ae961	0.1356559
254	0x3e40261a	0.18764535
255	0xbd906129	-0.07049782

bias f4 [32]
0	0x3bf6450b	0.007515555
1	0x3d373ac9	0.044733796
2	0x3de1a149	0.11017091
3	0x3de8989e	0.113572344
4	0x3dc98c87	0.098412566
5	0x3c9016a7	0.017588926
6	0x3e1b4902	0.15164569
7	0x3c8c6d70	0.017142028
8	0x3d1925ab	0.03738944
9	0x3c58135f	0.013188212
10	0x3d572e69	0.052534495
11	0xbd96fbec	-0.07372269
12	0xbc964a7e	-0.018346068
13	0xbd8fe456	-0.070259735
14	0x3b95afc6	0.004568073
15	0xbc9d809a	-0.019226361
16	0x3d34690b	0.04404549
17	0x3b6ac30c	0.0035821823
18	0x3c782bf5	0.015147199
19	0xbd68f17b	-0.05687092
20	0x3dc34b0d	0.09535799
21	0x3e0aad66	0.13542709
22	0xbd9c8106	-0.07641797
23	0x3becb8e3	0.0072241887
24	0x3d050ad5	0.032481033
25	0xbdc139b9	-0.09434838
26	0x3d340aa9	0.04395548
27	0x3b227aa4	0.0024792338
28	0xbd41fdaf	-0.047361072
29	0x3ca01da7	0.01954539
30	0xbd993a8d	-0.07481871
31	0x3d1d6ff2	0.038436837

weight f4 [32]
0	0x3f3f3fcd	0.7470673
1	0x3f3b7bab	0.7323558
2	0x3f19ce23	0.60080165
3	0x3f1a7771	0.60338503
4	0x4006d5a4	2.1067896
5	0x3f64179f	0.8909854
6	0x3ff062d7	1.8780164
7	0x400cf213	2.202275
8	0x3fec67a5	1.846913
9	0x3f154040	0.5830116
10	0x3f37c9bf	0.71792215
11	0x3f1b18ad	0.6058453
12	0x3ffaab1d	1.958347
13	0x3fd2ad8d	1.6459213
14	0x400bf8dd	2.1870644
15	0x3f26ad79	0.6510845
16	0x4005085d	2.0786355
17	0x3f447298	0.76737356
18	0x3f143bb3	0.57903594
19	0x3f296df0	0.66183376
20	0x3f31bbcf	0.694272
21	0x3f2f8bb7	0.6857256
22	0x400e4253	2.222798
23	0x3ff8bdb4	1.9432893
24	0x3ffca714	1.9738488
25	0x3fd402bc	1.6563334
26	0x3f3c7f28	0.73631525
27	0x3f2f6e22	0.68527424
28	0x40126c1e	2.287849
29	0x3f26b11a	0.65113986
30	0x3f337c17	0.7011122
31	0x3f21bcaa	0.63178504

bias f4 [32]
0	0xbe8b7abc	-0.27242076
1	0xbec88969	-0.39167336
2	0xbe27e468	-0.16395724
3	0xbe9e2f9c	-0.30895698
4	0xbf65484d	-0.8956345
5	0xbf44df44	-0.76903176
6	0xbfd763bb	-1.682731
7	0xbf4fd6e4	-0.8118727
8	0xbf4a82a5	-0.791056
9	0xbd9a8821	-0.07545496
10	0xbe891c0d	-0.26779214
11	0xbe624806	-0.22097787
12	0xbfcc5a7b	-1.5965112
13	0xbec67991	-0.38764623
14	0xbebd9e93	-0.37035045
15	0xbe865bf6	-0.26242036
16	0xbf7dc10e	-0.99122703
17	0xbf3ac271	-0.72952944
18	0xbddb961f	-0.10721993
19	0xbda03df4	-0.078243166
20	0xbe3d38f0	-0.18478751
21	0xbe34907e	-0.17633244
22	0xbfd1a36c	-1.6377997
23	0xbf3237c4	-0.6961634
24	0xbf82c332	-1.0215819
25	0xbfc22a7d	-1.5169216
26	0xbe385107	-0.1799966
27	0xbedb090f	-0.4278035
28	0xbf8dab6f	-1.1067942
29	0xbe28e352	-0.16492966
30	0xbec5acd7	-0.3860843
31	0xbe083a3b	-0.13303463

running_mean f4 [32]
0	0x3f4ca120	0.7993336
1	0x40d00e19	6.501721
2	0xbf6f98da	-0.9359261
3	0x3f5ff037	0.87475914
4	0xc21b017b	-38.751446
5	0xc1be04d8	-23.752365
6	0xc1efcd9c	-29.975395
7	0xc1d0255c	-26.018242
8	0xc108eef3	-8.558337
9	0x412b1db2	10.69475
10	0x40398c97	2.899206
11	0xc032a90a	-2.7915673
12	0xc20b4f88	-34.827667
13	0x41aee4d9	21.861742
14	0xc1879cb3	-16.951513
15	0x410bd2b7	8.738944
16	0xc210342f	-36.05096
17	0xc18642c7	-16.782606
18	0x4102e9a3	8.18204
19	0x41927d1f	18.311094
20	0x40e3b3eb	7.1157126
21	0xc078b83e	-3.8862453
22	0xc23a8396	-46.6285
23	0xc14967ee	-12.587873
24	0xc21b4ce1	-38.825077
25	0xc1fa5928	-31.293533
26	0xc0774d67	-3.8640993
27	0xc0bc6238	-5.8869896
28	0xc2362295	-45.53377
29	0x40a677c5	5.2021203
30	0xc121f4b5	-10.122243
31	0x40a5ed4c	5.185217

running_var f4 [32]
0	0x4405b72e	534.8622
1	0x43b60dc9	364.1077
2	0x43ba02c1	372.0215
3	0x43c0e671	385.80032
4	0x4458555b	865.3337
5	0x43c363fa	390.78107
6	0x43e4c3e9	457.53055
7	0x44b9e7b8	1487.2412
8	0x44433229	780.78375
9	0x4423823a	654.0348
10	0x43b90f42	370.1192
11	0x43a297f8	325.18726
12	0x440635ea	536.8424
13	0x43fe0053	508.00253
14	0x449b46cb	1242.2123
15	0x434d327e	205.19724
16	0x447144f9	965.0777
17	0x431fe260	159.88428
18	0x440778f3	541.88983
19	0x4389e829	275.81375
20	0x4415b498	598.8218
21	0x438a81a3	277.0128
22	0x446301e4	908.02954
23	0x445438a3	848.88495
24	0x44414656	773.099
25	0x4401da43	519.41034
26	0x440960ea	549.5143
27	0x43e78475	463.03482
28	0x4489cd1b	1102.4095
29	0x44123ae8	584.9204
30	0x43db9a62	439.20612
31	0x440f249e	572.57214

weight f4 [64, 32, 3, 3]
0	0xbf6c95fd	-0.92416364
1	0xbecd9db3	-0.40159377
2	0xbeef2aca	-0.46712333
3	0x3ef33772	0.4750324
4	0x3e319ebf	0.17345713
5	0xbdc7f930	-0.097643256
6	0xbe81ff16	-0.25389928
7	0xbde3c847	-0.11122184
8	0xbf0d5d3f	-0.5522041
9	0xbfa19523	-1.2623638
10	0xbef774d1	-0.4833131
11	0xbe4dd844	-0.2010203
12	0xbe821c1d	-0.25412074
13	0x3f28e52f	0.65974706
14	0xbe9ed4cd	-0.3102173
15	0xbf148807	-0.5802006
16	0xbed14e88	-0.40880227
17	0xbfa809b3	-1.312796
18	0xbf9c9b92	-1.2234976
19	0xbf75791b	-0.9588792
20	0x3ed939a9	0.42426804
21	0x3e4e8166	0.20166549
22	0x3e1459ed	0.14487429
23	0xbf2eb991	-0.682519
24	0xbf4a7e02	-0.7909852
25	0xbf136415	-0.5757459
26	0xbf6073d8	-0.87676764
27	0xbe984db8	-0.29746795
28	0xbeb2deb5	-0.34935537
29	0xbdd0242f	-0.101631515
30	0x3f83b914	1.0290856
31	0x3e9c4018	0.3051765
32	0xbe8507b1	-0.2598243
33	0xbe0bccfb	-0.13652413
34	0xbf0fc6fb	-0.56162995
35	0xbf270d82	-0.65254986
36	0x3ee088d6	0.43854398
37	0x3e6bc0d9	0.23022784
38	0xbf01229e	-0.50443447
39	0x3f262cae	0.64911926
40	0x3f18b9bb	0.596584
41	0x3d277463	0.04088248
42	0x3f24fe4f	0.64450544
43	0xbeb42c7f	-0.35190198
44	0x3ecabd74	0.39597666
45	0xbef75a92	-0.48311287
46	0xbf9b98f5	-1.2156054
47	0xbf939929	-1.1531116
48	0x3e156bde	0.1459193
49	0xbef21fd6	-0.47289914
50	0xbf5f72b1	-0.8728438
51	0x3e8a5f4f	0.2702584
52	0xbf18fe3d	-0.59762937
53	0x3d412281	0.047152046
54	0xbf2b55cd	-0.66927797
55	0xbeebedd8	-0.46079898
56	0x3fd5f145	1.6714255
57	0xbce23b48	-0.027616158
58	0xbf90f039	-1.132331
59	0x3f2cb67a	0.6746594
60	0x3ec99e30	0.393785
61	0x3efdd4c7	0.495764
62	0xbd58bbdb	-0.052913528
63	0xbddacb54	-0.10683313
64	0x3daac2a9	0.0833791
65	0xbe8968b5	-0.26837698
66	0x3d03ce95	0.032179434
67	0x3e68fedb	0.2275347
68	0x3f4c349d	0.7976778
69	0x3f2983ba	0.66216624
70	0x3effe1f0	0.49977064
71	0x3eeaf2a2	0.4588824
72	0xbeda408f	-0.4262738
73	0xbea27aa8	-0.31734204
74	0xbfab631c	-1.3389621
75	0x3f627f88	0.8847585
76	0x3f7806df	0.96885484
77	0x3e9c62ef	0.3054423
78	0x3f29ba24	0.66299653
79	0x3ec57fc7	0.3857405
80	0x3ed52a59	0.4163387
81	0xbfc4f271	-1.5386487
82	0xbfa5c79c	-1.2951541
83	0x3ef5bca1	0.47995475
84	0x3ebd5b0f	0.36983535
85	0x3f02e19c	0.511255
86	0xbf1d828a	-0.6152731
87	0xbee36071	-0.44409516
88	0xbf51b37d	-0.819145
89	0xbef518d7	-0.47870514
90	0xbf93033c	-1.1485362
91	0xbf0589be	-0.521633
92	0x3ea0b297	0.31386253
93	0x3f80b508	1.0055246
94	0x3ccbb588	0.024866834
95	0xbf9e4061	-1.2363397
96	0x3e83e93e	0.25763887
97	0xbeed00b1	-0.4628959
98	0xbf786144	-0.97023416
99	0xc0036666	-2.053125
100	0xbfa296a1	-1.2702218
101	0x3f1b1bd2	0.60589325
102	0xbf01bae9	-0.5067583
103	0xbe7ad058	-0.2449354
104	0xbef654c4	-0.48111546
105	0xbf81286d	-1.0090462
106	0xbd4b35e5	-0.049611945
107	0xbfb99611	-1.4498922
108	0xbf2fb2ba	-0.6863209
109	0xbf50b4a5	-0.8152564
110	0x3ca973d8	0.020685121
111	0xbeacf93f	-0.3378391
112	0xbf15f252	-0.58572876
113	0x3f9886b1	1.1916105
114	0x3ea07a2c	0.3134321
115	0xbe1cef83	-0.15325741
116	0x3fa67102	1.3003237
117	0xbf31feb8	-0.69529295
118	0xbf02f302	-0.5115205
119	0xbf6de454	-0.92926526
120	0x3e452bb5	0.19254954
121	0x3ed3c428	0.41360593
122	0xbe75413b	-0.23950665
123	0x3e1af2a5	0.15131624
124	0xbedbf887	-0.4296305
125	0xbe2de17c	-0.16980547
126	0xbe1f75f2	-0.15572336
127	0xbe238086	-0.15966997
128	0xbf53e07d	-0.82764417
129	0x3efa9549	0.4894202
130	0x3f194262	0.5986692
131	0x3f057bb8	0.52141905
132	0x3f6abb93	0.91692466
133	0x3f5feb37	0.87468284
134	0x3f0934bc	0.5359609
135	0xbf8ff21b	-1.124576
136	0xbfd25c96	-1.6434505
137	0x3f14572a	0.579455
138	0x3d11973f	0.03554463
139	0xbe3e49a3	-0.18582778
140	0xbf7652a9	-0.9621988
141	0x3cb7244a	0.022356171
142	0xbe400891	-0.18753268
143	0xbf963023	-1.173344
144	0x3dd8e453	0.105904244
145	0xbf3c703e	-0.7360877
146	0xbf6da780	-0.9283371
147	0x3f06ad9b	0.5260865
148	0x3e81d5f7	0.25358555
149	0x3f6b6493	0.9195034
150	0x3f9ad3f6	1.2095935
151	0x3f824068	1.0175905
152	0x387610d1	5.8666632e-05
153	0xbfcca0ea	-1.5986607
154	0xbfc177ae	-1.5114648
155	0xbe97c72a	-0.29644138
156	0xbf1bd8ae	-0.608775
157	0xbf054156	-0.5205282
158	0xbf77e356	-0.9683126
159	0xbe81ecff	-0.25376126
160	0xbd79034f	-0.06079417
161	0xbe91c37d	-0.28469458
162	0xbfd51a5a	-1.6648667
163	0xbf6a661f	-0.91562074
164	0x3f22f83c	0.63660026
165	0x3ef426e7	0.4768593
166	0x3e02653b	0.12733929
167	0xbf6a4f16	-0.91526926
168	0xbf43d0a7	-0.76490253
169	0xbf096f8f	-0.5368585
170	0xbe51130a	-0.20417419
171	0xbfe7f2e2	-1.8120997
172	0xbfb19d60	-1.3876152
173	0x3f3fef37	0.7497439
174	0xbeede948	-0.46467042
175	0xbf3d85bd	-0.74032193
176	0xbf49009c	-0.78516555
177	0xbf921be7	-1.1414765
178	0xbf2f1fd6	-0.6840795
179	0xbf8ecdcb	-1.1156553
180	0xbfd44048	-1.6582117
181	0xbf051d70	-0.51998043
182	0x3ef42377	0.47683308
183	0x3d3392f7	0.04384133
184	0x3ebb244c	0.3655113
185	0xbf5129ee	-0.81704605
186	0xbe846a83	-0.25862512
187	0xbf4095f4	-0.7522881
188	0xbf965f72	-1.1747878
189	0xc00cbe61	-2.1991198
190	0xbf7ca2ff	-0.9868621
191	0x3ef5b97d	0.4799308
192	0x3d417f40	0.047240496
193	0x3e228c93	0.15873937
194	0xbf6db50f	-0.928544
195	0xbee3da5a	-0.44502527
196	0xbf18ba21	-0.5965901
197	0xbf3c5e61	-0.7358151
198	0x3d3e786e	0.04650157
199	0xbf025da2	-0.5092412
200	0x3f20d439	0.62823826
201	0xbe20afe2	-0.15692094
202	0xbf7c9b0d	-0.9867409
203	0x3f40e22c	0.7534511
204	0x3e03142d	0.12800665
205	0x3f136f77	0.57591957
206	0x3f4cf932	0.8006774
207	0xbf2e1796	-0.6800474
208	0xbeefbf59	-0.46825674
209	0xbf82d5ce	-1.0221498
210	0x3e6569bb	0.22403614
211	0x3ef8b239	0.48573473
212	0x3f74e585	0.9566272
213	0x3f2f8445	0.685612
214	0x3ea733f5	0.32656828
215	0x3f5280db	0.8222787
216	0x3efa4e83	0.48888025
217	0x3d10f723	0.035391938
218	0x3dac872e	0.08424221
219	0x3e08937c	0.13337511
220	0x3f1a542a	0.60284674
221	0x3f2347e5	0.6378158
222	0x3eeb9036	0.46008462
223	0xbdffad7d	-0.12484262
224	0x3f2121c2	0.62942135
225	0x3e80d46e	0.2516207
226	0xbf461c1a	-0.7738663
227	0xbf70c718	-0.9405379
228	0x3ed42d3d	0.41440764
229	0xbf8653c7	-1.0494317
230	0x3ea209de	0.31648153
231	0x3f677eae	0.9042767
232	0x3e5e5da2	0.21715406
233	0x3fab155e	1.3365896
234	0xbfc127d5	-1.5090281
235	0xbf9fc167	-1.2480897
236	0x3e48cc59	0.19609202
237	0xbd5edc1f	-0.054409143
238	0xbda2195f	-0.079149954
239	0xbf2b5bff	-0.6693725
240	0x3ea7a161	0.3274031
241	0xbdd9efb9	-0.106414266
242	0xbebed8d2	-0.37274796
243	0xbfb90e45	-1.445748
244	0xbf75d9b2	-0.960353
245	0x3ba345c2	0.004982681
246	0x3ea3e8dc	0.32013595
247	0xbe02e76a	-0.1278359
248	0xbfa35a65	-1.2761961
249	0xbd88b153	-0.06674447
250	0xbeda227f	-0.42604443
251	0xbf0c482c	-0.54797626
252	0x3eff2d11	0.4983907
253	0xbe83bbf6	-0.2572934
254	0x3eb3643b	0.35037407
255	0x3e7818c3	0.24228196

bias f4 [64]
0	0x3d956740	0.07295084
1	0xbd3093d7	-0.04310974
2	0xbd61059c	-0.05493699
3	0x3c089cd9	0.008338177
4	0xbc9fbd70	-0.01949951
5	0xbd400562	-0.046880133
6	0xbc595c64	-0.013266657
7	0xbd5a263b	-0.053259116
8	0xbcc0f393	-0.023553645
9	0xbd31baa3	-0.04339088
10	0xbd0ed707	-0.034873035
11	0xbd77aded	-0.060468603
12	0x3b6750f3	0.0035296052
13	0xbcb8acbb	-0.022543302
14	0x3dee51a8	0.116366684
15	0xbc4b0f92	-0.012393849
16	0xbb650b1b	-0.0034949246
17	0x3d4a8da8	0.0494515
18	0xbae7a4f4	-0.0017673061
19	0xbb5f0b71	-0.003403392
20	0x3d87b205	0.066257514
21	0x3dc22088	0.09478861
22	0xbd20fb42	-0.039302118
23	0x3d3cbba4	0.046077386
24	0x3c25ee1f	0.010127573
25	0xbc706e5f	-0.014674752
26	0x3d32aa9d	0.04361974
27	0x3d91c4c4	0.07117608
28	0x3d9b0a6b	0.075703464
29	0x3c1068e2	0.0088140685
30	0xbbc06062	-0.0058708647
31	0xbd72b800	-0.059257507
32	0x3ce5a534	0.028032877
33	0x3d00e368	0.03146687
34	0x3b89ca27	0.0042050066
35	0x3d33e59f	0.043920156
36	0xbba23b89	-0.004950945
37	0x3d615e61	0.055021647
38	0xbc425325	-0.0118606435
39	0x3dbeb22f	0.093113296
40	0x3c80f1a5	0.015740225
41	0xbd8364a3	-0.06415679
42	0x3d055f1b	0.032561403
43	0x3d1218b6	0.035668097
44	0x3d96bb5d	0.073599555
45	0x38958eb5	7.131455e-05
46	0xbd43445b	-0.04767261
47	0xbd9028d7	-0.070390396
48	0x3c7ac4d3	0.015305716
49	0xbb488b0f	-0.0030600464
50	0xbc462b06	-0.0120952185
51	0x3c4f139c	0.012638953
52	0xbda640bc	-0.08117816
53	0xbd7373b6	-0.059436522
54	0xbc8dc411	-0.017305406
55	0xbceb33ed	-0.028711284
56	0xbd174c9e	-0.036938302
57	0xbc86abad	-0.016439283
58	0x3db12e37	0.08651393
59	0x3cef3bc7	0.029203309
60	0x3ca92a95	0.020650188
61	0xbcab43fd	-0.020906443
62	0x3d00570d	0.031333018
63	0x3dbc8fdf	0.09207129

weight f4 [64]
0	0x3fa4014d	1.2812897
1	0x3f82fe43	1.0233845
2	0x3f939f06	1.1532905
3	0x3f405ba9	0.7513986
4	0x3faaeee0	1.3354149
5	0x3f68985e	0.90857494
6	0x3efd1edb	0.49437603
7	0x3f8bea13	1.0930809
8	0x3f36c967	0.71401066
9	0x3f2c23ba	0.67242014
10	0x3fb4905b	1.4106554
11	0x3f661a84	0.8988421
12	0x3fc3ac4f	1.528696
13	0x3f3984fb	0.7246854
14	0x3fb89f94	1.4423699
15	0x3f9f0657	1.242381
16	0x3f6f8d67	0.9357514
17	0x3f894785	1.0724951
18	0x3ed83221	0.42225745
19	0x3f30dd36	0.6908754
20	0x3f905214	1.1275048
21	0x3f1e49bd	0.61831266
22	0x3ff15ffc	1.8857417
23	0x3fa58eaa	1.2934163
24	0x3f88b233	1.0679382
25	0x3f9bb223	1.2163738
26	0x3ed6e279	0.4196966
27	0x3f9beb45	1.2181174
28	0x3fb05a09	1.3777477
29	0x3fbd3134	1.4780641
30	0x3f020d2f	0.50801367
31	0x3f4c2c7c	0.7975538
32	0x3f9a3b92	1.204943
33	0x3fafab8d	1.3724228
34	0x3fc0e541	1.5069963
35	0x3fa7609c	1.3076358
36	0x3ed4a0f1	0.4152904
37	0x3f897f28	1.074193
38	0x3f844d8e	1.0336168
39	0x3f10a130	0.5649595
40	0x3fe52195	1.7900873
41	0x3f827066	1.0190551
42	0x3f7f516d	0.9973362
43	0x3ea70643	0.32621965
44	0x3fa22c00	1.2669678
45	0x3f5c4a27	0.8605065
46	0x3f902a82	1.1262972
47	0x3ef380c4	0.47559178
48	0x3f84ce00	1.0375366
49	0x3fa635f5	1.2985216
50	0x3f39b25f	0.725378
51	0x3fa498ef	1.2859172
52	0x3f719b80	0.943779
53	0x3f962e38	1.1732855
54	0x3fd67dbb	1.675712
55	0x3f59ba5a	0.85049975
56	0x3f2c7c5b	0.6737725
57	0x3fdcfe08	1.7265024
58	0x3faa24d9	1.3292495
59	0x3fbaf92f	1.4607295
60	0x3f807a1e	1.0037267
61	0x3f29b509	0.6629186
62	0x3f917a55	1.1365458
63	0x3f3aa88f	0.7291345

bias f4 [64]
0	0xbf996709	-1.1984569
1	0xbfb7cda1	-1.4359628
2	0xbfa14c47	-1.2601403
3	0xbf8d4d8c	-1.103929
4	0xbf729d56	-0.94771326
5	0xbfa8957b	-1.3170618
6	0xbf50a05a	-0.8149468
7	0xbf81fbd0	-1.0154972
8	0xbf4b5cd6	-0.7943853
9	0xbf3e36e2	-0.74302495
10	0xbfeefc75	-1.8670794
11	0xbf9eb24f	-1.2398165
12	0xbfbefe92	-1.4921439
13	0xbf8e7a54	-1.1131082
14	0xbfb32070	-1.3994274
15	0xbfec1628	-1.8444262
16	0xbfadc408	-1.3575449
17	0xbf919946	-1.13749
18	0xbf459d95	-0.77193576
19	0xbf79ebdd	-0.97625524
20	0xbfdb2877	-1.7121724
21	0xbf8fb153	-1.122599
22	0xbfc7b362	-1.5601618
23	0xbf40cd76	-0.7531351
24	0xbfcec7de	-1.6154745
25	0xbf878207	-1.0586556
26	0xbf20a20c	-0.62747264
27	0xbfcc1934	-1.5945191
28	0xbfb291c9	-1.395074
29	0xbf860568	-1.04704
30	0xbf4f46f6	-0.8096765
31	0xbf6b429e	-0.91898525
32	0xbf81af66	-1.0131652
33	0xbfb50d89	-1.4144756
34	0xbf960f8d	-1.1723496
35	0xc004d372	-2.0754056
36	0xbf775c7c	-0.96625495
37	0xbfa7a12e	-1.3096063
38	0xbfb3af3e	-1.4037855
39	0xbeef6ef7	-0.46764347
40	0xbfc4979d	-1.5358769
41	0xbf9c4f25	-1.2211653
42	0xbf626b9e	-0.8844546
43	0xbf066f5d	-0.52513677
44	0xbfd26a0a	-1.643861
45	0xbfd0ef62	-1.6323054
46	0xbf803642	-1.0016558
47	0xbf3bdec0	-0.73386765
48	0xbf913444	-1.1344075
49	0xbf987706	-1.1911323
50	0xbfad5010	-1.3540058
51	0xbf906e1c	-1.1283603
52	0xbfae2c86	-1.3607337
53	0xbf851634	-1.0397401
54	0xbfc9dfd1	-1.5771428
55	0xbf8434a5	-1.0328566
56	0xbf48b36a	-0.78398764
57	0xc000b3a7	-2.010965
58	0xbfd9e364	-1.7022519
59	0xbfb4db6f	-1.4129466
60	0xbfccac06	-1.5989997
61	0xbf8810fd	-1.0630184
62	0xbf1f92af	-0.62333196
63	0xbf99ed27	-1.2025498

running_mean f4 [64]
0	0xc168d777	-14.552604
1	0xc24a5ced	-50.590748
2	0xc1b29f34	-22.327736
3	0xc0599701	-3.3998415
4	0xc23bb3d3	-46.92561
5	0xc215771b	-37.366314
6	0xc163b834	-14.232471
7	0xc16eb389	-14.918832
8	0xc28b67c5	-69.702675
9	0xc28b5f1b	-69.68575
10	0xc298d6d1	-76.41956
11	0xc235b8df	-45.43054
12	0xc20daafd	-35.41698
13	0xc21cf4bb	-39.238995
14	0xc1f640ab	-30.781576
15	0xc213760d	-36.865284
16	0xc094c60c	-4.6491756
17	0xc29258c3	-73.17336
18	0x4099a044	4.8008137
19	0xc271bc2d	-60.433765
20	0xc23d674f	-47.350887
21	0xc1ee00a2	-29.750309
22	0xc205e620	-33.47473
23	0xc221ed2c	-40.481613
24	0xc26a8f31	-58.639835
25	0xc1c464e2	-24.54926
26	0xc1f0b8c1	-30.090212
27	0xc1a264a3	-20.299139
28	0xc1c61161	-24.758486
29	0xc1cb08e1	-25.379335
30	0xc1a7a677	-20.956282
31	0xc2935966	-73.67461
32	0xc1c2e053	-24.359533
33	0xc1dcb211	-27.586946
34	0xc168debe	-14.55438
35	0xc1fd8f7b	-31.695059
36	0x400f992d	2.243724
37	0xc0957a89	-4.671208
38	0xc287eedc	-67.96652
39	0xc2244c4a	-41.0745
40	0xc20c4621	-35.068485
41	0xc160e44d	-14.0557375
42	0xc23b460d	-46.81841
43	0xc0cd0488	-6.406803
44	0xc2772ff3	-61.796825
45	0xc1beea08	-23.864273
46	0xc0032560	-2.0491562
47	0xc1d044d9	-26.033617
48	0xc28040c4	-64.126495
49	0xc1dd2355	-27.642252
50	0xc2343f40	-45.061768
51	0xc1938aac	-18.44271
52	0xc1d3d152	-26.477207
53	0xc1c781bf	-24.938353
54	0xc1cdfa2e	-25.747158
55	0xc2705f6a	-60.093178
56	0xc251fd2e	-52.497246
57	0xc2802e3d	-64.09031
58	0xc1da6fad	-27.30453
59	0xc15289c8	-13.158638
60	0xc1fbbc84	-31.467049
61	0xc1eb3eab	-29.4056
62	0xc25fd712	-55.96003
63	0xc22c723b	-43.111553

running_var f4 [64]
0	0x44a963db	1355.1205
1	0x4438fc55	739.9427
2	0x446c1dc6	944.4652
3	0x43a3da8a	327.70734
4	0x44a5a9db	1325.308
5	0x441b23ae	620.5575
6	0x4422673b	649.613
7	0x443de008	759.5005
8	0x447cdcba	1011.44885
9	0x44481150	800.2705
10	0x442c8dc0	690.21484
11	0x442f8cf8	702.20264
12	0x449d1294	1256.5806
13	0x43e08499	449.03592
14	0x4485e038	1071.0068
15	0x44120657	584.09906
16	0x441459e7	593.4047
17	0x4486b3c5	1077.6178
18	0x43f2db72	485.71442
19	0x444d4bbd	821.1834
20	0x4412831d	586.04865
21	0x44037d70	525.95996
22	0x44a18266	1292.075
23	0x451d5dba	2517.858
24	0x44077ae0	541.9199
25	0x446a8416	938.06384
26	0x445cfd1f	883.955
27	0x44472b5e	796.6776
28	0x4467bb75	926.929
29	0x44b08751	1412.2286
30	0x44082a38	544.65967
31	0x4432b968	714.897
32	0x44c08f16	1540.4714
33	0x44645112	913.2667
34	0x45191b5a	2449.7095
35	0x44208b61	642.1778
36	0x444e3608	824.84424
37	0x446de0ae	951.5106
38	0x441b6201	621.5313
39	0x4425f444	663.81665
40	0x44bd3a80	1513.8281
41	0x443acac7	747.1684
42	0x447440c8	977.0122
43	0x44485cfd	801.45294
44	0x442266fc	649.60913
45	0x441382fa	590.0465
46	0x446bb187	942.77386
47	0x4412e5b9	587.5894
48	0x449b077b	1240.2338
49	0x44bd750d	1515.6578
50	0x44065191	537.2745
51	0x44edb34d	1901.6031
52	0x441aa51b	618.5798
53	0x448892e2	1092.5901
54	0x4472f367	971.80316
55	0x440c5942	561.39465
56	0x44045103	529.2658
57	0x448f8a2d	1148.318
58	0x441d873c	630.11304
59	0x4448b13b	802.7692
60	0x44344717	721.1108
61	0x43c3ca41	391.5801
62	0x4490badb	1157.8392
63	0x44411475	772.31964

weight f4 [256, 64, 3, 3]
0	0x3e7ec87d	0.24881168
1	0xbe322341	-0.17396261
2	0x3d6ed862	0.058311827
3	0xbfbeded4	-1.4911752
4	0xbf026828	-0.5094018
5	0xbe98d8aa	-0.29852802
6	0xbf5062d5	-0.81400806
7	0xbe9e334c	-0.3089851
8	0xbe8180f9	-0.2529371
9	0x3f96b1e1	1.1773034
10	0xbe3d1578	-0.18465221
11	0x3f4d30a0	0.8015232
12	0x3ec8d9ad	0.39228573
13	0xbf259704	-0.64683557
14	0xbf3899a9	-0.72109467
15	0xbeab073e	-0.33403963
16	0x3eac53f1	0.33657792
17	0xbf5c80fd	-0.8613432
18	0x3edbab89	0.42904308
19	0x3f7d93d4	0.9905369
20	0xbedf3289	-0.43593243
21	0x3eb3356f	0.35001704
22	0x3ef37ed4	0.475577
23	0x3e9f1843	0.31073198
24	0xbf92fb33	-1.148291
25	0x3f4aa17f	0.79152673
26	0x3c3882fa	0.011261696
27	0x3eb06e50	0.34459162
28	0xbee8e1fd	-0.45484915
29	0xbed15482	-0.40884787
30	0x3e73d394	0.2381118
31	0x3f85384f	1.0407809
32	0x3e942ca1	0.289403
33	0xbf6efa06	-0.93350255
34	0xbf7bd844	-0.9837687
35	0x3f615118	0.88014364
36	0x3ed7ee4b	0.4217399
37	0xbe927309	-0.2860339
38	0x3f61310b	0.8796546
39	0xbf82fd42	-1.0233538
40	0x3ea79dee	0.32737678
41	0x3f20f044	0.62866616
42	0xbf1201ea	-0.5703417
43	0xbfc8d7d8	-1.569087
44	0x3fc7bff0	1.560545
45	0x3f7929cc	0.973294
46	0x3edddbf1	0.43331864
47	0xbeb6ee73	-0.35728797
48	0xbdf38533	-0.1189064
49	0xbe8bf518	-0.2733543
50	0xbeaa3d91	-0.33250096
51	0xbe76a704	-0.24087149
52	0xbed1ef9b	-0.41003117
53	0x3e821726	0.25408286
54	0x3ebad5e4	0.3649131
55	0xbfbf8e72	-1.4965346
56	0xbefbf6ee	-0.4921183
57	0x3dbbb95d	0.091662146
58	0x3eb8d66f	0.361011
59	0x3e952c4c	0.29135358
60	0xbe82aa9e	-0.25520796
61	0x3f25fe16	0.6484083
62	0x3dcee21e	0.10101722
63	0x3f01d7dd	0.50720006
64	0x3d2e4506	0.042546295
65	0xbe922a27	-0.28547785
66	0x3f2cfa1e	0.6756915
67	0x3f226581	0.6343613
68	0xbf18a7ec	-0.5963123
69	0xbe54b694	-0.20772773
70	0xbf48ed33	-0.7848694
71	0x3f1a3291	0.6023341
72	0xbf6d855c	-0.92781615
73	0xbef1e51a	-0.47245103
74	0x3f0efb40	0.5585213
75	0x3e830b09	0.25594357
76	0x3d4bb01c	0.049728498
77	0xbe7065ef	-0.23476385
78	0xbd81d0eb	-0.06338676
79	0x3d66ff3a	0.056395747
80	0xbe3e80b3	-0.18603782
81	0xbeb01279	-0.34389094
82	0xbf02b6eb	-0.5106036
83	0x3f0c0b22	0.5470449
84	0x3ea376d0	0.31926584
85	0x3f6a57fe	0.91540515
86	0xbcfdd410	-0.030984908
87	0xbef10fbc	-0.47082317
88	0x3f22e243	0.636265
89	0xbd069621	-0.032858018
90	0xbd733f2a	-0.05938641
91	0x3e1968d4	0.14981395
92	0x3fa98321	1.3243142
93	0x3e7ed50b	0.24885957
94	0xbedae436	-0.42752236
95	0x3eb96ad3	0.36214313
96	0xbedf7271	-0.43642
97	0xbf30ab33	-0.6901123
98	0x3ecf1014	0.40441954
99	0xbca72f03	-0.02040816
100	0x3ede23da	0.43386728
101	0x3faba9c9	1.3411189
102	0xbe159436	-0.14607319
103	0x3f94a6b8	1.1613379
104	0x3e2d0668	0.16896975
105	0xbf0831ee	-0.53201187
106	0xbe257e33	-0.16161422
107	0xbd796b98	-0.060893625
108	0x3e640ee3	0.22271304
109	0xbe995d78	-0.29954123
110	0x3fadbf2d	1.3573967
111	0x3ef229c4	0.4729749
112	0xbea6efdc	-0.32604873
113	0xbeccf00e	-0.40026897
114	0xbe865e70	-0.26243925
115	0x3f262120	0.64894295
116	0x3db31b24	0.08745411
117	0xbde98f49	-0.114042826
118	0x3ea1493c	0.31501186
119	0x3f386a21	0.7203694
120	0x3eb3c626	0.35112113
121	0x3f4ecfd1	0.8078585
122	0xbec0c2fb	-0.37648758
123	0xbe72f39d	-0.23725744
124	0xbe1e241b	-0.1544346
125	0x3edbdffd	0.42944327
126	0xbe74fdea	-0.23924986
127	0xbe4edb74	-0.20200902
128	0x3fa7111c	1.3052096
129	0x3ee00201	0.4375153
130	0xbeebba72	-0.46040684
131	0xbdea40c2	-0.11438133
132	0xbc010807	-0.007875449
133	0x3e827355	0.25478616
134	0x3f65c3ca	0.89751875
135	0x3eddafc4	0.4329816
136	0x3f937918	1.152133
137	0x3eb2b7b4	0.3490578
138	0xbf040d55	-0.51582843
139	0xbfc3978a	-1.5280621
140	0x3f12409e	0.5712985
141	0x3f4533fc	0.77032447
142	0x3e5820ad	0.21106215
143	0x3eee874e	0.46587604
144	0xbe2d7c98	-0.1694206
145	0x3ef12c67	0.4710419
146	0xbea3b383	-0.31972894
147	0xbf079dea	-0.5297533
148	0x3eddaaf3	0.43294486
149	0xbecfe146	-0.40601557
150	0xbf65ac9d	-0.8971651
151	0x3ef11c34	0.4709183
152	0x3f45d69a	0.7728058
153	0xbf84dfed	-1.0380837
154	0xbfa5df81	-1.2958833
155	0xbe710e34	-0.23540574
156	0xbf419e58	-0.7563224
157	0x3f77d5e0	0.9681072
158	0x3d1f7b5d	0.038936008
159	0xbf261e47	-0.6488995
160	0x3f2688c2	0.65052426
161	0x3ec52bd2	0.38509995
162	0xbef54a68	-0.4790833
163	0xbeb34fbe	-0.35021776
164	0x3e63fee4	0.22265202
165	0xbe1f1956	-0.15537009
166	0xbdb6dbd7	-0.0892865
167	0x3edcc89d	0.43121806
168	0xbeb38113	-0.35059413
169	0x3ed81408	0.42202783
170	0x3e50239e	0.20326087
171	0xbf4f25c5	-0.80917007
172	0xbe02fd80	-0.12792015
173	0x3f7ba038	0.9829135
174	0xbd994a2c	-0.0748485
175	0x3e9f2e01	0.31089786
176	0xbea30566	-0.31840056
177	0xbf81758f	-1.0114001
178	0x3d29758a	0.04137186
179	0xbf888c3d	-1.0667797
180	0x3ea08d66	0.31357878
181	0x3de10e46	0.109890506
182	0x3f53970f	0.8265237
183	0xbe002f2d	-0.12517996
184	0x3f483c64	0.7821715
185	0xbf261fe9	-0.6489244
186	0xbf8ea6bc	-1.1144633
187	0xbf1533ae	-0.5828198
188	0x3f20dc83	0.62836474
189	0x3f82226d	1.0166756
190	0xbf56caa5	-0.8390296
191	0x3ec1f629	0.37883118
192	0x3ee54f3b	0.4478701
193	0xbf2bc30e	-0.67094505
194	0x3f4e3441	0.80548483
195	0xbf0146af	-0.5049848
196	0xbe2b8fca	-0.1675407
197	0xbd554ac1	-0.052073244
198	0xbe029a80	-0.1275425
199	0x3f2c2c40	0.6725502
200	0xbf9397a4	-1.1530652
201	0xbf42d2ff	-0.76103204
202	0xbe956e0b	-0.2918552
203	0xbf51f1b5	-0.8200944
204	0xbf860322	-1.0469706
205	0x3f3d5fdb	0.7397439
206	0xbdb0ad95	-0.08626858
207	0xbe89b3ea	-0.26895076
208	0xbe9212e0	-0.28530025
209	0x3f02a72f	0.5103635
210	0xbfe23a78	-1.7674093
211	0xbe87813e	-0.2646579
212	0x3ddaeb7c	0.10689446
213	0xbf1b1364	-0.6057646
214	0xbdbd0449	-0.09229333
215	0x3ecdd3ec	0.40200746
216	0x3e41b9b1	0.18918492
217	0xbd979123	-0.074007295
218	0x3e2650f7	0.16241823
219	0x3ea17e2b	0.3154157
220	0x3f034613	0.512788
221	0xbc89473a	-0.016757596
222	0xbedf7f47	-0.43651792
223	0x3f09cfe8	0.53832865
224	0x3d43cfb0	0.047805488
225	0xbf5d0460	-0.863348
226	0x3edfde19	0.43724135
227	0xbec7ab78	-0.38998008
228	0xbf160a98	-0.58609915
229	0x3f413b4b	0.754811
230	0x3e7b9bf9	0.24571218
231	0xbf879689	-1.0592815
232	0x3f17e178	0.59328413
233	0xbecda7c7	-0.40167066
234	0xbe9b6571	-0.3035083
235	0xbf80d022	-1.0063517
236	0x3e958c6b	0.29208693
237	0xbea44bb1	-0.32088998
238	0xbca7f171	-0.02050087
239	0x3d3a3cd7	0.045468178
240	0xbe931783	-0.28728876
241	0x3f470520	0.77742195
242	0xbe8b9988	-0.27265573
243	0xbd8eef0c	-0.06979188
244	0xbf02d7c0	-0.5111046
245	0xbf7e7ca1	-0.9940892
246	0x3f57eac7	0.84342617
247	0x3ed50551	0.4160562
248	0x3e0c86cb	0.13723294
249	0xbf8d193a	-1.1023324
250	0xbdb90823	-0.09034755
251	0x3f69589f	0.9115085
252	0x3e4edb22	0.2020078
253	0x3f37c697	0.717874
254	0x3f876c9a	1.0580018
255	0xbf6f0717	-0.93370193

bias f4 [256]
0	0xbc29b053	-0.01035698
1	0xbc324e04	-0.010882858
2	0x3b2be4bc	0.0026228866
3	0xbd2e82b8	-0.042605132
4	0x3d17d7d4	0.037071064
5	0x3c4fed50	0.012690857
6	0x3d090899	0.033455465
7	0x3c96e10a	0.018417854
8	0x3c29290b	0.010324727
9	0x3d1f9069	0.03895608
10	0xbd0eeaa5	-0.034891743
11	0x3c3773d8	0.011197053
12	0xbd642281	-0.055696968
13	0x3c96f87f	0.018429039
14	0x3d67d4f1	0.05659956
15	0x37b88490	2.1996239e-05
16	0x3ca323e6	0.019914579
17	0xbd589bc6	-0.052882932
18	0x3ced06ba	0.028933872
19	0x3be59cbe	0.0070072105
20	0xbce2607f	-0.027633904
21	0xbd552bb1	-0.05204362
22	0x3d0b6eee	0.034041338
23	0xbd37d89f	-0.04488432
24	0xbc04f8d9	-0.0081159705
25	0x3d05bb8f	0.032649573
26	0x3c4e577f	0.012594103
27	0xbcef3c73	-0.02920363
28	0xbd0e8244	-0.0347922
29	0xbc0f6538	-0.00875216
30	0x3c90cc40	0.017675519
31	0xbbf71f2e	-0.0075415587
32	0xbc852ce2	-0.016256753
33	0x3cf7f85e	0.030269798
34	0x3d36ae55	0.04459985
35	0x3c82f210	0.015984565
36	0x3d4d33af	0.050098117
37	0x3d559eb1	0.052153293
38	0xbc047c16	-0.008086225
39	0x39c5c1bd	0.00037719114
40	0xbc8ed0a9	-0.017433481
41	0xbcdd5bd2	-0.027021322
42	0x3c16f166	0.009212827
43	0x3cb2e5c0	0.021838069
44	0xbc310ffe	-0.0108070355
45	0x3cc57289	0.024102466
46	0xbc33a3b3	-0.010964322
47	0x3c9d77fe	0.019222256
48	0xbceb1976	-0.028698664
49	0xbd269625	-0.040670533
50	0xbbc81f6c	-0.0061072614
51	0xbc49bdce	-0.012313319
52	0x3b082ec6	0.0020779832
53	0xbd65a145	-0.056062
54	0xbd042e57	-0.032270756
55	0x3cbe8a05	0.023259172
56	0x3c4001de	0.011719195
57	0xbd28b969	-0.041192446
58	0x3d384f92	0.04499776
59	0x3d87195d	0.065966345
60	0x3d1537d1	0.036430184
61	0xbce92623	-0.028460568
62	0x3c715baa	0.014731327
63	0x3ce46e70	0.027884692
64	0xbcaac4ca	-0.02084579
65	0x3cc9ab11	0.024617704
66	0xbcb05c58	-0.021528408
67	0xbd007e47	-0.031370427
68	0xbb49c105	-0.0030785215
69	0x3bbf6421	0.0058407937
70	0x3c9f95c7	0.0194806
71	0x3d189d2f	0.037259277
72	0x3d48a6b6	0.048987113
73	0x3cb791d1	0.022408398
74	0x3d2f4cff	0.04279804
75	0xbc89603d	-0.016769523
76	0xbc5c5953	-0.013449031
77	0x3d716494	0.05893381
78	0x3d25b02d	0.040451217
79	0x3c82dde5	0.015974948
80	0x3d80a46d	0.06281362
81	0x3d06ae4a	0.03288106
82	0x3d45d847	0.04830196
83	0x3c4a612e	0.012352271
84	0x3cd9095d	0.026493723
85	0xbc9ff854	-0.019527592
86	0x3c7ba874	0.015359987
87	0x3d0c7efc	0.03430079
88	0xbd0f5d0a	-0.03500084
89	0x3cd83617	0.02639298
90	0x3ce490cf	0.027901081
91	0xbcc1d66f	-0.02366182
92	0xbcf78a49	-0.030217307
93	0xb9b2c58f	-0.00034097998
94	0xbd2320c4	-0.03982617
95	0x3d617577	0.055043664
96	0x3bf65941	0.007517964
97	0xbd0968ec	-0.033547327
98	0xbd506fec	-0.050887987
99	0x3bd047b8	0.006356206
100	0x3cf188d2	0.029484186
101	0xbcf12747	-0.029437674
102	0x3d5f134a	0.054461755
103	0x3c2dda34	0.010611106
104	0xbc9b7007	-0.018974317
105	0xbd360832	-0.04444141
106	0x3ba36b9e	0.004987194
107	0x3caf38a2	0.02138931
108	0x3ca8b72e	0.02059516
109	0xbcf6dc9c	-0.030134492
110	0x3d7105da	0.05884347
111	0x3d3959e5	0.045251746
112	0xbca97ed9	-0.020690368
113	0x3b50926f	0.0031825562
114	0x3c0d8bc1	0.008639277
115	0x3cb54dcb	0.022131821
116	0x3cc94fb4	0.024574138
117	0xbdb5315b	-0.088473044
118	0xbb2662d9	-0.0025388508
119	0x3cdad2a9	0.026711779
120	0x3d3a1033	0.045425605
121	0xbc0a0896	-0.008424899
122	0xbd72d66b	-0.059286516
123	0x3d0bf7f2	0.034172006
124	0xbc7b0e5b	-0.015323247
125	0x3d8a6505	0.06757549
126	0xbc051aa5	-0.008124028
127	0xbce57450	-0.028009564
128	0x3d340f99	0.043960188
129	0x3d424cd3	0.047436547
130	0x3d9471b6	0.07248251
131	0x3c875915	0.01652197
132	0xbccfa8d0	-0.02534905
133	0x3d6a5338	0.05720827
134	0x3d088a81	0.033335213
135	0x3c07ff81	0.008300663
136	0xbd399163	-0.045304667
137	0xbcfdd385	-0.03098465
138	0x3d569f09	0.05239776
139	0xbc7879b4	-0.015165735
140	0x3bbb8771	0.005722933
141	0x3cc7ec20	0.024404585
142	0x3c9dc2dd	0.019257957
143	0xbd82ba9c	-0.06383249
144	0xbbc39ab6	-0.0059693707
145	0x3ce9f89e	0.028560933
146	0x3d3e1a40	0.046411753
147	0xbcd849a9	-0.026402311
148	0x3c98fd3a	0.018675435
149	0xbc416099	-0.011802816
150	0xbbd74824	-0.006569879
151	0xbd29aec2	-0.041426428
152	0x3c6d0bcf	0.014468147
153	0x3cbf246e	0.0233328
154	0x3be5f7dc	0.0070180725
155	0x3c227350	0.009915188
156	0xbb9718c6	-0.0046111075
157	0x3c8c3a78	0.017117724
158	0x3cb08c47	0.021551264
159	0xbd02b53c	-0.03191112
160	0x3b329f89	0.0027255735
161	0x3cd41228	0.025887564
162	0x3c78bc28	0.015181579
163	0xbb307901	-0.0026927593
164	0x3c176356	0.009239992
165	0xbc9397d1	-0.018016728
166	0xbb33b101	-0.0027418735
167	0xbc583ff7	-0.013198844
168	0xbbd69459	-0.006548446
169	0xbcd33c66	-0.025785636
170	0xbb56b4a1	-0.0032761472
171	0xb7b7b529	-2.189966e-05
172	0xb9528900	-0.00020078197
173	0xbd02da59	-0.031946514
174	0xbd84c89f	-0.06483578
175	0x3b1f6567	0.0024321915
176	0x3d010ce5	0.031506438
177	0x3cef8bdf	0.0292415
178	0x3cd0a07d	0.025467152
179	0x39d4de26	0.00040601304
180	0x3aa149bf	0.0012305303
181	0x3be8be71	0.0071027805
182	0x3cd61905	0.026134977
183	0xbcfcc353	-0.030854857
184	0x3d30e457	0.04318651
185	0xbc3c0217	-0.011475108
186	0xbd27ef66	-0.040999793
187	0x3bada818	0.0052995794
188	0xbc4f331c	-0.012646463
189	0x3c2dc61c	0.010606315
190	0x3c46e790	0.01214017
191	0x3c92a3b2	0.017900322
192	0xbcf86a8d	-0.030324245
193	0xbce745e6	-0.028231572
194	0x3bdff50d	0.0068346323
195	0x3c09027f	0.0083624115
196	0xbc6da02d	-0.014503521
197	0x3d70c95e	0.05878579
198	0x3d09e9db	0.033670288
199	0xbd65cdf1	-0.056104604
200	0x3ca8fd07	0.020628465
201	0xbb52c252	-0.003215928
202	0x3d05e731	0.032691184
203	0xbd09c37c	-0.033633694
204	0x3cfce959	0.030872988
205	0x3bd3fbcc	0.0064692255
206	0xbc5fb184	-0.013653163
207	0xbd66dce6	-0.05636301
208	0x3c3a0a19	0.0113549465
209	0x3cb207e4	0.021732278
210	0x3a19e4ec	0.0005870599
211	0x3c254848	0.010088034
212	0xba51ee65	-0.0008008241
213	0xbc3da0b8	-0.011573963
214	0x3c5ab592	0.013348954
215	0x3d092475	0.033482034
216	0xba07ce41	-0.00051805755
217	0x3c9e8b26	0.01935346
218	0xbc9b579b	-0.018962672
219	0x3cb0159e	0.021494683
220	0x3bd3936c	0.006456783
221	0x3bce1b57	0.0062898803
222	0xbd71a65e	-0.05899655
223	0xbc867791	-0.016414436
224	0x3ca7aa68	0.020466998
225	0x3d7a1a6b	0.06106035
226	0xbbf430ae	-0.007452092
227	0x3d42a07c	0.04751633
228	0xbd50874a	-0.05091027
229	0xbd211d29	-0.03933445
230	0x3d8979ac	0.0671266
231	0x3cd3e2f8	0.025865063
232	0xbb8e83f4	-0.004349226
233	0xbcc4cc09	-0.024023073
234	0x3c1d516c	0.009601932
235	0xbd0a97bc	-0.03383611
236	0x3c52d395	0.012867828
237	0xbbf8c12b	-0.007591387
238	0xbd40187e	-0.046898358
239	0x3d5c93b1	0.053851787
240	0x3b81b6c5	0.0039585554
241	0xbc9a746f	-0.018854348
242	0x3b57d273	0.0032931834
243	0xbcd020a2	-0.025406186
244	0xbc4cebb7	-0.012507371
245	0x3d0358cf	0.032067116
246	0xbcf24cea	-0.029577691
247	0xbc49e6ce	-0.0123230945
248	0x3cc0720a	0.023491878
249	0xbcbf473a	-0.023349393
250	0x3ceeb64a	0.029139657
251	0x3c5fbcaa	0.013655821
252	0xbbff222e	-0.007786057
253	0x3c4d9f70	0.01255022
254	0xbc825b36	-0.015912633
255	0xbd1fb5c4	-0.038991705
