workplace/wav_emotion/model.pt (torch, 421835 bytes, 26 tensors)

weight f4 [16, 1, 3, 3]
000000 87 04 09 3f e2 94 a0 bc 8e 91 f6 be 33 25 49 3e
       0.53522533 -0.019602243 -0.48157924 0.19643097
000010 87 24 b8 bd 82 aa 93 3e 88 9c 26 3f e0 94 05 3f
       -0.08991342 0.28841025 0.650826 0.5218029
000020 be da d0 3e 25 70 be 3e e7 82 fc 3e 2a 3c 8e 3e
       0.40791887 0.37194934 0.4931862 0.27780277
000030 dd 2c d1 3d c2 4c 61 3e fc b9 83 3e 77 78 23 be
       0.10213635 0.22001937 0.25727832 -0.15963922
000040 14 bc 7a 3d 81 77 19 3e 30 34 eb 3e d1 e7 96 3d
       0.06121452 0.14986993 0.45938253 0.07368434
000050 40 06 a6 bc a3 75 95 3d 37 40 35 3e bb 59 1c 3e
       -0.020266652 0.07297828 0.17700277 0.15268604
000060 5a ea 59 3e a3 6b 63 3e a2 23 00 3f 28 72 b2 be
       0.21280804 0.22209029 0.5005437 -0.3485272
000070 9e ae f8 be 40 be 91 bf 9b 53 96 be fc b5 64 3e
       -0.48570722 -1.1386185 -0.2936066 0.22335047
000080 56 b3 5e be 99 66 69 be d5 cb 9a bd 09 b4 7a bd
       -0.21748099 -0.22793044 -0.07558409 -0.06120685
000090 7b 92 84 3f 63 dc 1f 3f 59 d2 e9 3e 04 05 20 3e
       1.0357202 0.6244566 0.45668295 0.15626913
0000a0 4c 96 d3 3e c7 a9 c5 3e 45 57 f5 be b1 e5 bf be
       0.41325605 0.38606092 -0.47918144 -0.37479928
0000b0 55 9b 40 be 3c ed 05 bf 2a 07 f3 be 28 97 bb be
       -0.18809254 -0.52315116 -0.47466403 -0.3663876
0000c0 22 16 00 be 2c a0 46 be 7c 6c 48 be d0 c9 0c bf
       -0.12508443 -0.19397038 -0.19572634 -0.5499544
0000d0 20 e2 1b bf 69 8c 28 bf 3d d6 52 3f e5 57 4c 3f
       -0.60891914 -0.6583925 0.8235815 0.79821616
0000e0 7c 3a e3 3e 85 12 78 bd 4f ca cf 3e d8 2c cf 3e
       0.44380558 -0.060564537 0.40584037 0.404639
0000f0 83 0b e9 be aa 21 9b be 4b 6b 2b bd fc b8 03 bf
       -0.45516595 -0.3029912 -0.04185037 -0.5145414
000100 81 a0 36 bf b3 2d 03 bf 91 86 52 be e0 c8 6b be
       -0.7133866 -0.51241606 -0.20559146 -0.23025846
000110 00 15 3c be 3e ba 88 be 20 f1 bf be bf 14 0d bf
       -0.18367386 -0.26704592 -0.3748865 -0.5510978
000120 5b 35 18 3f 0e 65 23 3f d8 f2 f0 3e f6 64 b1 3d
       0.59456414 0.6382607 0.47060275 0.08661835
000130 d3 c2 b1 3e a5 4f 7d 3e ed 87 18 bf ea 6f ce be
       0.34718952 0.24737413 -0.59582406 -0.4031976
000140 46 4a c5 be e9 87 14 bf 43 68 c6 be 12 30 9c be
       -0.3853323 -0.5801988 -0.3875142 -0.30505425
000150 5b 8c 08 be ff 84 9f be da f9 43 be bf 06 dd be
       -0.13334791 -0.31156155 -0.1913828 -0.4316921
000160 63 c6 04 bf 83 2f 1c bf 61 fe e8 be 2a 76 1e bf
       -0.51865214 -0.6101 -0.45506576 -0.61899054
000170 63 68 dd be 50 20 16 39 8d 91 e7 bd 87 34 d5 bd
       -0.43243703 0.00014317152 -0.113070585 -0.104104094
000180 53 4a 9c be 39 57 02 bf 15 cf 02 bf ad 61 3e bf
       -0.30525455 -0.5091434 -0.5109723 -0.7436779
000190 d7 74 4e 3e 29 dd 41 bf 9d 01 98 3d 81 cd 1b 3f
       0.20161758 -0.7572809 0.07422183 0.6086045
0001a0 d8 ca f8 be 6c 2f c9 bd d3 e8 a0 3f 06 23 ed 3d
       -0.48592257 -0.09823498 1.2571052 0.11578946
0001b0 9f 25 7e 3f 6f a7 7c 3e 19 d7 ac 3e d3 05 d3 3e
       0.99276155 0.24673246 0.33757856 0.4121538
0001c0 3d 97 f3 3e 83 94 b5 3e 8e 80 82 3d 1a d8 e9 3d
       0.47576323 0.35464868 0.06372176 0.11418171
0001d0 93 02 33 3f c3 1f 07 bf 3d a5 78 bf 3b c4 3f bf
       0.699258 -0.5278284 -0.97127134 -0.749088
0001e0 07 6c 91 be 0c 21 58 be dd 9a 50 3e 91 48 19 be
       -0.2840273 -0.21106356 0.20371576 -0.14969088
0001f0 a0 cd 89 be d5 f4 86 be fe f1 18 bf cc 35 9b bd
       -0.26914692 -0.26358667 -0.5974425 -0.0757862
000200 b5 40 6b bf d7 fb 16 3f fa 42 05 3f b3 c2 8c be
       -0.9189561 0.5897803 0.52055323 -0.27492294
000210 b8 36 97 3e 8c 35 47 3f 9c f6 c9 3e 09 83 1c 3f
       0.29533935 0.7781608 0.3944596 0.61137444
000220 d7 36 b7 3e 6c bc 4f 3f a4 1b c4 be 65 f1 f5 be
       0.35784027 0.81146884 -0.38302338 -0.48035732
000230 c8 1f e5 bc aa 58 2d bf d0 af 07 bf af 8b 03 bb
       -0.027969256 -0.67713416 -0.53002644 -0.0020072272

bias f4 [16]
000000 87 6b 52 3e 73 7c 09 be 68 a0 5c 3e b1 65 53 ba
       0.20548831 -0.1342638 0.21545565 -0.00080641644
000010 d6 31 58 3e 21 03 3b bd 72 d4 c2 3e 89 ff 1e 3e
       0.21112761 -0.04565728 0.38052708 0.15527166
000020 90 c6 85 bd c5 9a 7a bd c5 d7 17 bf 86 a5 eb be
       -0.065320134 -0.061182756 -0.59313613 -0.46024722
000030 7f 84 9f be ad de 3a be f5 ec d9 3d 7a bb 68 3e
       -0.31155774 -0.18249007 0.10640899 0.22727767

weight f4 [16]
000000 17 74 87 3f 85 dd 7f 3f 47 b3 8d 3f e2 8f 95 3f
       1.0582303 0.99947387 1.1070336 1.1684535
000010 95 f3 83 3f e9 ed b6 3f 9a 23 74 3f 57 3b 99 3f
       1.030871 1.4291354 0.95366824 1.1971234
000020 4a 8b 86 3f cc be af 3f 4b 61 a8 3f 2f 08 91 3f
       1.0511258 1.3730102 1.3154691 1.1330622
000030 42 34 82 3f 35 53 96 3f 24 f2 8b 3f ea 43 67 3f
       1.0172198 1.1744143 1.093327 0.90338004

bias f4 [16]
000000 aa d3 0a bf 10 41 97 be 5a 75 f1 be bf a2 a7 3f
       -0.54229224 -0.29541826 -0.47159845 1.3096541
000010 ea 75 9d be e8 0f 10 bd 73 47 34 be f1 1f 7c 3e
       -0.30754024 -0.03517142 -0.1760538 0.2462156
000020 06 b8 96 be dd 73 86 3b c8 32 44 3e 6c e8 bf 3d
       -0.29437274 0.0041031674 0.19159997 0.09370503
000030 21 b1 9a be cd 56 28 3f 66 9e 31 bf 08 04 ee bd
       -0.30213264 0.6575745 -0.6938232 -0.11621863

running_mean f4 [16]
000000 cf 60 5e 3e a6 de 06 be 97 b3 69 3e 8e 4f 50 bc
       0.21716617 -0.13170871 0.22822414 -0.01271428
000010 3f 1a 61 3e bd d3 78 bd ef 99 c8 3e 1d d1 13 3e
       0.21982668 -0.060748804 0.39179942 0.14435239
000020 58 78 60 bd a9 e0 8d bd 38 a3 1b bf 3c 2d ef be
       -0.05480227 -0.06927616 -0.6079593 -0.467142
000030 9b 3a 9a be 20 fa 3e be 87 45 eb 3d 64 a0 66 3e
       -0.30122837 -0.18650103 0.11487871 0.22522122

running_var f4 [16]
000000 13 e4 5b 40 1c c9 2e 40 03 3a 3e 40 2c 88 c4 40
       3.4357955 2.7310247 2.9722908 6.1416225
000010 d7 98 77 40 1e dc 3e 41 42 a1 5e 40 88 44 30 41
       3.8687036 11.92874 3.4785924 11.016731
000020 d9 cc 8c 3f 45 37 28 41 c8 18 03 41 3a 05 8c 3f
       1.1000015 10.513494 8.19355 1.0939095
000030 2c 17 3e 41 88 c6 10 41 4c 6d 9b 3f 25 cb ff 3e
       11.880657 9.04847 1.214273 0.49959674

weight f4 [32, 16, 3, 3]
000000 97 e3 0b 3d 6a 08 ea 3d 49 08 c5 bc 0a 4f 22 3e
       0.034152593 0.11427386 -0.024051802 0.15850464
000010 ef a7 e2 bc d7 6c a7 bc 11 d9 02 be ba 0b 90 be
       -0.027667968 -0.020437641 -0.12778117 -0.28133947
000020 08 66 97 be 59 9a b1 3d 35 2f 85 3e f6 5b 84 be
       -0.2957003 0.086720176 0.2601258 -0.2585141
000030 88 30 fe 3d fb 8d 64 be 6e 4c 50 bd 07 e7 83 3e
       0.124116 -0.22319786 -0.05085414 0.25762197
000040 20 a9 29 3e 80 77 22 3e 5f 3c 21 3e 51 e4 d5 3d
       0.16568422 0.15865898 0.15745686 0.104439385
000050 00 71 6e be 74 9e 29 3e d0 06 44 3e 13 e2 02 be
       -0.23285294 0.16564351 0.19143224 -0.12781553
000060 eb 82 5f be 8b 88 ae bd 72 ae 56 be 97 58 b9 be
       -0.21827285 -0.08522137 -0.20964983 -0.362004
000070 1b 9d 78 bf fd 9d 16 bf ac f0 a5 bf ac 54 4d bf
       -0.97114724 -0.5883482 -1.2964072 -0.80207324
000080 63 0b 36 bf b2 a3 88 bf 9f 92 56 bf dc fc 50 bf
       -0.71111125 -1.0674956 -0.83817476 -0.8163583
000090 b8 4b 14 3d 7c 5c 1f be 14 b3 19 be b8 ba 74 3e
       0.036205024 -0.15562624 -0.15009719 0.23899353
0000a0 77 0c 3b bd 11 06 1d 3d d3 ce ca 3e aa 15 b1 bb
       -0.045666184 0.038335864 0.3961092 -0.005404194
0000b0 2f 43 7e 3e b3 77 a4 be 99 64 a7 be a4 35 ca be
       0.24830316 -0.32122573 -0.32693937 -0.3949405
0000c0 ed e5 b2 bc f3 f1 8d 3c 6c a1 10 bd 08 51 e3 bd
       -0.021838153 0.017327284 -0.035310194 -0.1109944
0000d0 43 93 6a bd 3f 1c ba bd b6 15 95 3e b8 7c 8a be
       -0.057269346 -0.09087419 0.29118127 -0.27048278
0000e0 c3 6c eb bd 00 d9 c8 3e fd 3e 48 be 31 9a 7d bd
       -0.11495354 0.39228058 -0.19555278 -0.061914627
0000f0 fd fa 2a 3e 1a 81 95 bc 36 85 66 3a 10 a4 0a bf
       0.16697307 -0.018250037 0.00087936537 -0.5415659
000100 e3 2a 1b bf 3e 3b 22 bf b5 9c 95 be 79 39 e0 bd
       -0.60612315 -0.63371646 -0.2922112 -0.10948462
000110 13 ab 3a be 5d 92 5a be 3e fd df be 48 f4 35 bf
       -0.18229322 -0.21344896 -0.43747896 -0.7107587
000120 a5 41 9f 3d 67 12 0c bf 4b e6 ef be c3 46 cc 3d
       0.077761926 -0.5471558 -0.46855387 0.09974434
000130 6a 6a c8 3d ba 9f 70 bd a4 ef d3 3e 84 55 d1 be
       0.09785922 -0.058746077 0.4139377 -0.40885556
000140 33 01 da bd f2 b8 d6 bd cf 3b f9 bd 63 ce 97 be
       -0.1064476 -0.10484494 -0.12169611 -0.29649648
000150 6a 9e 63 be 15 af b1 bd 36 0d bb be 98 5c 82 be
       -0.22228399 -0.08675972 -0.36533517 -0.25461268
000160 0c 6f c9 bd ce 81 e2 bd c1 fa 99 be d4 c8 09 bf
       -0.09835634 -0.110599145 -0.30074123 -0.53822064
000170 01 e8 95 be 91 e0 77 be d8 0e 41 bc 3a af 90 be
       -0.29278567 -0.24206759 -0.011783324 -0.28258687
000180 22 ed 01 be b6 06 d6 bc be b4 39 be 65 92 73 3d
       -0.12688115 -0.026126247 -0.18135354 0.059465785
000190 f1 b8 95 bd 48 4b b4 be 61 e5 0c 3e 8f c8 df 3b
       -0.073106654 -0.35213685 0.13759376 0.0068293284
0001a0 ee a4 92 bb dd 32 c1 be 1f 56 09 bf 03 6d 04 be
       -0.0044752276 -0.37734118 -0.53647035 -0.1293221
0001b0 5e 37 3d 3e 1f 79 00 bd 11 d0 06 be 1e db 9e 3e
       0.18478152 -0.03136551 -0.13165309 0.31026548
0001c0 07 bd 1b 3e df c9 d8 bd 76 01 36 3d 74 b8 e6 be
       0.15208827 -0.10585379 0.044434987 -0.45062602
0001d0 1e a8 ee bc 25 35 24 bf f1 a6 53 bf 70 31 2b bf
       -0.029132899 -0.6414359 -0.8267661 -0.6687231
0001e0 87 b0 39 bf 07 a2 ca be aa d9 36 bf a2 5a 34 bf
       -0.72534984 -0.39576742 -0.7142588 -0.70450795
0001f0 f8 88 d7 be 0c 0f 90 be 9f 7c 25 be f5 49 0a 3e
       -0.42096686 -0.2813648 -0.1616082 0.13504775
000200 34 84 90 3e eb 2a b3 3e 2a 38 25 be 92 60 c5 3d
       0.28225863 0.3499368 -0.16134706 0.0963756
000210 80 1e 8b be b5 cd 32 be 95 a5 09 be de de a8 be
       -0.27171707 -0.17461284 -0.13442071 -0.32982534
000220 58 d6 2c bf 90 9f 15 bf d8 f3 e1 be 00 04 30 be
       -0.6751456 -0.584466 -0.4413135 -0.17189026
000230 81 10 1a bf 50 6e cb bd 40 fb d2 3d 61 59 0b bf
       -0.6018143 -0.0993315 0.103018284 -0.54433256
000240 b9 5b dd be 1c d7 9c bd f3 d3 f6 bd 9d 9d 32 be
       -0.4323404 -0.07658216 -0.12052145 -0.17442937
000250 b7 e5 c9 3b 91 cb 11 3e 08 75 a7 be 9d 55 13 be
       0.0061614173 0.1423781 -0.32706475 -0.14388128
000260 5a 3a 19 be 09 57 42 3c 0d ea 12 bd 73 77 05 bf
       -0.14963666 0.011861571 -0.03586774 -0.5213539
000270 a4 0c 5b be 42 75 17 bc 73 2b dd bd 91 fb 90 be
       -0.21391541 -0.009244265 -0.10799303 -0.2831693
000280 53 c3 b3 bd 2a 8f b4 be b8 45 73 be c7 58 96 b9
       -0.087774895 -0.35265476 -0.23757064 -0.00028676374
000290 10 a2 18 be b0 2c 87 be e1 ef a1 3d 13 ae ef 3d
       -0.14905572 -0.2640128 0.079070814 0.11703124
0002a0 0b 77 ac be 28 82 7b 3d 9f 40 8c b9 88 02 46 bd
       -0.33684573 0.061403424 -0.00026751027 -0.048342258
0002b0 13 e4 a0 3e 17 63 d0 be 32 8b 0a 3f c9 9d 5c bf
       0.31424007 -0.407006 0.54118645 -0.8617826
0002c0 37 ba ed 3e 5a 89 22 be 1d 3e b8 3e 82 ee 8e bd
       0.46431133 -0.15872708 0.3598489 -0.069790855
0002d0 d9 33 08 3e 3b 1f 88 3e a4 03 d6 be 53 82 56 be
       0.13301028 0.26586327 -0.41799653 -0.20948152
0002e0 d4 2a b2 be aa 92 90 be 64 c5 81 be 7b 6d 7a be
       -0.347983 -0.28236896 -0.2534591 -0.24455826
0002f0 89 7a 3c be 2e 7c 49 bd 2f 7d ae bd ba 52 26 3f
       -0.18406118 -0.049190693 -0.085199706 0.6496998
000300 ed 55 c0 3e 1e 25 45 3e b6 74 94 3f da 45 f5 be
       0.37565556 0.1925244 1.1598117 -0.47904855
000310 b4 f7 9f 3b 5f d1 48 3f d4 88 fc bc 93 8e d3 3e
       0.0048818234 0.78444475 -0.030826963 0.41319713
000320 2d cf 87 be 73 44 fe be fb ae 46 bd 53 6b 8c be
       -0.2652525 -0.49661598 -0.048506718 -0.27425632
000330 7c 99 dd be 83 bb 30 be 46 ea 55 be 47 2a c1 3d
       -0.43281162 -0.1725903 -0.2089015 0.09431892
000340 9c 48 a1 3e 08 8b 0f 3b 9a 13 5c be 4d 5c 4e 3d
       0.3150071 0.0021902937 -0.21491852 0.050380994
000350 59 56 46 3e c7 eb 40 bd f0 2e 4f 3f 98 01 e2 3e
       0.19368877 -0.047099855 0.80930996 0.4414184
000360 50 b8 5a 3e d2 bf 80 3e ef 1a 28 be cd 96 e3 be
       0.21359372 0.25146347 -0.16416524 -0.4445099
000370 08 8e 9f be 33 46 13 bf 5e a4 dc be 3a 43 39 be
       -0.3116305 -0.5752899 -0.43094152 -0.18092051
000380 cf bc 79 be 2d 40 a0 3e d7 9c b7 3e a5 68 d2 3e
       -0.24388431 0.31298962 0.35861847 0.41095462
000390 ba 07 52 3e 2a 6a 1c 3e 3a 29 65 3f 68 69 15 3f
       0.2051076 0.15274873 0.8951603 0.5836396
0003a0 34 1a 7e bf c5 32 7f 3f 97 35 4e 3e 87 90 2c bf
       -0.9925873 0.99686843 0.2013763 -0.6740803
0003b0 a6 0e 08 3c 4e 05 48 3d 8c 45 f7 3e be 63 8c 3f
       0.008304274 0.048833184 0.48295248 1.0967939
0003c0 22 c6 44 be bc 30 44 3e 0b b3 b9 3e bb 8e 9c bf
       -0.19216207 0.19159216 0.3626941 -1.2231058
0003d0 72 be 60 bf 2e 71 3c bf 4a 14 f8 be 27 6c f8 be
       -0.87790596 -0.736102 -0.4845298 -0.48520014
0003e0 0a b0 29 bf 15 1f ce bb d0 78 b4 be 70 91 77 be
       -0.6628424 -0.0062903264 -0.35248423 -0.24176574
0003f0 0e a0 55 be e7 92 3d bc a9 c6 7a be 46 a8 f8 be
       -0.20861837 -0.011570669 -0.24489845 -0.48565882

bias f4 [32]
000000 48 ec c2 3d 12 00 75 bc cb 15 8c 3d 21 f9 62 3d
       0.09517723 -0.01495363 0.06840094 0.05541337
000010 f7 9a 12 3e a9 ce 7c 3d 79 e7 2b bd c6 ef d3 bc
       0.14316927 0.061720524 -0.041968796 -0.025871169
000020 41 32 c3 3c 84 68 90 3b f5 d8 f4 3c e9 91 1c bc
       0.023827674 0.0044069905 0.02988861 -0.009556272
000030 8c 5d b5 bc 87 4e 1a bd 7b 0a db 3c e1 94 07 3e
       -0.022139333 -0.037672546 0.026738396 0.13240387
000040 d6 4e e0 3b 5f f6 a5 bc 08 28 f4 ba 6b 74 8e bd
       0.0068453355 -0.02025908 -0.0018627653 -0.06955799
000050 e2 0d cf 3c 16 8f bc 3d 1e 1b 19 bc a6 40 83 3d
       0.025275175 0.09206979 -0.009344844 0.06408815
000060 41 eb ae 3c ec 6d d4 ba eb 01 46 3b de 61 a6 bc
       0.021352412 -0.0016207076 0.0030213546 -0.020310339
000070 a3 2b 8a bc 55 6a 2f 3d 74 2e 88 bd f7 28 f4 3c
       -0.01686651 0.042826016 -0.06649485 0.02980469

weight f4 [32]
000000 a6 d4 9c 3f d9 3a 9f 3f d7 c6 a4 3f 4a 1e 37 3f
       1.2252395 1.2439834 1.2873181 0.7153059
000010 84 37 97 3f 40 9c 49 3f fd b7 0c 40 45 57 76 3f
       1.1813817 0.78754044 2.1987298 0.9622691
000020 34 39 40 3f ae a5 4c 3f e0 6d 2b 3f 28 fa bc 3f
       0.75087285 0.7994031 0.6696453 1.4763842
000030 7f 6a 45 3f 5a 50 9e 3f dc 03 8e 3f 2c 98 15 40
       0.77115625 1.2368271 1.1094928 2.3374128
000040 cb 0d a4 3f e4 e5 89 3f a1 9c 98 3f 65 6b 16 40
       1.2816709 1.0773282 1.1922799 2.3503048
000050 b2 e5 5f 3f 04 c6 5b 3f b8 58 94 3f 0b 80 92 3f
       0.8745986 0.8584902 1.1589575 1.1445326
000060 a1 fb 71 3f 74 5d c2 3f 49 ba 28 3f 98 1a 75 3f
       0.9452458 1.518477 0.6590925 0.95743704
000070 66 12 94 3f 59 28 24 3f 0c a8 4b 3f 73 88 59 3f
       1.1568115 0.64124066 0.79553294 0.8497383

bias f4 [32]
000000 5f 21 57 bf 69 d0 f1 bd c6 8e d7 bd d1 0a 9e be
       -0.84035295 -0.11807329 -0.10525279 -0.30867627
000010 32 fc 57 bf 3c 69 4f bf bb e3 46 bf 24 6f 0a bf
       -0.84369195 -0.8101995 -0.7769124 -0.5407584
000020 90 19 09 bf dc f5 dc be fd e0 f0 be d6 8e 52 bf
       -0.5355463 -0.43156326 -0.47046652 -0.822492
000030 1d 44 9d be d1 36 33 bf 55 90 c4 3d e7 20 80 bf
       -0.3071603 -0.7000552 0.09597842 -1.0010041
000040 14 12 4d 3c 0a 57 57 bf 02 c2 72 bd ab b0 3d bf
       0.012516517 -0.84117186 -0.05926705 -0.740977
000050 3f 84 2c bf 16 07 3c be 36 c5 4c bf f0 0b 76 bf
       -0.6738929 -0.18362078 -0.7998842 -0.96111965
000060 9a 7e 9c be c0 b1 37 bf a3 69 40 be f4 03 4c bf
       -0.3056534 -0.717556 -0.18790297 -0.7969353
000070 9d e1 3a bf 8b e8 af be 7a 4c 06 bf 8c f8 12 bf
       -0.7300051 -0.34357104 -0.52460444 -0.574105

running_mean f4 [32]
000000 83 f9 c0 c1 7f 27 7a c0 3a af 07 bf f6 2f 10 c1
       -24.121832 -3.9086607 -0.5300175 -9.011709
000010 b8 18 47 c1 f9 2b 3a c1 01 86 82 c1 cc 10 91 c1
       -12.443535 -11.6357355 -16.315432 -18.133202
000020 b6 d8 29 c1 22 7a de c0 85 43 09 c1 23 98 98 c0
       -10.615408 -6.952409 -8.578984 -4.7685714
000030 7c 8a c1 c0 bc ef 97 c1 b3 8b a9 3e d4 a2 60 c1
       -6.048155 -18.992058 0.33114395 -14.039753
000040 da 01 f6 be 2e 67 99 c1 6b bf 96 bf 7e c2 b3 c1
       -0.48048288 -19.17538 -1.1777166 -22.469967
000050 28 51 42 c1 fd 3d 5e c1 b7 8b 59 c1 b1 c2 bd 41
       -12.144814 -13.890134 -13.59661 23.720064
000060 a4 d3 06 41 58 92 8c c1 57 44 24 c0 14 d3 68 c1
       8.42667 -17.571457 -2.5666711 -14.551533
000070 cc 14 e2 c1 55 ff b0 3f f0 d8 51 c1 93 0c 41 c1
       -28.260155 1.3827921 -13.115463 -12.06557

running_var f4 [32]
000000 c8 e1 6d 43 d8 c5 84 43 e2 58 b6 43 7b 79 e8 42
       237.88196 265.54565 364.6944 116.23727
000010 83 52 e0 42 7c 0b a0 42 0a 7b 94 43 5e d8 3f 43
       112.161156 80.02243 296.96124 191.84518
000020 3e a2 d2 42 6f 07 b8 42 d5 2a 9c 42 65 66 ce 42
       105.31688 92.01452 78.08366 103.19999
000030 1d 7b e4 42 d4 a4 f6 42 40 c3 68 43 e9 19 92 43
       114.240456 123.32193 232.7627 292.20242
000040 32 5f 05 44 e7 70 0b 43 9f 4a f7 42 00 72 b4 43
       533.4874 139.44102 123.645744 360.89062
000050 1e 4c 81 42 a7 41 39 43 91 74 ef 42 05 fe 4e 43
       64.64867 185.25645 119.72767 206.99226
000060 c7 cc 55 43 7e 4b 5b 43 d8 71 6b 42 3c e3 a6 42
       213.79991 219.29489 58.861176 83.44382
000070 ac 19 b0 43 64 8d bf 42 a6 82 dc 42 17 55 07 43
       352.20056 95.77615 110.25517 135.33238

weight f4 [64, 32, 3, 3]
000000 38 4d 1c be 6e 9e 06 3e 39 d7 77 3e 2d c8 bc 3d
       -0.15263832 0.13146374 0.24203195 0.09217868
000010 de 83 31 3f 41 3b 7f 3e ea ec 98 3e af 17 f7 3e
       0.6934184 0.24924947 0.2986825 0.48260257
000020 7c 71 96 3e 50 55 d1 3e 33 b4 1d bf 0d 2b 57 bf
       0.29383457 0.408854 -0.6160309 -0.84050065
000030 42 79 0f 3f cf 95 64 bf e6 12 0e bf f7 e8 a9 3d
       0.560444 -0.8929109 -0.55497587 0.08296388
000040 89 14 f7 be 8e 23 55 bc 45 b2 6a be 12 0c cf be
       -0.48257855 -0.013008965 -0.22919567 -0.40438896
000050 6c 88 2d bf c5 cf 43 3e 57 e7 f0 be 15 8b 8a bf
       -0.6778629 0.19122227 -0.47051498 -1.0823694
000060 1f b2 99 3e ed 8a 4a bf 70 00 8d bd 13 1c 01 bf
       0.30018708 -0.79118234 -0.06884849 -0.5043346
000070 88 c0 87 be a2 23 7a be 45 0f af 3d 47 0c db 3d
       -0.26514077 -0.24427655 0.08547834 0.10695701
000080 51 c9 bf bd 9e 97 12 3e 68 50 b6 3d 13 f0 12 3e
       -0.0936457 0.1431565 0.08902055 0.14349394
000090 3a db 5b bf 99 85 95 3e 43 c7 3c bf 25 21 88 be
       -0.8588139 0.2920349 -0.7374155 -0.26587787
0000a0 66 86 80 3e eb 87 43 bf 73 3f 05 bf 58 3e aa bd
       0.25102538 -0.7637927 -0.5204994 -0.083126724
0000b0 78 42 bd bf fd fe 2d bf 8c 9a 9c be ad 38 53 bf
       -1.478591 -0.67967206 -0.3058666 -0.82508355
0000c0 0b 24 c5 be e1 ae 69 3e 9c ee 2f bf 53 67 ac bd
       -0.3850406 0.22820617 -0.68723464 -0.08418145
0000d0 6e 63 cd 3e ef f3 5e be c8 c6 16 bf ea 24 bf be
       0.4011492 -0.21772741 -0.58897066 -0.3733285
0000e0 ce 2d 9a be e8 b9 84 bf cf cd 63 bf 6b 71 a6 be
       -0.3011307 -1.0369234 -0.88985914 -0.32508406
0000f0 3e 96 9b bf d4 e1 4b bf fd 6a 11 bf 75 e9 11 3e
       -1.2155225 -0.7964146 -0.56803876 0.14249213
000100 c3 45 b5 3e 51 00 97 be 2b 6c d2 be 37 63 90 3e
       0.35404786 -0.2949243 -0.4109815 0.28200695
000110 8c f7 e8 bc d6 6f ae 3e 57 f9 19 3e 6e e7 ae 3e
       -0.028438352 0.340697 0.15036522 0.34160942
000120 2a 62 05 bd db e3 2b be 93 02 b9 3e 4d d3 86 3d
       -0.03256432 -0.16786139 0.36134776 0.06583271
000130 d0 34 a6 3e 33 87 17 bd af 9d 88 3e 5d 91 10 3f
       0.32462168 -0.03699417 0.26682803 0.56471807
000140 da 4a 37 3e 34 2c 01 bf dd 15 19 bc a3 78 e5 bd
       0.17899647 -0.50458074 -0.0093435915 -0.1120465
000150 b7 f1 c4 3d fa 88 05 3f 6c 59 40 bd 89 85 2b bc
       0.09616416 0.52162135 -0.04696028 -0.010468849
000160 8b db 59 3e af e0 cf 3e 1b 2a 4e be cf 3e b0 be
       0.21275155 0.40601107 -0.2013325 -0.3442292
000170 da bc d5 be 16 fa 6a 3d e5 ef 23 bd d8 74 7b be
       -0.41745645 0.057367407 -0.040023703 -0.24556291
000180 58 42 b1 bd e0 98 44 3e 01 7f f3 bd e5 b2 b5 bc
       -0.08655232 0.19198942 -0.118894584 -0.02218003
000190 51 51 84 be ba 0a 95 bf 0c 8a a6 3e d6 69 b6 be
       -0.2584329 -1.1643898 0.32527196 -0.3562762
0001a0 40 fe 51 bf 05 05 a4 be de 63 3f be 32 c9 5f bf
       -0.8202858 -0.3203508 -0.1869044 -0.87416375
0001b0 bb 81 fb bd 77 4d 31 be 3c 1b 22 be 39 5d de 3e
       -0.122806035 -0.17314707 -0.15830702 0.43430498
0001c0 89 5c 00 3f 23 a0 77 bd 0e a6 0e 3e 57 da 09 be
       0.501412 -0.060455453 0.13930532 -0.13462196
0001d0 e1 7f 11 3e 1d 67 6e be 79 6a 9c bd 9a 2f f0 3d
       0.14208938 -0.23281522 -0.076374955 0.11727829
0001e0 6b 75 ca be dd 35 75 3e f2 6e 59 be 53 d2 c4 bc
       -0.39542708 0.23946328 -0.21233729 -0.024026072
0001f0 43 a0 4d bd bf d8 61 3e 1b 83 00 be 63 df c1 3d
       -0.050201666 0.22055338 -0.12550013 0.09466436
000200 be 3d a5 bf d0 ad ae 3e 3b b6 64 3e b9 6a ce be
       -1.2909467 0.34116983 0.2233514 -0.40315798
000210 28 88 38 bd 06 66 2b be 41 4c 12 bf 0e f7 33 bf
       -0.045051724 -0.16738138 -0.57147604 -0.7029885
000220 cf e5 5b bf 8d 90 4e be fe ec aa be 7e 82 a7 bf
       -0.85897535 -0.20172329 -0.33383936 -1.3086698
000230 2f 97 0e be 57 38 ab bf c4 f5 30 bf 1a 82 06 bf
       -0.1392486 -1.3376569 -0.6912501 -0.5254227
000240 94 9d e7 3d 3c 4f d0 be 04 37 73 bf 99 60 c5 3e
       0.113093525 -0.4068545 -0.9500582 0.3855026
000250 4f 8b 5f bf cf ee 30 bf a4 55 63 3e 7d 28 a9 be
       -0.87321943 -0.69114393 0.22200638 -0.33038703
000260 4e a5 17 3e 8e a9 88 bd f1 b2 a8 be cf 79 c3 bd
       0.14809152 -0.06672965 -0.3294902 -0.095447175
000270 7c 32 9e 3e 64 6b 76 be b5 5a 87 be 0a 8f ef be
       0.30897892 -0.24064404 -0.2643639 -0.46788818
000280 7e 09 89 3e ff 0f b8 3d 89 57 94 bd 36 b5 07 3e
       0.26765054 0.08987426 -0.072432585 0.1325272
000290 01 ba b5 bf 1a 05 be 3e 12 dd b2 bd ec 09 62 bf
       -1.4197389 0.37113267 -0.08733572 -0.8829639
0002a0 ef 85 ad 3d 06 b4 ae 3e 5c 90 25 bf cd be 36 bf
       0.084728114 0.34121722 -0.646734 -0.7138489
0002b0 74 5d 07 bf e5 5d 0a 3e 52 72 a8 bf f6 50 82 bf
       -0.52876973 0.1351238 -1.3159888 -1.0180957
0002c0 c4 61 53 be 48 4f 53 bf fa 44 9d bf 48 68 cf be
       -0.20642763 -0.8254285 -1.2286675 -0.40509248
0002d0 59 94 1e bf 90 c2 9f 3e c9 bb f8 be 8a fb 97 be
       -0.6194511 0.31203127 -0.4858077 -0.29684097
0002e0 fb 56 c2 3e fc 8c 9b be 52 e3 0f 3e 0c e2 a1 bd
       0.37956986 -0.30381 0.1405156 -0.07904443
0002f0 8f 21 7f be a7 09 1a be 09 92 99 be 98 53 35 be
       -0.24915145 -0.15042745 -0.29994228 -0.1770767
000300 cb 50 e3 bd 20 11 15 3e 92 93 e5 bd b1 cf 29 bc
       -0.110993944 0.14557314 -0.112097874 -0.010364459
000310 33 64 9c 3e 05 f2 cc bd a4 72 31 bf 22 e5 16 3f
       0.30545196 -0.10007099 -0.6931555 0.5894338
000320 40 f5 25 bf de cf c7 be c9 63 a7 3e dc b9 61 bf
       -0.64827347 -0.39025778 0.32693318 -0.88174224
000330 64 3b 82 bf ad 12 04 3e 99 15 b7 be 69 b2 af 3e
       -1.0174375 0.12897749 -0.35758665 0.34315804
000340 6b d8 70 be 2e 3b a4 bf fe 85 25 3e 63 44 91 be
       -0.23520057 -1.283056 0.16164395 -0.28372487
000350 4f dd 44 bf cc 99 8c 3e 22 3f a7 3e 8d 2f 80 bf
       -0.7690019 0.27461088 0.32665354 -1.0014511
000360 c6 99 a2 3e e7 eb e4 3e 48 ba ae bf fd c7 a0 bc
       0.31757945 0.4471123 -1.3650599 -0.019626612
000370 ec ca 3b 3e f8 39 25 bf bf 91 df bd f9 14 80 3e
       0.18339127 -0.6454158 -0.10916471 0.25016
000380 19 a9 a6 be d6 a2 69 bf 89 dc b7 be 32 ee c7 be
       -0.32550886 -0.9126409 -0.35910442 -0.39048916
000390 a8 5a 2a bf cb 6b 76 bf ca b3 f8 be 91 b8 87 bf
       -0.6654458 -0.9625823 -0.48574668 -1.06032
0003a0 a4 f6 ac be 76 cf da be 9c 97 25 bf 0e d5 ca be
       -0.33781922 -0.42736405 -0.6468446 -0.39615673
0003b0 87 13 d8 be c1 b0 93 3d 83 98 cf be 48 2d ef be
       -0.42202398 0.072114475 -0.40546045 -0.46714234
0003c0 e4 26 d5 3b a9 b2 ca 3e 85 a4 8b be 84 ea 3e be
       0.0065048803 0.39589432 -0.27273956 -0.18644148
0003d0 5c b1 9e be c5 23 ab bd b6 50 ec be a1 c7 dc bd
       -0.3099469 -0.08356432 -0.46155328 -0.10780264
0003e0 f1 a2 61 be 11 05 d0 3b 0a 60 2d bd cb 89 c7 be
       -0.22034813 0.00634826 -0.042327918 -0.38972315
0003f0 1e 0c ce 3e 62 d4 4e 3f a7 a5 f8 3c 6a 6b 33 bc
       0.4024362 0.8079282 0.030352427 -0.0109509025

bias f4 [64]
000000 00 9d ad 3d 1e 4a 5f 3b c4 52 71 bd e8 d0 36 3d
       0.08477211 0.0034071277 -0.058916822 0.044632822
000010 af 23 fb 3c 53 89 45 bd 61 fb 1f bd 01 6e ab bc
       0.030656664 -0.048226666 -0.039058093 -0.020926477
000020 4f d0 44 bc b3 71 8d bc 5a 80 95 3b 9a 24 22 bd
       -0.012012555 -0.01726613 0.00456242 -0.039585687
000030 19 0d 3b 3c 04 bb 70 3c 0b 6b 6f 3d f8 7a 25 bd
       0.011416697 0.0146930255 0.058451694 -0.040400475
000040 b8 92 81 3c 7c f6 16 3d cb 76 14 3d 9a f6 a6 bc
       0.015817031 0.03685616 0.036246102 -0.02038126
000050 a6 f9 10 bc 88 d7 b1 3d 02 2f 0b bd 82 3b 19 3d
       -0.008848583 0.086836874 -0.033980377 0.037410267
000060 0a 5d 19 3d dc cf 32 bb e1 65 17 3d 78 b0 81 3d
       0.037442245 -0.0027284538 0.036962394 0.06332487
000070 7b ce 49 3d d2 37 8b 3d fb 4f 2c bd fa df 7c bd
       0.04926918 0.06797756 -0.042068463 -0.06173704
000080 e4 c7 fd 3c f6 9d 79 3c 7e 94 5c 3c 60 c0 d3 3c
       0.030979104 0.015235415 0.013463138 0.025848567
000090 13 2b f0 bc 91 d8 85 3d 25 7f d3 bc af 05 f7 3c
       -0.029317414 0.065354474 -0.025817463 0.030154077
0000a0 b3 0f 0b 3d 74 6a e9 bc 0a 80 da 3b d1 fa f2 3c
       0.03395052 -0.028493144 0.0066680955 0.029660614
0000b0 23 e9 b6 3c bc 73 be bc 67 1c 9a bc 70 cb be bc
       0.022327965 -0.023248546 -0.018812371 -0.023290366
0000c0 29 bb 37 3c ec ff 8e 3c 63 2e 40 bc dc 4b 1c 3d
       0.011214056 0.017456017 -0.011729809 0.038158283
0000d0 d0 53 5f bd b6 db b9 bc 5a 9a e7 3a 89 49 1d bd
       -0.05452329 -0.022687774 0.0017669902 -0.038400207
0000e0 8f df 23 bd 5b 31 53 bd 23 2d 0c 3d 53 00 31 3d
       -0.040008124 -0.05156074 0.034222733 0.0432132
0000f0 af bb ca 3c 25 58 67 bc 35 17 21 bb ba 73 65 3d
       0.024747698 -0.014120136 -0.0024580483 0.05601857

weight f4 [64]
000000 e7 d8 73 3f 19 48 e0 3f 73 cd ac 3e 1b 19 10 3f
       0.9525284 1.7522002 0.33750495 0.5628831
000010 d2 d5 a6 3f 39 36 46 3f 1a 16 42 3f e0 2c 8f 3f
       1.3034003 0.7742649 0.75814974 1.118557
000020 22 d4 6e 3f 46 13 15 3f 85 98 64 3f bb 94 47 3f
       0.9329244 0.58232534 0.89295226 0.7796132
000030 d1 7f db 3e ad 4c f3 3e 59 4b 5f 3f c9 a1 ac 3f
       0.42870954 0.47519436 0.87224346 1.3486873
000040 bb ba b7 3e 70 c1 3c 3f 6d 8e a3 3f 7a 88 00 3f
       0.35884652 0.7373266 1.277784 0.50208247
000050 4c c8 11 3f aa 5a cb 3f fc 88 2b 3f 85 a6 77 3f
       0.56946254 1.5887043 0.67005897 0.96738464
000060 9e 8b b9 3f ce 9e 68 3f 4e f1 6e 3f 76 c5 8c 3f
       1.4495733 0.90867317 0.9333695 1.099776
000070 43 6d b0 3e a9 84 c9 3f 42 0b 9e 3e 38 06 d9 3e
       0.3445836 1.574361 0.30867964 0.42387557
000080 50 2e 44 3f 74 1c 52 3f 1a 0b be 3f 95 b6 a6 3f
       0.7663317 0.82074666 1.4847138 1.302447
000090 67 be 39 3f a2 4f 36 3f 85 bf 12 3f 96 c4 a1 3f
       0.72556156 0.7121526 0.57323486 1.2638118
0000a0 43 71 99 3f 56 3a 96 3f 5e 58 86 3f 28 e0 da 3f
       1.198769 1.1736553 1.0495718 1.7099657
0000b0 5c 37 50 3f 30 4e ae 3f 31 ce 5f 3f 96 44 11 3f
       0.8133447 1.3617611 0.87424 0.5674528
0000c0 03 f7 63 3f e0 89 75 3f 1b 85 86 3f 59 3f d9 3f
       0.89048785 0.95913506 1.050937 1.6972457
0000d0 be ec 97 3f ca 19 01 3f b7 5a e7 3f c5 89 da 3e
       1.1869123 0.50429976 1.8074559 0.42683235
0000e0 0a d2 9b 3e d8 02 98 3f d4 fa 01 3f a1 8c f6 3f
       0.30433685 1.1875868 0.5077336 1.9261667
0000f0 c3 14 7d 3f 24 d5 9e 3f b1 2c 4a 3f ae 34 fc 3e
       0.98859805 1.2408795 0.78974444 0.4925894

bias f4 [64]
000000 fa 6c 78 bf 03 b4 9f bf 7b 4e c9 be 6e a4 10 bf
       -0.97041285 -1.247681 -0.39317688 -0.565009
000010 86 46 9b bf 22 72 81 bf e7 31 55 bf 3a b9 9f bf
       -1.2130897 -1.0112956 -0.8327927 -1.2478402
000020 ce 66 7c bf 25 0f 51 bf a4 29 6f bf fe a6 a7 bf
       -0.9859437 -0.81663734 -0.93422914 -1.3097837
000030 ef 1d 15 bf 9c 7b f1 be ca 93 66 bf 84 2d a3 bf
       -0.582488 -0.4716462 -0.9006926 -1.2748265
000040 b1 22 e6 be 02 ab 6b bf 66 bc df bf 03 7c 42 bf
       -0.44948342 -0.9205781 -1.747937 -0.75970477
000050 1c 53 04 bf 3d 53 a0 bf 73 48 53 bf ec 69 55 bf
       -0.51689315 -1.2525402 -0.82532424 -0.8336475
000060 d4 90 85 bf 71 cb 8f bf a3 63 77 bf 43 f9 99 bf
       -1.0434823 -1.123396 -0.9663641 -1.2029194
000070 f2 b6 c4 be e7 0f 88 bf 48 5d 7c be 11 f2 0a bf
       -0.38420826 -1.0629853 -0.24644959 -0.54275614
000080 d7 9e 58 bf 15 c1 37 bf 2b b1 67 bf a3 2e d1 bf
       -0.8461737 -0.71778995 -0.9050471 -1.6342357
000090 a9 7e b3 bf 05 1a 8e bf 5a ba 3f bf 0e 2c a8 bf
       -1.4023029 -1.110169 -0.74893725 -1.3138444
0000a0 74 96 a5 bf cd 32 b4 bf 1b bb ac bf 59 c3 91 bf
       -1.293654 -1.4078003 -1.34946 -1.138774
0000b0 97 ba 12 bf da f0 80 bf fc 6e 64 bf a6 97 da be
       -0.57315964 -1.0073502 -0.8923185 -0.42693824
0000c0 80 57 54 bf c1 ac 88 bf 19 45 b2 bf 4b 32 aa bf
       -0.82946014 -1.067772 -1.3927337 -1.3296598
0000d0 73 0f 6c bf d2 05 49 bf 2a 51 ba bf 8f 66 01 bf
       -0.92211074 -0.78524506 -1.4556019 -0.50547117
0000e0 76 8e 94 be 17 24 a8 bf 7d b2 78 be f5 8b c5 bf
       -0.2901494 -1.3136014 -0.24286838 -1.5433336
0000f0 30 be 87 bf 80 bd e0 bf 73 33 60 bf 6b cf 17 bf
       -1.0604916 -1.7557831 -0.87578505 -0.5930087

running_mean f4 [64]
000000 7e 77 f3 c1 82 90 8a c1 fa 8f 62 bf b7 58 1d c1
       -30.433346 -17.32056 -0.8850094 -9.834159
000010 08 df b5 c1 c4 f3 64 c1 65 d7 57 c1 d9 15 9d c1
       -22.733902 -14.309513 -13.490087 -19.635668
000020 68 8e 97 c1 21 52 20 c1 15 9c ba c1 41 e3 82 c1
       -18.944534 -10.020051 -23.326212 -16.360964
000030 4a 92 3a c0 a8 18 66 c1 e6 17 63 c1 c7 7a 8c c1
       -2.9151788 -14.38102 -14.193335 -17.55995
000040 54 b0 e2 40 3a 7f 08 c2 8a b2 c7 c1 0c 7b 40 c1
       7.0840244 -34.124245 -24.962177 -12.030041
000050 f2 17 d6 c1 70 74 f7 c1 bc 07 06 c1 cd cf a8 c1
       -26.761692 -30.931854 -8.376888 -21.101465
000060 32 f5 f4 c1 c9 49 66 c1 fe a9 cd c1 9e 54 be c1
       -30.619724 -14.393014 -25.708004 -23.791317
000070 5d e2 2e c0 71 08 cc c1 c5 ea a2 c1 cf 16 bb c0
       -2.732566 -25.504122 -20.364634 -5.8465343
000080 aa 74 f6 c1 03 20 ba c1 b2 15 15 c2 e4 ff ef c1
       -30.806965 -23.26563 -37.271187 -29.999947
000090 da 4a c7 40 cd 5b 83 c1 75 39 4e c1 63 09 a7 c1
       6.227887 -16.419825 -12.889028 -20.879583
0000a0 da 65 21 c1 d4 9d a9 c1 a8 69 53 c1 c0 e1 da c1
       -10.087366 -21.202065 -13.213295 -27.36023
0000b0 23 a7 c4 c1 bf 27 bd c1 bb 72 59 c1 b4 0a 99 c1
       -24.58161 -23.644407 -13.59051 -19.130226
0000c0 fd 6e a7 c1 00 64 9f c0 34 49 2e c0 4f 49 08 c2
       -20.929193 -4.980957 -2.723218 -34.07159
0000d0 1c 8c f3 c1 2e 17 ff bf 16 16 fb c1 ec 23 7f c0
       -30.443413 -1.9928949 -31.385784 -3.9865675
0000e0 1c bd 71 40 2e fc 8b c1 66 9f 56 c1 39 c3 b5 c1
       3.7771673 -17.498135 -13.413916 -22.720324
0000f0 ec 04 59 c1 30 85 70 c1 d7 7a 57 c1 ee 34 3f c1
       -13.563702 -15.0325165 -13.46749 -11.950422

running_var f4 [64]
000000 c3 0b 7b 43 8e 67 10 44 f2 fc 88 43 8e 8e 5f 43
       251.04594 577.61804 273.97614 223.55685
000010 3a 1c 81 43 ed e8 3c 43 f1 3c 68 43 bf 81 8f 43
       258.22052 188.90987 232.23805 287.01364
000020 54 bf 90 43 32 4b 15 43 59 61 d6 43 76 46 68 43
       289.49475 149.29373 428.76053 232.27524
000030 92 f7 c8 42 10 c5 e8 42 e3 73 be 43 d2 eb a9 43
       100.483536 116.38489 380.90536 339.84235
000040 c4 fb 90 43 3f 93 4d 43 35 51 93 43 88 72 bf 42
       289.96692 205.57518 294.63443 95.723694
000050 c1 80 ac 43 d5 ae d8 43 d8 2b 27 43 9e 85 c1 43
       345.0059 433.36588 167.17126 387.04388
000060 a3 da be 43 25 c8 75 43 6e d6 a3 43 53 eb d0 43
       381.7081 245.78181 327.67523 417.83847
000070 47 29 31 43 02 da 0d 44 a0 68 cf 42 73 34 4f 43
       177.16124 567.4064 103.704346 207.20488
000080 98 61 6b 43 8f 66 57 43 2f 48 c8 43 85 a7 c2 43
       235.38123 215.40062 400.56393 389.30875
000090 c9 36 7c 43 96 6b 06 43 d8 0d 05 43 4e 8e 9d 43
       252.214 134.42026 133.05408 315.11176
0000a0 9d 70 b6 43 c4 bb 96 43 56 ef 8b 43 5b 82 08 44
       364.8798 301.46692 279.8698 546.0368
0000b0 56 42 c6 43 90 bd d1 43 22 39 6f 43 05 b2 7a 43
       396.51825 419.48096 239.22318 250.69539
0000c0 ff c5 a9 43 7d 79 df 43 cc 73 8f 43 99 94 08 44
       339.54684 446.94913 286.90466 546.32184
0000d0 92 24 bf 43 bd a9 22 43 d0 30 10 44 ed c3 25 43
       382.2857 162.66304 576.7627 165.76534
0000e0 59 60 48 43 2a 81 92 43 8e de 81 43 da 9b ec 43
       200.37636 293.0091 259.7387 473.2176
0000f0 82 f4 23 43 9a 39 9f 43 8a dc 7d 43 9d 15 11 43
       163.95511 318.45 253.86148 145.08443

weight f4 [128, 64, 3, 3]
000000 c5 1f 99 3c 08 0a 15 3e 32 0c e8 bd 20 98 94 bf
       0.018691907 0.14554608 -0.11330451 -1.1608925
000010 3d fc 5b be e6 30 e4 bd 5f 9b 3b bf 42 54 ee 3d
       -0.2148294 -0.11142139 -0.7328395 0.11637165
000020 a6 d9 28 bd 60 1f 3f bf 67 a2 de 3e 77 ab f7 bd
       -0.04122319 -0.7465725 0.43483278 -0.12093251
000030 d6 67 52 3e 3d f7 86 be 3d 87 f7 3d 6f dc 60 3e
       0.20547423 -0.26360503 0.120863415 0.21959089
000040 72 1e d1 bd f3 5f 02 bf 42 12 39 3f f6 6f 5a bf
       -0.10210885 -0.50927657 0.72293484 -0.8532709
000050 29 3f fd bd cc 93 8c 3e 6a 5e 81 3e 25 a3 f5 3d
       -0.123655625 0.2745651 0.25267345 0.11994008
000060 aa 5d a6 3e 58 17 01 3f 20 5b 3a 3f ee 90 3e 3f
       0.32493335 0.50426245 0.72795296 0.74439895
000070 03 b6 a2 3c 27 19 54 3e 4f 8c e4 bb 72 c0 f4 3e
       0.01986218 0.2071272 -0.006974734 0.47803074
000080 bf 90 c7 3e 67 12 a7 3e b6 db 0c 3f 3c be 35 3e
       0.3897762 0.32631227 0.5502275 0.1774835
000090 38 83 37 be c2 fe a4 bd 31 bf e8 3e 4d 3a c1 be
       -0.1792115 -0.08056404 0.45458367 -0.37739792
0000a0 03 d5 ee bd 4d 15 b0 be 3c cb ba be 53 a6 d2 bf
       -0.116617225 -0.3439125 -0.3648318 -1.6457008
0000b0 fd e6 66 bf 1b 77 7e 3e 37 fb f3 3e f1 dc e0 be
       -0.9019621 0.24850123 0.476526 -0.43918565
0000c0 b9 4f 75 bf b1 ad 35 bf 49 67 e8 3e 8b b1 7c be
       -0.9582477 -0.7096816 0.453913 -0.24677102
0000d0 81 02 12 be 05 c0 b3 bd 37 47 01 3f cb 98 5f bf
       -0.14258768 -0.08776859 0.5049929 -0.8734252
0000e0 81 a2 9d be 69 6a 07 bf c8 6d 80 be d1 0a 81 be
       -0.30788043 -0.52896744 -0.25083756 -0.25203565
0000f0 2a 12 92 be c5 3b fd be 94 59 53 3e 98 56 a2 be
       -0.28529483 -0.49459663 0.2063964 -0.3170669
000100 46 f7 27 3f 38 c8 df 3e ba 7b b3 3d e0 09 d8 be
       0.65611684 0.43707442 0.08763833 -0.42195034
000110 8d 75 fe bc c1 9d 83 be 16 db 1f bf 0c cb 1d 3f
       -0.031061912 -0.25706294 -0.62443674 0.6163795
000120 74 96 30 3f 19 7a f7 3d d2 f2 a9 be 3e b9 5c bf
       0.68979573 0.12083835 -0.3319307 -0.8622016
000130 2d 7d f4 3e 44 98 94 be 78 b6 13 be af d7 cd bc
       0.47751752 -0.2902242 -0.14425075 -0.02512726
000140 40 aa 56 be 50 e3 a9 bd 9f 48 01 bf 22 f4 c3 be
       -0.20963383 -0.082953095 -0.50501436 -0.38272196
000150 e1 37 8f 3d be e8 9f be b0 d2 91 3e 70 1f 8f 3c
       0.0699308 -0.31232256 0.28481054 0.017471045
000160 29 c9 82 be 17 43 03 3d b0 7f 3c 3e 66 7f 53 3e
       -0.25544098 0.032046404 0.18408084 0.20654067
000170 6d 4d 3f be c0 bb f1 3e 7e 65 95 3e 3e 62 54 3f
       -0.1868188 0.47213554 0.29178995 0.82962406
000180 32 21 d1 bd 1d a3 8f bd c4 5e 28 3f 50 4d 1a 3f
       -0.1021141 -0.07013533 0.657696 0.6027422
000190 e4 4c 43 be 3a d5 6f be 00 4e 4c be bd d4 08 3e
       -0.190723 -0.23421183 -0.1995163 0.13362403
0001a0 b6 b0 58 bf 64 b2 42 bf a7 17 a7 bd 2e 3b aa be
       -0.8464464 -0.7605345 -0.08158808 -0.33248276
0001b0 7a 3d 2c be f5 82 48 3e 85 89 e9 be ac f7 39 bf
       -0.16820326 0.19581206 -0.45612732 -0.7264354
0001c0 48 15 25 be 57 04 7c 3e e8 4b 44 3d a5 8f 8e bd
       -0.161214 0.2461103 0.047923952 -0.06960992
0001d0 d9 35 6c 3d 87 b3 28 3f b0 b2 c8 bc 06 db 4c be
       0.05766854 0.65898937 -0.024499267 -0.20005426
0001e0 69 d7 c5 be 0a 8f b2 3d b5 d2 80 bd 5f 05 90 bc
       -0.38640907 0.08718689 -0.06290189 -0.017580686
0001f0 6e f2 20 bc 80 e1 12 bf 0c e4 47 3e 41 43 8a be
       -0.009823425 -0.57375336 0.19520587 -0.27004436
000200 fe 80 04 3f 39 af 33 be cf 78 59 bf f1 4f 3e bf
       0.51759326 -0.17547311 -0.84949964 -0.7434073
000210 96 77 63 bd 58 1a 66 be 57 f6 66 bd 99 be bb 3e
       -0.055533968 -0.22470987 -0.05638727 0.36668852
000220 70 95 39 bf 0f 4c f1 be 08 7a 14 be a6 06 82 be
       -0.7249365 -0.4712834 -0.14499676 -0.25395697
000230 df ff 1c bf 2a d4 c0 be 46 15 24 bf c3 f8 18 3f
       -0.6132793 -0.37661868 -0.6409496 0.5975458
000240 d6 2d 3c 3f 26 1d 55 bf 49 01 00 bf 22 48 a9 bd
       0.7350744 -0.832476 -0.5000196 -0.08265711
000250 11 d3 1e 3f 49 d7 6c 3e 86 48 30 3f c0 bd 85 be
       0.6204081 0.23129 0.6886066 -0.2612133
000260 0b 40 11 3f 50 2f 1a 3f fb 94 05 bd 71 13 e2 3e
       0.56738347 0.60228443 -0.032612782 0.44155458
000270 eb 18 62 be c3 37 44 3d b7 51 e5 3e a7 8b ca bd
       -0.22079818 0.04790474 0.44788906 -0.09889918
000280 9a c0 58 3e a1 be 47 bd d5 24 f2 3e 45 64 d1 bb
       0.21167222 -0.048765782 0.47293726 -0.006390127
000290 b2 84 a4 be 7b ce b0 3d 65 34 1b bf b2 b4 b7 be
       -0.32132488 0.08633133 -0.6062682 -0.35880047
0002a0 8f 6c 41 3e 35 9c a9 3e cd 29 c2 3e f7 cb 0f 3f
       0.18889068 0.3312699 0.37922516 0.561706
0002b0 ef d5 a8 be 18 b3 f1 bd a5 e8 8a be 81 77 9c 3e
       -0.32975718 -0.118017375 -0.2713062 0.30559924
0002c0 ee 2a 91 3e af 8b c9 3d dc 68 8c bd 23 88 0c be
       0.28353065 0.09841096 -0.06855938 -0.13723807
0002d0 b2 1d 0b 3f 95 f3 86 3e f5 f3 25 bd 9c 8c 98 be
       0.54342186 0.26357713 -0.04051586 -0.29794776
0002e0 73 1b 92 3d 32 fc 81 3e 90 3b 1d 3f 79 9d 0e bd
       0.07134142 0.25387722 0.6141901 -0.034818146
0002f0 b5 bd 4f bd 31 bb ee bf 8a ee 8d bf 03 fc 0b be
       -0.050718028 -1.8650876 -1.1088421 -0.13670354
000300 24 a5 ac 3c 62 a1 1e bf 23 08 87 bf b2 a4 95 be
       0.021074839 -0.61965 -1.0549358 -0.29227215
000310 65 4e 20 3f 65 87 67 3d 92 85 bc 3d 0d df 92 bf
       0.6261962 0.056525607 0.09205164 -1.147432
000320 71 cd 0c 3d 8d 92 26 3e 58 11 ca 3e 59 3d 88 3e
       0.03437561 0.16266842 0.39466357 0.26609305
000330 3f 1b 2c 3e 40 4f bc 3e 12 21 e8 3d 6c 46 79 3e
       0.16807269 0.36779213 0.11334433 0.2434327
000340 19 b4 38 3c 90 c7 35 3e 16 7f 73 3e 5e 4f f2 3d
       0.011273407 0.17751908 0.23778948 0.11831544
000350 c2 dc da be d2 f2 34 3d 54 d2 cf be 5d 30 44 be
       -0.4274655 0.044176884 -0.40590155 -0.19159074
000360 0b 31 20 be c9 4b 5e 3f 11 70 31 3e 55 80 ef be
       -0.15643708 0.8683439 0.17327906 -0.46777597
000370 fc 1f d7 3d af f9 14 bf d4 c2 0a be c6 e8 7c 3d
       0.105041474 -0.58193487 -0.13550884 0.061745428
000380 72 f5 32 3f b1 f3 27 3e 5b 86 41 be 15 25 1f bf
       0.6990577 0.16401555 -0.18898909 -0.6216596
000390 ef 7a 68 be f2 d4 b6 bc 62 7b 1e bf 32 eb 19 3d
       -0.22703145 -0.022318337 -0.6190702 0.037577815
0003a0 92 b0 cf be d6 a6 a2 be 6b 39 4d bd 74 44 d0 3e
       -0.405644 -0.3176791 -0.050103586 0.40677226
0003b0 f3 1c 6f be aa bb be be 26 bf 54 3e f9 92 7e 3e
       -0.23350887 -0.3725255 0.20776042 0.24860753
0003c0 82 17 23 bf 15 7e c5 be 14 d4 12 3f dc 3b 85 be
       -0.63707745 -0.38572755 0.57354856 -0.26022232
0003d0 db bc a0 3e dc 2d be 3e 44 a5 11 bf e5 d1 9c 3e
       0.31394085 0.37144363 -0.568928 0.30628887
0003e0 9c b8 1f be 49 c9 49 be d2 c8 80 3d 98 c8 99 ba
       -0.15597767 -0.1970569 0.062883034 -0.0011732755
0003f0 55 f7 61 3e 33 16 cf be 91 d5 60 be 83 28 55 be
       0.22067006 -0.40446624 -0.21956469 -0.20816235

bias f4 [128]
000000 df e3 2a 3c 71 e2 13 bd b0 c8 f8 ba c8 99 67 bc
       0.010430305 -0.036104623 -0.0018980708 -0.014135785
000010 00 9f 4f bc 2b f4 84 3c 97 5e 3a bc 65 2d 22 3d
       -0.012672186 0.01622971 -0.011375091 0.039594073
000020 69 05 d7 3c 70 ba 07 3c b7 94 d5 bc 1a f6 53 bd
       0.026247697 0.008284196 -0.02607189 -0.051748373
000030 36 b6 0b 3c 11 84 8c 3a 70 ee 5d bd 8b 44 08 3d
       0.008527329 0.0010720511 -0.05418247 0.033268493
000040 51 3f 78 3c 37 ad 01 3d 77 d1 19 bd 6e 0c 36 3d
       0.015151815 0.03165933 -0.037553277 0.044445448
000050 ee 65 03 bc be f1 42 bc e1 e1 e8 3c 86 2e cb b9
       -0.008019907 -0.011898456 0.02842802 -0.0003875384
000060 27 e7 81 bc fa ea 8c 3c 7c d1 d5 bc a1 a0 e3 3c
       -0.015857292 0.01720189 -0.026100866 0.027786555
000070 64 c0 70 3c d6 cd d9 3c fd e1 fe 3b 1c 69 1f bd
       0.014694307 0.026587408 0.0077784047 -0.0389186
000080 6c 0c 23 3d df 61 61 bd 9b 8a 05 bd 09 f7 41 3c
       0.03980677 -0.055024978 -0.032602888 0.011838683
000090 1c 7e 82 3b 91 0a b5 3c 62 88 40 bd 2b b0 38 bc
       0.0039823186 0.022099765 -0.047005065 -0.0112724705
0000a0 bb e8 55 3d ca 8d 00 3d 35 b1 1b bd da 4d ee bb
       0.052223902 0.03138522 -0.038010795 -0.007272464
0000b0 c0 3e e7 bc b4 12 14 3d 8d e5 86 bc 9b 77 34 3d
       -0.028228164 0.03615065 -0.01646688 0.044059377
0000c0 bc 61 10 3d ce 0b 23 3d 29 d1 71 3d 7a 9b 01 3d
       0.035249457 0.03980618 0.05903736 0.031642415
0000d0 72 ff 89 bd 03 5e 48 3c bd d7 12 bd 92 c1 c7 ba
       -0.067381755 0.012229445 -0.035850275 -0.0015240184
0000e0 fe 88 3f bd f3 57 67 bb ff 04 4a 3d 2c 46 27 3d
       -0.046761505 -0.0035300225 0.04932117 0.040838405
0000f0 80 83 95 3c 37 88 0b 3d 4a c4 91 bc 94 a7 f5 3c
       0.01825118 0.03406545 -0.017793793 0.029987134
000100 aa c0 25 bd 72 b8 af 3c 1a b5 0b bc 69 8d d1 bb
       -0.040466942 0.021450255 -0.008527065 -0.006395031
000110 a4 29 9c 3c e7 12 39 bc ba 2d cb bc 43 d7 e0 b8
       0.019062825 -0.011296011 -0.024802078 -0.00010721248
000120 70 aa c7 bc 38 da 34 3c d2 a6 d9 bb 0f 47 df bc
       -0.024373263 0.0110383555 -0.006642201 -0.027255563
000130 49 f0 82 3c 13 81 b6 3b b6 c2 2a 3c 13 5b 4c 3d
       0.015983718 0.005569586 0.010422399 0.049891543
000140 cb 44 94 bc bc dd 47 bd 16 f9 60 bc 77 c3 b1 bc
       -0.01809921 -0.048795447 -0.013731262 -0.02169965
000150 56 63 36 3d de 2b e0 bc 5c cb a7 bc 6d f7 38 bd
       0.044528328 -0.027364668 -0.020482711 -0.04515784
000160 ed 98 2f 3d c3 d8 5c bc 41 c1 4f 3d 03 d5 14 bc
       0.04287045 -0.013479414 0.05072141 -0.009083989
000170 cf e7 c5 3c 73 cc 44 3c 11 f9 a0 3c 80 00 8a 3c
       0.024158387 0.012011635 0.019650014 0.016845942
000180 99 e2 77 3c 7c c1 9c 3c c7 b4 e6 3b 26 5a e0 bc
       0.015129709 0.01913523 0.0070405933 -0.027386736
000190 77 21 7a bc c5 f3 02 3d bf a9 3b bd 64 ea 40 3d
       -0.015266768 0.031970758 -0.04581618 0.047098532
0001a0 bd 50 9f bc 71 66 ee 3c 53 2a 25 3d 06 5b 64 bd
       -0.019447679 0.029101582 0.040323567 -0.05575087
0001b0 aa 7b 32 3c eb 32 71 bd c7 5a 1e bc 64 6f 33 3d
       0.010893742 -0.05888645 -0.009665198 0.043807402
0001c0 d1 0c d5 bc ce c3 df 3a b5 3f 95 bc af 58 4b bb
       -0.026007088 0.0017071904 -0.018218854 -0.0031028201
0001d0 10 0a 9b bb d9 d3 d0 bc 87 da 19 3c 7a 38 7c bc
       -0.004731424 -0.025491642 0.00939048 -0.015394324
0001e0 d8 88 02 3d d0 9a 7e b9 d2 39 1a bc 69 7d 49 ba
       0.031868786 -0.00024281 -0.0094131995 -0.0007686229
0001f0 94 a7 61 3d b1 0c 77 3d f9 0e 62 3c d4 49 e2 bc
       0.055091456 0.060314838 0.013797515 -0.027623095

weight f4 [128]
000000 b3 c6 46 3f 53 7a 4d 3f c9 c9 2b 3f b0 4a 2d 3f
       0.7764694 0.80264777 0.67104775 0.6769209
000010 a0 71 7c 3f 5d 14 68 3f 07 b0 4c 3f 0f 3f 7b 3f
       0.9861088 0.9065607 0.79956096 0.98143095
000020 72 f8 47 3f 2d 94 41 3f 13 95 56 3f 15 d0 4c 3f
       0.7811347 0.75616723 0.8382122 0.8000501
000030 24 a4 2b 3f ea 67 50 3f 80 b2 4e 3f d6 46 53 3f
       0.67047334 0.8140856 0.8074112 0.8252996
000040 6a 61 4c 3f b0 f1 4d 3f 9c ea 36 3f 4d 69 3f 3f
       0.7983614 0.8044691 0.71451735 0.7477005
000050 95 50 78 3f 70 95 67 3f 86 cd 20 3f 4e f9 4a 3f
       0.9699796 0.904624 0.62813604 0.7928666
000060 5a 35 56 3f cf f5 4f 3f c9 8f 4d 3f fb 32 6a 3f
       0.8367516 0.8123445 0.80297524 0.9148404
000070 07 9e 3a 3f 07 df 20 3f 99 d7 5a 3f 34 9b 3f 3f
       0.7289738 0.6284031 0.85485226 0.74846196
000080 bf 60 66 3f 78 c3 47 3f 6f df 4b 3f 15 02 3f 3f
       0.8999137 0.78032637 0.7963781 0.7461255
000090 b8 07 49 3f b6 37 5a 3f ab a0 3d 3f e6 06 26 3f
       0.785274 0.8524126 0.74073285 0.64854276
0000a0 86 d2 62 3f 1c 17 71 3f 15 d0 4c 3f 54 a4 76 3f
       0.88602483 0.9417589 0.8000501 0.96344495
0000b0 4f 5e 62 3f 91 27 2f 3f 38 4b 80 3f f6 3c 61 3f
       0.88425153 0.6841975 1.0022955 0.87983644
0000c0 6c 16 2d 3f b1 98 60 3f c9 13 82 3f ad 0a 3a 3f
       0.6761234 0.8773299 1.0162288 0.7267254
0000d0 7f 57 20 3f c8 3c 4a 3f d4 2d 46 3f db bc 28 3f
       0.6263351 0.78998995 0.7741368 0.6591317
0000e0 c2 40 61 3f 1d 31 41 3f f2 a1 3f 3f 1a e6 66 3f
       0.8798944 0.75465566 0.74856484 0.9019486
0000f0 d8 80 2e 3f 05 7c 2b 3f 63 e6 1f 3f 45 ef 54 3f
       0.6816535 0.66986114 0.6246092 0.83177596
000100 6f 12 44 3f 4b 97 57 3f d9 b8 61 3f d0 a7 3e 3f
       0.7659063 0.8421523 0.8817268 0.7447481
000110 0d fb 42 3f dc 29 3c 3f 74 b4 4a 3f 48 ff 2e 3f
       0.76164323 0.7350137 0.791816 0.6835828
000120 5e 41 43 3f f5 29 64 3f 8f 14 3a 3f d3 11 4c 3f
       0.7627162 0.8912652 0.7268762 0.797147
000130 73 6f 5b 3f 4b cd 5e 3f 50 ae 58 3f f8 7b 3f 3f
       0.85716933 0.87032 0.8464098 0.74798536
000140 e6 35 57 3f 49 b4 58 3f f0 51 6a 3f eb 47 7e 3f
       0.8406662 0.84650093 0.91531277 0.9932849
000150 f9 5c 84 3f 0f d7 5d 3f 33 81 41 3f 44 9d 5b 3f
       1.0340873 0.8665628 0.7558777 0.85786843
000160 64 5e 5d 3f 07 5e 4d 3f f0 32 4e 3f 54 21 36 3f
       0.86472154 0.802216 0.80546474 0.71144605
000170 66 d0 64 3f 2b ff 3a 3f d2 8b 73 3f 4f ad 41 3f
       0.8938049 0.73045605 0.95135224 0.7565507
000180 09 49 3f 3f 17 c1 53 3f 64 03 4f 3f a9 d6 70 3f
       0.7472082 0.82716507 0.8086455 0.94077545
000190 f5 e1 44 3f 0c 19 55 3f 18 5f 28 3f ce 4a 65 3f
       0.76907283 0.83241343 0.657701 0.8956727
0001a0 7b 6e 43 3f 3e be 66 3f 67 17 2e 3f 2d 9c 79 3f
       0.76340455 0.90134037 0.6800446 0.9750393
0001b0 fe e6 28 3f 5b 43 26 3f 1c 84 5b 3f 61 cf 4a 3f
       0.65977466 0.64946526 0.8574846 0.79222685
0001c0 42 eb 3e 3f 70 b4 50 3f e6 2c 7e 3f df 00 28 3f
       0.74577725 0.81525326 0.9928726 0.6562633
0001d0 4e 26 4a 3f 71 b6 4b 3f 48 80 58 3f df 0d 18 3f
       0.789647 0.7957526 0.8457074 0.59396166
0001e0 d7 e6 4d 3f 87 7a 3e 3f 0e e6 43 3f 4f be 62 3f
       0.8043036 0.7440571 0.7652291 0.8857164
0001f0 ee 43 4f 3f b7 8f 44 3f 7c dd 34 3f 3d 1c 3e 3f
       0.8096303 0.7678179 0.7065046 0.7426184

bias f4 [128]
000000 61 52 98 bf f3 4b a9 bf 08 2a 8f bf 20 09 66 bf
       -1.190014 -1.3226303 -1.1184702 -0.89857674
000010 77 ae a7 bf 9f 4d 7f bf 93 56 82 bf 7a bc 72 bf
       -1.3100117 -0.99727815 -1.018267 -0.9481884
000020 36 73 b0 bf 71 f9 6e bf 8a 55 5d bf 68 0c 8b bf
       -1.378516 -0.9334937 -0.8645865 -1.0863161
000030 79 bb 9e bf 37 4a 9b bf cf bf 8d bf 01 37 7f bf
       -1.2400962 -1.2132024 -1.107416 -0.99693304
000040 85 5a 93 bf 34 f4 93 bf 6e 31 8c bf c1 4f b1 bf
       -1.1511999 -1.15589 -1.0952585 -1.3852464
000050 f3 4a 90 bf 7d b4 8e bf d6 c4 96 bf c1 8a 61 bf
       -1.1272873 -1.1148831 -1.177882 -0.88102347
000060 3f eb 98 bf 22 7f ae bf 17 f1 92 bf 4b 01 9f bf
       -1.1946791 -1.3632548 -1.1479825 -1.242227
000070 8a a0 97 bf 02 57 89 bf 9b f8 92 bf 90 2a 65 bf
       -1.1845868 -1.0729678 -1.1482118 -0.8951807
000080 f0 9f 65 bf a5 2c 8d bf fc d9 56 bf d5 c7 84 bf
       -0.8969717 -1.102925 -0.8392637 -1.0373484
000090 4e ef 92 bf fa 12 80 bf 0c aa 61 bf fa 65 b3 bf
       -1.147928 -1.0005791 -0.88150096 -1.4015496
0000a0 0e 91 7f bf 92 0d a7 bf 23 c6 9d bf 46 ca 84 bf
       -0.9983071 -1.3051016 -1.2326092 -1.0374229
0000b0 6e 73 94 bf bc 38 a3 bf ad a4 a5 bf 82 7c 7f bf
       -1.1597726 -1.2751689 -1.294088 -0.9979936
0000c0 38 ac 9b bf 1a 0e 82 bf 4b 64 8e bf 6b ce 69 bf
       -1.2161932 -1.0160553 -1.1124357 -0.91330594
0000d0 28 14 7f bf 33 22 b8 bf ef cf 87 bf 91 43 96 bf
       -0.9964013 -1.4385437 -1.0610331 -1.173937
0000e0 9e 4a 88 bf 18 83 8d bf db 8b 94 bf 44 5b 9b bf
       -1.0647771 -1.1055632 -1.160518 -1.2137227
0000f0 ac 8a 65 bf 88 4d a9 bf 98 d9 93 bf e3 c0 88 bf
       -0.8966472 -1.3226786 -1.1550779 -1.0683864
000100 40 52 8f bf 55 08 a1 bf 3e 0f b6 bf 19 29 53 bf
       -1.1196976 -1.2580668 -1.4223402 -0.82484585
000110 54 22 74 bf d2 98 7c bf 7d 5c 65 bf cd 5b a6 bf
       -0.9536488 -0.98670685 -0.8959425 -1.2996765
000120 a2 35 93 bf 90 92 87 bf 6f eb 81 bf 9e 0d 6b bf
       -1.1500742 -1.0591602 -1.0149974 -0.91817653
000130 4e f8 80 bf 20 38 89 bf 63 71 aa bf e1 37 9a bf
       -1.0075777 -1.0720253 -1.3315853 -1.2048303
000140 5a 84 b4 bf 42 5f a7 bf 9d 38 9d bf 89 fd a4 bf
       -1.410289 -1.3075945 -1.2282902 -1.2889873
000150 ce aa 94 bf 71 dd 87 bf f7 2e 8e bf e9 c5 a7 bf
       -1.1614625 -1.0614454 -1.1108083 -1.3107272
000160 a6 ac 7e bf 39 a5 93 bf aa 18 be bf d4 b9 6e bf
       -0.9948219 -1.1534797 -1.4851277 -0.932523
000170 03 d2 93 bf 4a db 6a bf 5d 54 90 bf 0a cc b5 bf
       -1.1548465 -0.9174086 -1.1275746 -1.4202893
000180 fd 5b 63 bf b2 86 8f bf 3c 0b b1 bf 34 dd 71 bf
       -0.8881224 -1.1212981 -1.3831553 -0.94478154
000190 3e 57 92 bf 50 4f 74 bf 94 cc a4 bf 2d fd 9a bf
       -1.1432874 -0.9543352 -1.2874932 -1.2108513
0001a0 0c 3f b0 bf 19 26 8f bf 1c f4 97 bf 98 17 69 bf
       -1.376924 -1.1183501 -1.1871371 -0.91051626
0001b0 01 ef 9e bf 3d 38 85 bf 1c b8 50 bf ea 1f 97 bf
       -1.2416688 -1.0407788 -0.8153093 -1.1806614
0001c0 bc ea 9c bf 6f 8b 82 bf 6d 60 8b bf c9 d0 9f bf
       -1.2259135 -1.0198802 -1.0888802 -1.2485591
0001d0 29 f0 60 bf 7a 80 8d bf e7 f2 8a bf ec 9d 60 bf
       -0.87866455 -1.1054833 -1.0855378 -0.8774097
0001e0 48 f2 34 bf 03 01 71 bf de ca a7 bf 2d a4 87 bf
       -0.7068219 -0.9414217 -1.3108785 -1.0596977
0001f0 87 cc 47 bf 3f cc 99 bf 12 bb 98 bf 90 eb 7d bf
       -0.7804646 -1.2015456 -1.1932089 -0.99187565
