workplace/wav_emotion/model_a.pt (torch, 421835 bytes, 26 tensors)

weight f4 [16, 1, 3, 3]
000000 4b 87 3c 3e 88 87 69 bf d0 be 06 bf 93 0c 92 3f
       0.18410985 -0.9122243 -0.52634907 1.1410087
000010 89 83 a0 be 49 34 82 3f 0d 68 36 3f 96 19 a1 3d
       -0.31350353 1.0172206 0.7125252 0.07866208
000020 96 9c 58 3e 58 95 44 3e 15 ed 4d 3e 9d 5e 86 3e
       0.21153483 0.19197595 0.20109971 0.2624406
000030 a4 83 b3 3e e3 7d ce 3e df e0 b1 3e 8e 2d ad 3d
       0.3506137 0.4033042 0.34741876 0.084559545
000040 79 08 0e 3e e2 f8 3e 3e 1e 75 34 3b 3b 61 b6 3f
       0.1387042 0.18649629 0.0027535628 1.4248422
000050 f7 c4 58 3f 84 82 b7 be 44 ee 5a 3f 7a ff c0 3e
       0.84675545 -0.35841763 0.85519814 0.37694913
000060 9a d7 0e bf 43 1f 23 3f 90 90 87 3e 35 a9 6b 3f
       -0.5579773 0.63719577 0.2647748 0.92055064
000070 08 2d 51 3f af 43 9a 3f 31 f6 1b be 85 65 c1 3c
       0.8170934 1.2051905 -0.15230633 0.023607979
000080 1e 36 cb 3d 6e 95 be be 4e 8a 85 be 49 95 66 3e
       0.099224314 -0.3722338 -0.2608208 0.22517885
000090 24 a3 88 3f 1f 94 d1 3e cf 04 70 bd 4b 9a a3 3f
       1.0674787 0.4093332 -0.058598336 1.2781461
0000a0 14 8b 2d 3f 3c c5 2c be 82 51 7c 3f fa 03 2a 3e
       0.6779034 -0.16872114 0.9856187 0.1660308
0000b0 0d 32 cf be 8a ea 5f bf 8a 69 a9 be 05 69 2e bf
       -0.40467873 -0.87467253 -0.33088332 -0.68129
0000c0 67 c6 91 3c 61 8f 4d 3e e7 a7 3d bf f0 8a 7f bf
       0.0177948 0.20074226 -0.74084324 -0.99821377
0000d0 ff 82 fe be 3c db b1 bf 00 b6 0f 3f 35 f5 bb 3f
       -0.49709317 -1.389503 0.56137085 1.4684206
0000e0 8b 7c 2a 3f 83 6c b9 bd 1a 4f bb 3f db 13 31 3f
       0.6659629 -0.090539 1.4633515 0.6917092
0000f0 ed 57 e2 be 92 db 8a 3f 75 db 00 3f b2 90 c3 be
       -0.44207707 1.0848258 0.50334865 -0.3819633
000100 7a e6 42 bf 7d 1e 6e bf ca 72 17 be 3f 87 1d bf
       -0.7613293 -0.9301527 -0.14789882 -0.61534494
000110 db db fb be e1 99 02 bf 87 26 32 bf 0a 57 38 bf
       -0.49191174 -0.5101605 -0.6959004 -0.7200781
000120 7d 24 0c 3f d1 e7 24 40 e4 f6 32 3f 9e da a3 be
       0.54743177 2.576649 0.69907975 -0.3200273
000130 59 fb 85 3f bb a0 1c 3c b7 97 fe be 33 cf 36 3f
       1.046733 0.0095598055 -0.49725124 0.7140991
000140 85 82 0e be 16 47 c0 be df e3 a4 3e ab 7f 5e bf
       -0.13916977 -0.37554234 0.32205102 -0.86913556
000150 87 67 e9 3d 60 61 24 3e 9a b5 7f bf 15 14 3b bf
       0.113966994 0.1605277 -0.99886477 -0.7307752
000160 7b e0 ed 3c bf 41 9b bf af d7 9f be 06 8d 11 bf
       0.029037705 -1.2129439 -0.3121924 -0.5685581
000170 f7 1e 3e bf b5 31 69 3e c3 6e 87 3e 57 2c 22 bf
       -0.74266 0.22772868 0.26451692 -0.6334891
000180 fd 8f 38 bf b5 7f 0d bf 5b 9c c3 bf 66 08 c1 3e
       -0.7209471 -0.5527299 -1.5282091 0.3770172
000190 f7 37 1c 40 a5 10 6f 3f 16 b7 b6 3d e7 9b 89 3f
       2.4409158 0.9338477 0.089216396 1.0750703
0001a0 d4 91 f0 3d ef d3 38 bf 28 31 5f 3f 59 d4 e2 3d
       0.117465645 -0.72198385 0.8718438 0.11075658
0001b0 da 07 fc 3d 5e 63 bc 3f bb b8 02 3f 20 8f a1 3d
       0.12306185 1.4717824 0.51063126 0.07888627
0001c0 de a3 05 40 8d b0 38 bd ef 93 2e bf ca 2e 9f 3f
       2.0881267 -0.045090247 -0.6819448 1.2436154
0001d0 18 ca 5f 3e 67 45 32 be 4f 3e 4e 3e d6 e0 c3 bf
       0.21854436 -0.17409287 0.20140956 -1.530299
0001e0 0d 66 4a be 24 a5 65 3e 1e 19 13 bf d7 01 7c bf
       -0.19765492 0.22426277 -0.574602 -0.9844031
0001f0 ba e1 db be ba 20 ae bf 13 8e 5f bf 65 b9 53 bf
       -0.42945653 -1.3603737 -0.87326163 -0.82704765
000200 41 cc 12 bf 60 fc 98 3f 49 6a 8b bc a4 97 32 3f
       -0.57342917 1.1952019 -0.017018454 0.69762635
000210 58 ad a1 3f d7 5e 4a 3f 21 c4 87 3e 24 1e ef 3e
       1.2631025 0.79050964 0.26516822 0.46702683
000220 e8 c7 40 be ba 72 88 be 45 30 b5 3d 13 e6 ab bf
       -0.18826258 -0.2665003 0.08847097 -1.3429588
000230 06 2c f7 be 43 6f ac 3e c4 d7 f8 bf c2 ed 06 bf
       -0.48275775 0.33678636 -1.9440846 -0.5270654

bias f4 [16]
000000 67 27 50 3d 32 75 c4 3e 5b 44 52 3e ff fb 0f 3e
       0.050818827 0.38370663 0.20533888 0.14060973
000010 74 a8 94 3d 23 7d 75 3e 91 90 12 bd 39 df fe 3d
       0.072586924 0.23973517 -0.0357824 0.1244492
000020 f9 0f 98 be d8 cd 11 3f 62 95 fe bd 0e 6d 5c be
       -0.29699686 0.5695472 -0.12430836 -0.21525976
000030 30 3e b5 3e 23 a0 0f be 99 e7 65 3f 00 e9 fd be
       0.35399008 -0.14025931 0.89806515 -0.49591827

weight f4 [16]
000000 92 e8 c9 3f 9f 8f a6 3f c5 31 d3 3f bf 58 a3 3f
       1.57741 1.301258 1.6499563 1.2761458
000010 e1 38 e3 3f d0 9b c4 3f 3f 30 d7 3f f0 b8 dd 3f
       1.7751733 1.536005 1.6811599 1.7322063
000020 f6 e1 e0 3f 5b c8 db 3f 48 c4 c2 3f fc 78 19 40
       1.7568958 1.7170519 1.521615 2.3980093
000030 4a fe b9 3f 65 64 de 3f f9 22 aa 3f f7 30 c5 3f
       1.4530728 1.7374388 1.3291923 1.5405568

bias f4 [16]
000000 3e 5c 86 be ee 97 82 be 75 30 84 be 80 95 20 be
       -0.2624225 -0.25506538 -0.2581822 -0.1568203
000010 36 58 56 be c3 c2 ab bd 3b 5a 94 be c7 f7 02 be
       -0.20932087 -0.08386757 -0.2897509 -0.12789832
000020 0f 9d c7 be 13 b3 88 be 1b 96 2c be 3b 1b 6b be
       -0.38987014 -0.26699123 -0.16854136 -0.22959606
000030 79 63 83 be b9 d9 1e be 2e 17 ef bd 7e f7 0a 3d
       -0.2566183 -0.15512742 -0.11674343 0.033927433

running_mean f4 [16]
000000 5b e2 82 3d 7f f4 c9 3e 60 7e 5c 3e c3 7a 1f 3e
       0.0639083 0.39444348 0.21532583 0.15574174
000010 b7 6b d9 3d e2 66 53 3e d3 1a 00 3c 8f c9 b8 3d
       0.10616248 0.20644715 0.007818895 0.09022819
000020 5a 43 88 be 3f 07 0d 3f e4 75 2c be dc 92 40 be
       -0.26613885 0.5508918 -0.16841847 -0.18806022
000030 d7 3e c3 3e aa 4a 38 be ab e0 67 3f 1d bd 03 bf
       0.3813388 -0.17997232 0.9057719 -0.5146044

running_var f4 [16]
000000 5e 46 50 40 9a 26 88 40 6e 7f 43 41 bd cd c0 40
       3.2542949 4.254712 12.218611 6.0251145
000010 f9 de 74 41 dc 1f cd 41 d0 e8 02 42 5f 9c c9 41
       15.304437 25.640556 32.727356 25.201353
000020 eb e1 ab 41 16 2e 39 41 fe 4d 99 41 21 3f da 41
       21.485312 11.573751 19.163082 27.280825
000030 bb 8d c1 41 7d 95 ac 41 8d a5 8f 40 ef 60 60 41
       24.194204 21.572992 4.488959 14.023665

weight f4 [32, 16, 3, 3]
000000 6e c4 8f be c0 d6 44 3f 74 8c 1d 3f a3 07 01 3f
       -0.2807955 0.7689018 0.6154244 0.5040228
000010 ca 11 c3 be 0e d1 b8 be d3 c1 5b 3e dd 9d 14 be
       -0.3809951 -0.36096996 0.21460657 -0.14513345
000020 d0 3e cd 3d 2c a8 d6 3d e5 a4 9b 3f a8 54 62 be
       0.10021746 0.10481295 1.2159697 -0.22102606
000030 0e cf a0 3d 69 fa 0f 3f 9a 24 0f bf 68 f7 14 3f
       0.078519925 0.5624147 -0.55915225 0.5819001
000040 8a 8c 93 bc f4 5a 42 3e 2b 32 6c 3d d2 ff d6 3a
       -0.01801135 0.18980008 0.05766503 0.0016403145
000050 01 f8 bc bc 21 bb 85 3e e4 c3 51 3e 0e 7c cb 3e
       -0.023067476 0.2611933 0.20484883 0.39743084
000060 b9 4c d5 bd be 60 78 3f 24 a0 97 be c2 8b 2a be
       -0.10415024 0.97022617 -0.29614365 -0.16654876
000070 61 55 06 3f 3a 59 59 3d 82 d6 39 3f 8a f1 87 3e
       0.5247403 0.05306361 0.7259294 0.26551467
000080 4d 3b b5 be fa 4d 1a 3f 07 a7 74 3d e5 76 00 be
       -0.35396805 0.6027523 0.059729602 -0.12545355
000090 6a 4e 67 3e 60 f9 a5 ba 24 38 9f 3e 41 c1 1b 3f
       0.22588506 -0.001266282 0.3109752 0.6084176
0000a0 6e d1 af 3f cd 61 2a 3e c5 ff 8b 3e 17 10 f1 3f
       1.3735788 0.1663887 0.27343574 1.8833035
0000b0 69 15 ce be 71 af 0f be c8 db 27 be 9c b3 33 be
       -0.4025071 -0.1403177 -0.16392434 -0.17548984
0000c0 b0 f9 a0 3d fc c4 e1 3b a5 a4 8d 39 5b bb c3 bd
       0.07860124 0.0068899374 0.00027016285 -0.095572196
0000d0 4a b4 e3 bc 05 22 08 3e cf cc 01 3e bf 45 f3 3e
       -0.02779593 0.13294227 0.12675785 0.4751415
0000e0 58 e9 07 3f 18 62 06 bf a5 de 4f be 99 65 c6 3f
       0.5309043 -0.5249343 -0.20299776 1.5499755
0000f0 f5 31 13 be 55 9e 32 3f 16 b5 08 3f 87 b7 9e bd
       -0.14374526 0.69772846 0.53401315 -0.07749849
000100 07 7a 57 3c 56 3e 49 bd fd b8 09 be 8a c6 9c 3d
       0.013151652 -0.049131714 -0.13449474 0.07655056
000110 d3 d0 16 3e 77 53 0f 3c b0 51 6d bc 7b 1d 46 3e
       0.14728098 0.008747927 -0.014484808 0.19347183
000120 67 d8 1a bf 36 7a 64 3e 54 27 42 bf cb 61 64 3f
       -0.60486454 0.22312245 -0.7584126 0.8921172
000130 f9 93 2d bf 23 3b 8b 3f 14 34 7a 3f 9c ce a7 3f
       -0.67803913 1.0877422 0.97735715 1.3109927
000140 01 bb 40 3f c5 7b 06 bc 8e 90 14 be 4f 66 2d bd
       0.75285345 -0.00820822 -0.14508268 -0.042333897
000150 d5 2f 11 3e 1c 68 5d 3e e1 88 39 3b 66 2a c9 3d
       0.14178403 0.21621746 0.0028310346 0.0982254
000160 0c 7d ed 3d 56 07 25 3e c7 c0 5e ba ef a6 f1 39
       0.115961164 0.1611608 -0.0008497354 0.00046091477
000170 35 e5 68 bd 5e 24 46 bd 3a f7 c3 3d 91 56 fa 3d
       -0.056859214 -0.048374526 0.09568639 0.122235425
000180 9e 64 e0 bd ee 5d 75 3d c4 16 d9 3d 18 b1 0d bf
       -0.10956691 0.05990403 0.10600045 -0.5534835
000190 ff dd a2 3e df 62 87 3e 0d e3 f9 3f 3d d6 f2 3e
       0.31809995 0.2644262 1.9522415 0.47429076
0001a0 4a 96 d3 3e 3a 1d 72 bf 9d f4 24 be 09 05 cf 3e
       0.413256 -0.94575846 -0.16108938 0.4043353
0001b0 c3 1c 99 3f 0e b8 f5 3c 20 28 46 be 4f dd 03 3e
       1.1961902 0.02999499 -0.19351244 0.12877391
0001c0 06 eb 4c bc 3a 29 99 bc b1 66 5a 3c 65 d9 bd 3f
       -0.012507206 -0.018696416 0.013330148 1.4831969
0001d0 fd 8e 16 3c 91 38 31 bd 87 b8 e3 bd f9 08 a4 bc
       0.0091893645 -0.043266837 -0.1111918 -0.02002381
0001e0 23 6f 60 3d df 58 1e 3d 87 81 03 3e 49 56 e7 bd
       0.05479349 0.038658973 0.1284238 -0.112957545
0001f0 c5 9c cc 3d fd d9 89 bd 6e e8 64 3f 89 4f 17 3f
       0.09990839 -0.06731031 0.8941716 0.59105736
000200 75 86 32 3e 73 67 8b 3e 3f 9d be bd b1 49 db bd
       0.17434104 0.27227363 -0.09307336 -0.10707415
000210 2e d2 ba 3d f2 90 59 3f 81 63 41 3e 51 ad 5b be
       0.0912212 0.84986794 0.18885614 -0.21452834
000220 ce db 5d be b7 d8 3a be 7b 8f 8b bd b8 15 0a bd
       -0.2166588 -0.18246733 -0.06814476 -0.03371212
000230 2f b0 23 3d d3 48 81 be b8 66 16 be 13 fb 64 bd
       0.039962944 -0.25250873 -0.14687622 -0.055903506
000240 46 9b fe be 47 1e 94 3e f5 f4 dd bd 22 cb fd be
       -0.4972784 0.2892935 -0.108377375 -0.4956904
000250 9c 00 a2 be b2 93 26 3d 4b c6 0a bf 23 fd bc 3a
       -0.3164109 0.040668197 -0.5420882 0.0014418702
000260 1e 17 a3 3d 06 a1 77 be 8f a8 aa 3d a0 a5 70 3d
       0.07963394 -0.2418252 0.08332931 0.058751702
000270 43 44 0d be c9 c4 e9 3e 5c 22 61 3e 81 28 f0 bc
       -0.13795571 0.45657948 0.21985763 -0.029316189
000280 8a 28 ee bd 8d 80 ca 3d 28 45 40 3e 1e 05 20 3e
       -0.11628826 0.098878 0.18776381 0.15626952
000290 23 33 12 bf 9d 99 a3 be 61 d7 b1 be b1 aa c8 3d
       -0.5710928 -0.31953135 -0.34734634 0.09798182
0002a0 1a 11 14 be 96 ba c4 be 03 1d f2 3e 57 ba 83 be
       -0.14459649 -0.38423604 0.4728776 -0.25728104
0002b0 49 98 2d 3d 58 95 d8 be 66 c1 36 3e e5 46 c2 bc
       0.04238156 -0.4230144 0.17847213 -0.023715446
0002c0 a8 7d 65 3c 16 96 e6 bc f6 2d 66 3e d9 dc ad 3e
       0.01400701 -0.028147738 0.2247847 0.33957556
0002d0 49 16 5f bf f8 6f b2 be c1 8b 83 bd 5c fc 2a bf
       -0.8714338 -0.3485105 -0.0642314 -0.6679132
0002e0 af 65 83 bd a3 5c 3a be a1 26 b6 bd a0 61 ca be
       -0.06415879 -0.181994 -0.08894087 -0.39527607
0002f0 47 6f 5e 3c 95 4e 09 40 8c bd dc 3f a5 64 95 3e
       0.013576335 2.1454213 1.7245345 0.29178348
000300 8a a4 18 3e 4e 4d 2c 3f 40 24 ad 3f d3 55 44 bf
       0.14906517 0.6730546 1.3526688 -0.7669346
000310 dd 38 9a bf 22 b4 32 3f 32 2a 91 be 48 ec 8a be
       -1.2048603 0.6980611 -0.28352505 -0.27133393
000320 2c 56 ce be 17 73 24 be eb 0c c0 3e 02 db b1 be
       -0.4030012 -0.16059528 0.37509856 -0.34737402
000330 17 5f d7 bd 13 13 56 bd a8 c9 0c 3e bd e3 cd 3f
       -0.10516184 -0.052264284 0.13748801 1.6085125
000340 1d 3c 19 40 7c 04 70 3f 2b e9 ac 3e a9 d4 26 3f
       2.394294 0.9375684 0.33771643 0.65168244
000350 93 b1 bf 3f 34 ce 18 bf a1 40 19 bf 30 a9 ee 3e
       1.4976066 -0.5968964 -0.5986424 0.46613455
000360 fa d0 a5 be 5d 96 e1 bd af 25 dd bd da f5 01 3e
       -0.32386 -0.11015008 -0.10798203 0.12691441
000370 38 0f 13 bd c4 86 23 be 79 57 03 bd f6 55 a3 be
       -0.035903186 -0.15969378 -0.032065842 -0.3190152
000380 4d 03 0f 3d 95 ee 53 3f d0 19 b8 3f e2 91 6e 3f
       0.034915257 0.8278592 1.4382877 0.9319135
000390 86 71 82 3e 79 25 96 3f c2 50 48 3f 7f 2d aa bf
       0.25477237 1.1730186 0.78248227 -1.3295134
0003a0 7c cf 0a 3c 76 55 af be dd af 28 3f df 68 4a 3f
       0.00847232 -0.3424489 0.65893346 0.7906627
0003b0 bb 5e bb 3f d2 5a 57 3f fd b3 63 3f 8e 5f a4 3e
       1.4638284 0.84122956 0.88946515 0.32104152
0003c0 b4 bf 84 bf 2d b0 aa bd da d8 0d 3e f7 36 3f bf
       -1.0371003 -0.08334384 0.13852254 -0.74693245
0003d0 e3 57 bb be da ef fe be 7f 0f 9d be 2c 43 20 3b
       -0.3659049 -0.49792367 -0.30675885 0.00244541
0003e0 56 81 23 bd 0f 4d 8e be 1c fc da be 65 10 13 be
       -0.039918266 -0.27793166 -0.4277047 -0.14361723
0003f0 b0 e9 7f be 6c 12 88 be d4 bb e6 be 33 fc 5f be
       -0.24991488 -0.26576555 -0.45065176 -0.2187355

bias f4 [32]
000000 e5 e5 ea 3d c3 4e 04 3d 9c f9 a3 3d a4 d3 de 3d
       0.1146963 0.032301676 0.080065936 0.10880211
000010 f7 f2 0d 3d 90 cc 84 3d cf 85 df bd 93 65 00 3d
       0.034655537 0.0648433 -0.10914194 0.03134687
000020 a4 1a b0 bc a9 7a 65 3c 00 18 c4 bc f0 e6 61 bd
       -0.021497078 0.014006295 -0.023937225 -0.05515188
000030 be cb 6f bd 9e 62 1a bd 93 62 6a 3d 30 b5 73 3d
       -0.058543913 -0.037691705 0.057222914 0.059498966
000040 c2 86 84 3b d9 6f 82 bc 3a fc b0 3c a6 c4 95 bd
       0.0040443847 -0.015922474 0.021604646 -0.07312898
000050 97 eb c4 3c 81 90 89 3d 9b 04 75 bd e9 58 98 3d
       0.02403812 0.06717015 -0.059818845 0.07438833
000060 77 fa d6 bc d4 c8 4f bd 67 e1 9f bc 9e 7d a2 3c
       -0.026242478 -0.050728634 -0.01951666 0.01983529
000070 41 0e a7 bd 0a 98 01 bd 52 63 cf bd 16 bb 0d bd
       -0.081570156 -0.031639136 -0.10126366 -0.034602247

weight f4 [32]
000000 f9 10 f2 3e 08 d7 dd 3f 11 63 1b 3f 81 74 0d 3f
       0.47278574 1.7331247 0.6069804 0.55255896
000010 82 16 fb 3e 00 44 23 3f 70 30 18 40 5e 28 23 40
       0.4904061 0.63775635 2.3779564 2.5493388
000020 55 55 1c 40 f4 8e 39 40 a1 a9 eb 3e 45 60 d2 3f
       2.4427083 2.8993502 0.46027854 1.6435629
000030 58 a3 3a 40 21 ec 1f 3f 9c 7f 14 3f 06 c8 22 3f
       2.9162197 0.6246968 0.58007216 0.6358646
000040 bf e0 09 3f 00 10 13 3f 49 5d 68 3f 1b 44 83 3f
       0.5385856 0.5744629 0.9076734 1.0255159
000050 ff cd 0b 3f 50 f6 06 3f b9 b6 26 40 78 d1 af 3e
       0.546112 0.52719593 2.6049025 0.343395
000060 c4 00 d9 3f 47 59 02 3f 34 64 0b 3f c5 60 0c 3f
       1.6953359 0.50917476 0.5444977 0.5483516
000070 4a 2e 42 3f de a0 26 40 ce 2c f3 3f 29 b4 00 3f
       0.7585188 2.6035686 1.8998048 0.502749

bias f4 [32]
000000 73 a8 a0 bd 3b 25 63 3e 7f dd b0 be d0 af 7a bc
       -0.07844629 0.22182171 -0.34543988 -0.015300706
000010 02 71 6c be 7e 73 e4 be 6f 04 00 c0 fb f8 f4 bf
       -0.23089984 -0.44619364 -2.0002706 -1.9138483
000020 0b 8a bb bf 9f ac b0 bf c4 3e 22 be ab 15 1f bf
       -1.4651502 -1.380268 -0.15844256 -0.6214244
000030 98 04 6f bf 90 d8 c5 bb 59 27 d3 bd 54 0f 0a be
       -0.93366385 -0.006037779 -0.10310239 -0.1348241
000040 08 2f d0 bd 88 d4 98 be eb 31 0a bf 73 2b b8 bf
       -0.101652205 -0.29849648 -0.5398242 -1.438826
000050 d8 6b 96 3d f5 ee c7 bd f4 93 08 c0 3f 6c e5 bd
       0.07344788 -0.09762374 -2.1340303 -0.11202287
000060 ed 72 3e 3d 4e 72 82 3d 40 0d 3f 3c 50 e6 73 3d
       0.04649632 0.06369458 0.011660874 0.059545815
000070 4e 3b 8f 3e df 82 e6 be e1 92 3e bc 7a 14 7f bc
       0.27974933 -0.45021722 -0.011631698 -0.015568847

running_mean f4 [32]
000000 88 8e 81 41 81 7b 0d 41 8e 16 87 bf 1b e3 a5 41
       16.194595 8.842652 -1.0553758 20.735891
000010 3c 23 0b c0 b8 15 b2 bf 8b f0 16 c2 cf f7 37 c2
       -2.1740255 -1.3912878 -37.734905 -45.992
000020 23 77 1a c2 82 01 3a c2 1a 01 06 41 d5 9b 9b 41
       -38.616344 -46.501472 8.375269 19.45109
000030 44 82 de c1 11 f8 6f 41 7d b8 25 41 c3 36 8a 41
       -27.813606 14.998063 10.357541 17.27674
000040 cd 24 48 41 98 8c 60 41 85 d4 98 c1 f9 6a d3 41
       12.508985 14.034325 -19.10377 26.427233
000050 7e 5f ed 41 72 24 42 41 db 98 1c c2 41 ed 09 40
       29.671627 12.133898 -39.149273 2.1551058
000060 f0 c8 da 40 4c 5d 2d 41 aa 1c 8c 41 7d e9 4c 41
       6.8370285 10.835278 17.513996 12.807004
000070 0a b5 02 42 eb d9 07 c2 b6 04 c2 3f 93 50 8c 41
       32.676796 -33.96281 1.5157688 17.539343

running_var f4 [32]
000000 22 76 15 44 fd 15 b0 44 e1 74 b6 43 b5 55 ec 43
       597.8458 1408.6871 364.91312 472.6696
000010 65 86 12 43 8d db fa 42 72 d0 38 44 c0 2b 6f 44
       146.52498 125.42881 739.25696 956.6836
000020 65 dd 27 44 c2 a4 a3 44 cc 36 27 43 5f cd 5f 44
       671.4593 1309.1487 167.21405 895.2089
000030 8f 7b 89 44 bd 1f 60 44 96 68 ed 42 37 87 e9 43
       1099.8612 896.4959 118.70427 467.05637
000040 40 8d af 43 52 49 c7 43 73 38 02 44 28 42 06 44
       351.10352 398.5728 520.882 537.0337
000050 03 72 ab 43 af 90 65 43 15 e0 3a 44 12 7c 0d 43
       342.89072 229.56517 747.5013 141.48465
000060 80 29 8e 44 d8 86 a1 43 77 62 f5 43 cb 17 c0 43
       1137.2969 323.05347 490.76926 384.18588
000070 9f 0b dd 43 90 be bf 44 c3 ac 98 44 d5 04 05 44
       442.0908 1533.9551 1221.3988 532.0755

weight f4 [64, 32, 3, 3]
000000 d0 83 f1 be 58 74 c5 be fa f7 4c bc 8e 5c 6a bf
       -0.47170877 -0.38565326 -0.012510294 -0.9154748
000010 00 0a 16 bf 14 e8 34 be af 65 31 3f d5 35 24 3f
       -0.5860901 -0.17666656 0.6929578 0.6414464
000020 ee 27 4d 3f ff 7a 89 be 8a 1a 7b 3f 23 71 19 be
       0.8013905 -0.2685165 0.9808737 -0.14984564
000030 89 93 17 bf 77 f6 f8 3d 82 87 25 bf 2f 74 30 bf
       -0.59209496 0.121563844 -0.64659894 -0.6892728
000040 1e c4 b2 bd 9d e8 2e bc 66 46 b0 3e eb 98 56 be
       -0.08728813 -0.0106755765 0.3442871 -0.20956771
000050 ce d4 02 be 6e 97 f6 bd 93 26 e5 be 35 d9 d6 bd
       -0.12776491 -0.12040602 -0.44755992 -0.10490648
000060 bc 21 84 3f bd 58 06 3f eb 60 92 3f 78 43 76 be
       1.0322795 0.52479154 1.1435827 -0.24049175
000070 08 4f c3 be eb 0c 10 3f ea 78 b4 bf d3 47 4e bf
       -0.38146234 0.5626971 -1.40994 -0.80578345
000080 dc 44 ee bc a3 df f0 3e cc 25 78 3f a1 89 21 be
       -0.02908557 0.4704562 0.96932673 -0.15775158
000090 f8 d7 48 3f b6 1b 66 bd 71 81 72 be 26 15 7f bf
       0.7845454 -0.05617877 -0.2368219 -0.99641645
0000a0 1a 2e 82 be f3 95 cc bd d6 7a 8f 3e aa c9 2a bf
       -0.25425798 -0.09989538 0.28023404 -0.66713965
0000b0 27 5d c4 3e a3 fc 14 be df dd 26 3c 2d db 93 bd
       0.3835232 -0.14549498 0.010184734 -0.07219539
0000c0 32 bc 4a bf 3f 16 61 bf f2 01 2c be ca ae a3 be
       -0.79193413 -0.8792457 -0.16797617 -0.3196929
0000d0 a1 ba b4 3e 6d 86 67 3f 7b fd eb 3f 4b 6e ef 3e
       0.35298637 0.9043949 1.8436731 0.46763834
0000e0 a7 68 3d 3f 73 2d 77 3f 83 ee 53 3f 45 2f 0b 3f
       0.7398781 0.96553725 0.82785815 0.54369
0000f0 ea 22 f9 bd d7 d0 bb bf 54 d5 eb bf 80 3d 08 be
       -0.121648625 -1.4673108 -1.8424478 -0.1330471
000100 bf 6f 02 3f cc 6f aa 3e 1d b4 bb 3f 11 ef 22 bd
       0.5095176 0.3328842 1.4664341 -0.039778773
000110 88 21 0e bf 16 12 4d 3f 46 41 cb be f3 b8 1d bd
       -0.55519915 0.8010572 -0.39698237 -0.03850646
000120 5d f4 60 3e 02 d2 50 bd 38 ca a3 be 91 0e 06 3f
       0.21968217 -0.05098153 -0.31990218 0.52365977
000130 ed 34 d1 be a0 fc 7c be 0f a1 e0 3d 28 ce a4 bf
       -0.40860692 -0.24705744 0.109682195 -1.2875414
000140 9e 1a 70 bf d1 07 40 3f b6 cf d4 be 4d 5a 98 bf
       -0.93790615 0.75011927 -0.4156472 -1.1902558
000150 bf 97 3d 3f f4 09 1d bf 23 bd 7b bf 2b 6f e3 be
       0.7405967 -0.6134331 -0.98335475 -0.44420752
000160 01 c2 25 c0 f5 06 03 c0 b0 e2 a8 3d 16 ae 81 be
       -2.589966 -2.0472996 0.08246362 -0.2532813
000170 69 93 28 3e 4e 9d 51 bf ad b6 3f bf 0b 8a e4 be
       0.16462483 -0.8188065 -0.74888116 -0.44636568
000180 88 93 96 3e df 05 53 3f 85 08 43 3b 83 0d 02 be
       0.29409432 0.82430834 0.0029759717 -0.12700467
000190 84 96 ef 3e 28 9b 33 3f 0c dd 34 bf 57 37 06 be
       0.46794522 0.70158625 -0.7064979 -0.13107048
0001a0 e6 b0 9c 3e b9 48 84 3d 40 2d a7 3e a2 70 43 3f
       0.30603713 0.06459183 0.3265171 0.7634374
0001b0 9e 8e 18 3f 7f da c3 be 44 44 95 bf 77 21 a4 3f
       0.59592617 -0.38252637 -1.1661458 1.2822713
0001c0 ae d8 a4 be c9 64 91 bf 79 a2 1c 3c 63 82 c5 bf
       -0.32196563 -1.1358882 0.009560221 -1.5430416
0001d0 41 cc 45 bf af 69 ea be ae ca 1c bf 35 78 95 3b
       -0.7726479 -0.45783755 -0.61246765 0.004561449
0001e0 5f 2e 73 bf 94 45 b0 be 30 f6 78 3d 2e a0 13 3f
       -0.9499263 -0.34428084 0.060781658 0.5766629
0001f0 1b c4 54 3f 4e d4 55 3f 65 44 59 bd 05 d3 c3 be
       0.83111733 0.83527076 -0.05304374 -0.38246933
000200 42 38 bb 3e 76 d6 47 bf a8 4c fc be c6 72 88 be
       0.3656636 -0.78061616 -0.49277234 -0.26650065
000210 71 b8 51 bd 6b 8f 52 3e f8 b9 54 3f c2 93 02 bd
       -0.051201288 0.20562522 0.83096266 -0.031879194
000220 4b f3 fb be ff 73 a3 be 09 b4 a6 bf 6e a2 38 bf
       -0.49209055 -0.31924435 -1.3023692 -0.7212285
000230 79 e0 2b bf 5e be 32 3e fc c6 0b 3f 1a 68 38 3f
       -0.67139393 0.17455432 0.546005 0.72033846
000240 de 94 c6 bd 50 66 fc be a4 a8 14 3f 7a 85 bf bf
       -0.09696363 -0.49296808 0.58069825 -1.4962609
000250 73 56 50 bf ec 99 34 3e cb 2c 8e 3e b8 6a 01 3f
       -0.8138191 0.17636842 0.2776855 0.50553465
000260 49 70 06 3f 67 8d 4c be 59 91 d5 be fb 65 3d be
       0.52515084 -0.19975816 -0.41712454 -0.18495934
000270 96 85 bc bf 65 2c 08 bf fe 92 69 3e 9d d0 e2 3e
       -1.4728267 -0.5319274 0.2280998 0.44299784
000280 72 0c 74 3f 9d 5c c5 3e 30 41 9b 3f 0a a2 9e be
       0.9533149 0.3854722 1.2129269 -0.30983
000290 0b 44 1d 3f 1f 7f 96 3c 34 c9 2e 3c 95 36 d4 be
       0.6143195 0.018371163 0.010668088 -0.41447893
0002a0 b3 1c b9 3e 69 65 96 bd 4c f2 0b be e6 39 2e bd
       0.36154708 -0.07343561 -0.13666648 -0.042535685
0002b0 39 dd b8 bf 66 5c 13 bf 6f c8 e5 bf 1d 43 8d bf
       -1.4442512 -0.57562864 -1.7951792 -1.1036106
0002c0 4d 27 0c bf 69 2d 6b be 84 80 35 3f c3 67 9e 3f
       -0.5474747 -0.22966541 0.70899224 1.2375416
0002d0 5b 16 d1 be f6 9b 83 bf 89 c4 54 be 99 93 aa bf
       -0.40837368 -1.028197 -0.20778097 -1.3326293
0002e0 0f 4c 05 bf 27 2d 28 bf 27 52 5c 3f 2a 90 4d 3f
       -0.5206918 -0.65693897 0.86062855 0.802981
0002f0 3c 90 1d 3f 39 02 bf bc 95 75 77 be e9 8a a5 bd
       0.6154821 -0.02331649 -0.24165948 -0.08083136
000300 9c df a0 bf 2b c0 ce be e9 41 aa 3d ab 25 e8 3e
       -1.256824 -0.40380988 0.083133526 0.45341238
000310 ff 79 4d 3f 01 08 93 3e 81 26 0c be db ba 8d 3e
       0.80264276 0.28717044 -0.13686563 0.27681622
000320 68 77 8f 3d 88 2e ab 3f 6e 36 b8 3d f0 f6 39 be
       0.07005197 1.3373575 0.08994757 -0.18160605
000330 45 90 9a 3f 33 03 ad 3e b8 56 0a 3e a9 5b 5e 3e
       1.2075278 0.33791503 0.13509643 0.21714653
000340 7b b1 f0 3e bf 67 60 3e de ba 96 bd e4 19 99 be
       0.47010407 0.21914576 -0.07359861 -0.29902565
000350 97 9a 14 3c ec 87 58 3f 33 fc 11 3f 32 83 a3 3f
       0.00907006 0.845824 0.5702545 1.2774413
000360 16 f6 46 3e 13 be 6a be 5a cf 5c be 8e 4c 63 3e
       0.19429812 -0.2292407 -0.21563473 0.22197172
000370 1e 4b 26 bf c3 01 99 bf 1d 02 9a bf 7b 34 ec be
       -0.6495837 -1.1953663 -1.2031895 -0.4613379
000380 2a 17 6e be 4f 42 a6 3e 41 7a 02 bd a2 cf 9e 3d
       -0.23251024 0.32472464 -0.03185487 0.077544466
000390 2f fa 5f bf 6e f7 74 be 2a 33 3b bf dc 8c ea 3e
       -0.87491125 -0.23922512 -0.73124945 0.45810592
0003a0 99 48 0e 3e 41 69 81 3e 73 9c fb be fa 00 80 bf
       0.13894881 0.25275615 -0.491428 -1.0000298
0003b0 eb 51 04 3f 27 2b 8d bf 92 ed 49 bc ac c1 42 3e
       0.51687497 -1.1028794 -0.012324708 0.19019192
0003c0 c0 8c dc 3e 86 82 56 3f 6a c4 2b 3f 5c 80 10 3f
       0.43076134 0.8379291 0.6709658 0.5644586
0003d0 26 17 6a be bd e1 a3 bd 88 60 58 bf d1 0a e9 be
       -0.22860393 -0.080020405 -0.84522295 -0.45516065
0003e0 e6 56 a2 be 2e 38 20 3f 8e 24 fa 3e 44 61 a1 3e
       -0.31706923 0.62585723 0.48856014 0.3151952
0003f0 f3 8b ab be b1 6f 23 bf d2 c7 6f ba 30 77 80 bf
       -0.3350521 -0.638423 -0.0009146902 -1.0036373

bias f4 [64]
000000 17 b8 5f 3d f6 b3 ec bc 8c dd 82 bd cd ff 5b bc
       0.05461892 -0.028894406 -0.06389913 -0.013427687
000010 91 c5 54 3d 0c da 97 bc d7 2d 76 ba 00 a1 83 bd
       0.051946227 -0.01853659 -0.0009390986 -0.06427193
000020 5e a6 dd bc c1 36 25 bd 99 ba 71 bd 45 51 23 bd
       -0.02705687 -0.04033542 -0.059015844 -0.039872427
000030 cf e9 df 3c c8 2a 1d bc a8 77 ae 3d f2 06 81 3c
       0.027333168 -0.009592719 0.08518916 0.015750382
000040 0a f0 91 ba 40 91 26 3d 5f 36 32 3d ba 8a 4c 3c
       -0.0011134159 0.040665865 0.043508884 0.012484247
000050 62 77 c5 3c 5f 60 a8 3d 81 4d 1f bb 54 e1 25 3d
       0.024104778 0.08221506 -0.002430767 0.040498093
000060 9b d0 89 3d a6 d0 ea bc 00 84 72 3d b0 04 cc 3c
       0.067292415 -0.028663944 0.059207916 0.024904579
000070 1b 91 62 3d 07 16 8f 3d b8 90 7c bc ef 34 00 bd
       0.055314165 0.06986623 -0.015415363 -0.03130048
000080 8a d0 31 3d f5 11 96 3d d2 6f 07 3c 7d 59 e9 3c
       0.04341177 0.07327644 0.008266406 0.028485054
000090 dd ab 7b bc 6c a4 e6 3c 2e 0d eb bc ce 83 bd 3d
       -0.0153608 0.028154574 -0.028692808 0.092536554
0000a0 33 88 39 3c e1 07 86 bd 21 3b ab 3c 2f 52 e6 bc
       0.011323976 -0.065444715 0.020902218 -0.02811536
0000b0 73 28 2d 3c 93 20 3f bb ba 6c ad bc 34 b0 a1 bd
       0.010568726 -0.0029163703 -0.021170009 -0.07894936
0000c0 28 1a 89 bc ca 5e d9 3c 95 9e 81 3b 2a ef ac ba
       -0.016736105 0.026534457 0.003955672 -0.0013193835
0000d0 4e 8f 78 bd e2 6b 1d bd 36 44 a0 3b c1 97 78 bd
       -0.06068354 -0.038432963 0.004890944 -0.0606916
0000e0 a7 8d 99 bb 21 97 d8 bc ed 25 f2 3c c5 55 c2 3b
       -0.0046860757 -0.026439251 0.0295591 0.0059306347
0000f0 40 4d f4 3c 4a e5 0f bd f5 88 fa 3c 39 32 49 3d
       0.029821992 -0.035130776 0.030582884 0.04912016

weight f4 [64]
000000 55 50 64 3f ef 58 9f 3f c1 e3 a8 3f fa 8a 87 3f
       0.89185077 1.2449015 1.3194505 1.0589287
000010 58 8f 51 3f bb 2e b6 3f 00 8a bb 3f 1f 33 c4 3e
       0.8185935 1.4233011 1.4651489 0.38320252
000020 79 05 76 3f 37 aa c6 3f c4 0a b3 3f c7 5d a3 bd
       0.961021 1.5520695 1.398766 -0.07976871
000030 a8 ff b6 3f 7c e8 a3 3f fd 71 87 3f 47 5d a2 3f
       1.429677 1.2805324 1.0581661 1.2684716
000040 94 0b b8 3f 48 2f fb 3e fa eb 34 3f 63 27 30 3f
       1.4378533 0.4905951 0.7067257 0.688101
000050 82 f7 2d 3f d4 4d 8d 3f 02 2f 96 3f 0d 2b b0 3f
       0.6795579 1.1039376 1.1733096 1.3763138
000060 92 c5 87 3f f1 72 62 3f 41 1c 86 3f c8 c0 91 3f
       1.0607169 0.88456637 1.0477372 1.1386957
000070 c5 a9 c5 3e 27 74 17 3f bf 0f 14 3f ce 91 87 3f
       0.38606086 0.5916161 0.57836527 1.0591371
000080 8d cf b4 3f 5a 2e 68 3f 37 3c 90 3f 2c e8 3c 3f
       1.412584 0.90695727 1.1268376 0.73791766
000090 ee f6 0e 3f 08 d9 83 3f 53 ea b4 3f b8 a5 60 3f
       0.55845535 1.0300608 1.413401 0.87752867
0000a0 a8 7c 25 3f c9 25 c7 3f 28 72 42 3f bf d7 b6 3f
       0.64643335 1.5558406 0.7595544 1.428459
0000b0 d1 fe ad 3f 87 73 da 3f da 0a c5 3f 5e 18 87 3f
       1.3593389 1.7066506 1.5393937 1.0554311
0000c0 cd c5 90 3f d6 ed b8 3f b9 77 bb 3f f6 f4 56 3f
       1.1310364 1.4447582 1.4645911 0.8396753
0000d0 bd 5d 5e 3f 31 be 08 3f 87 3f c9 3f 1b d4 35 3f
       0.86861783 0.5341521 1.5722512 0.7102677
0000e0 a1 a0 8d 3f 0d 2e 4c 3f b9 40 63 3f 32 d9 a1 3f
       1.1064645 0.7975777 0.88770634 1.2644408
0000f0 70 51 64 3f b7 fd 54 3f c9 0d 4e 3f b8 3e d4 3f
       0.89186764 0.8319964 0.80489784 1.658164

bias f4 [64]
000000 58 c5 bb bf 35 31 c7 bf b3 1f c3 bf ea cc d2 bf
       -1.46696 -1.5561892 -1.5244049 -1.6468785
000010 42 01 ac bf c5 85 cd bf 2b 56 01 c0 45 9e 0a bf
       -1.3437884 -1.6056448 -2.0208843 -0.5414775
000020 58 a4 85 bf 84 30 db bf 5c 85 9c bf 60 21 89 bf
       -1.0440779 -1.7124181 -1.2228198 -1.071331
000030 bc c7 84 bf d6 d0 ca bf b6 21 aa bf 58 ee e3 bf
       -1.0373454 -1.5844982 -1.3291538 -1.7807112
000040 86 b7 c6 bf 05 7e f0 be aa bc 9c bf 09 70 a5 bf
       -1.5524757 -0.46971145 -1.2245076 -1.2924815
000050 64 ee 97 bf 1f 37 39 bf c3 39 d8 bf 3f 68 b6 bf
       -1.1869626 -0.72349733 -1.6892627 -1.4250563
000060 5f 30 99 bf 31 c6 a2 bf 44 cc a9 bf d1 45 b6 bf
       -1.1967887 -1.2716733 -1.3265462 -1.4240056
000070 9b fe 75 bf 50 77 6f bf 08 55 54 bf 91 79 a5 bf
       -0.9609162 -0.9354143 -0.8294225 -1.2927724
000080 c7 ee 08 c0 76 3b 90 bf c9 96 e7 bf a4 ae 4f bf
       -2.1395738 -1.1268146 -1.8092891 -0.81125855
000090 0a 57 41 bf fa 49 e2 bf d1 7f a9 bf ed 7a 92 bf
       -0.75523436 -1.7678826 -1.3242131 -1.1443764
0000a0 6f b9 48 bf 60 11 35 c0 48 3a b7 bf 06 d1 cf bf
       -0.7840795 -2.8291855 -1.4314661 -1.6235664
0000b0 52 5f d7 bf 0a a8 eb bf 33 1a e9 bf c9 ee b9 bf
       -1.6825964 -1.8410656 -1.821112 -1.4525996
0000c0 b7 9f c7 bf ed c1 71 bf 21 06 c2 bf 0b cd 66 bf
       -1.5595616 -0.9443653 -1.515812 -0.9015662
0000d0 12 48 a7 bf 3f b5 61 bf b6 0e c7 bf b8 c1 1b bf
       -1.3068869 -0.88167185 -1.5551364 -0.60842466
0000e0 42 db c8 bf 6a a0 94 bf 2e 22 a9 bf 74 06 9d bf
       -1.5691912 -1.1611454 -1.3213556 -1.2267594
0000f0 cb 94 a1 bf a7 c4 90 bf d1 5c 80 bf 4e 9c b4 bf
       -1.2623533 -1.1310014 -1.0028325 -1.41102

running_mean f4 [64]
000000 f1 2a cd c1 33 65 97 c2 24 af a4 40 ad 1a a4 c2
       -25.645967 -75.697655 5.1463795 -82.0521
000010 61 68 0f c2 b6 96 11 c2 2b d7 b6 c1 ff 32 9e c0
       -35.851933 -36.39718 -22.855062 -4.943725
000020 b9 b4 20 41 f8 b4 56 c2 2d a2 56 c2 41 c8 96 c0
       10.044122 -53.676727 -53.658375 -4.711945
000030 cd 45 e9 c1 eb 32 58 c2 ab d7 9f c2 43 da 90 c1
       -29.159082 -54.049725 -79.92123 -18.106573
000040 d0 35 ee c0 51 ee 36 c2 d2 4f 7b c2 40 25 61 bf
       -7.444069 -45.73273 -62.82795 -0.87947464
000050 65 f3 fe c1 08 c1 eb c1 30 53 37 c2 d7 a9 20 c2
       -31.868845 -29.469254 -45.831238 -40.16586
000060 02 13 29 c2 b7 17 9c c2 79 c7 9c c1 d5 a6 e8 c1
       -42.268562 -78.04632 -19.597399 -29.08146
000070 f4 2a 75 c1 60 8b bb c1 07 9d 9d c1 3c a2 41 c2
       -15.322987 -23.443054 -19.701674 -48.408432
000080 ed 26 2a c2 87 b5 4d c2 03 27 f6 c1 3d c3 68 c2
       -42.538013 -51.427273 -30.769049 -58.190662
000090 bf 5e 3b c2 91 b9 c8 c1 f3 ac 54 c2 30 12 3b c2
       -46.842525 -25.090609 -53.168896 -46.76776
0000a0 f3 f4 47 c2 3d 95 04 c2 8a a6 15 c2 dd b7 45 c2
       -49.98921 -33.14574 -37.412636 -49.429554
0000b0 83 b3 41 c2 31 8a b8 c2 4f d0 de c1 e2 da ba c1
       -48.425304 -92.269905 -27.851713 -23.356876
0000c0 60 ac b0 c2 71 8c 65 c2 e7 2d b9 c1 20 17 9d c2
       -88.33667 -57.38715 -23.147413 -78.545166
0000d0 14 d2 58 c2 ab 10 4c c2 fb b3 0f c2 32 3f 12 c2
       -54.205154 -51.016277 -35.925762 -36.561714
0000e0 3e df 45 c2 fa ad 45 c2 73 f6 f8 c1 d7 df 61 c2
       -49.46801 -49.4199 -31.120337 -56.468594
0000f0 83 70 ed c1 be d9 61 c2 e7 e5 a5 c2 30 79 15 c2
       -29.679937 -56.46264 -82.94903 -37.368347

running_var f4 [64]
000000 4b 59 0b 44 9a 88 2b 44 12 fa a1 44 ac 9a 48 44
       557.3952 686.1344 1295.8147 802.41675
000010 d8 13 f3 43 9e a7 a4 44 1a e2 7b 44 71 a2 88 44
       486.15503 1317.238 1007.53284 1093.0763
000020 8a ff be 44 4a 02 e5 44 ed 37 b2 44 2e 03 0f 44
       1527.9856 1832.0715 1425.7477 572.0497
000030 76 a8 fb 44 42 ff a1 44 98 9d 76 44 e1 8d 58 44
       2013.2644 1295.9768 986.4624 866.21686
000040 4b f9 b2 44 15 95 a0 44 44 18 8a 44 31 9d 55 44
       1431.7904 1284.6588 1104.7583 854.4561
000050 0b aa 34 44 2a e1 8d 44 e6 24 8c 44 a5 c7 aa 44
       722.6569 1135.0364 1121.1531 1366.2389
000060 55 c4 55 44 a1 d3 a5 44 8f 8d 6c 44 47 09 80 44
       855.0677 1326.6134 946.21185 1024.2899
000070 10 4e 1d 43 e8 bf 1d 44 cb ac 04 44 3e e0 3f 44
       157.30493 630.99854 530.6999 767.5038
000080 04 5d 33 44 ce 6c 3f 44 e5 b4 36 44 5b 53 3d 44
       717.45337 765.7001 730.8265 757.3024
000090 91 79 c7 44 6b 36 3d 44 29 2c cd 44 0c 8a 32 44
       1595.799 756.8503 1641.38 714.157
0000a0 13 ff 2b 44 f4 c7 2f 44 43 8e 4f 44 79 74 8a 44
       687.98553 703.12427 830.22284 1107.6398
0000b0 43 31 85 44 be c6 f3 44 ae 01 88 44 e8 70 41 44
       1065.5394 1950.2107 1088.0525 773.76416
0000c0 d1 78 5b 44 a2 e5 2e 45 be 4a b3 44 d2 ff 72 44
       877.88776 2798.352 1434.3357 971.9972
0000d0 17 1f 23 44 d3 bb 4e 44 b0 4c ad 44 f8 0a b3 44
       652.4858 826.93475 1386.3965 1432.3428
0000e0 5b 59 4b 44 90 c4 4a 44 62 99 28 44 84 d5 01 45
       813.3962 811.0713 674.3966 2077.3447
0000f0 6d fa 18 44 1d ef 53 44 aa 55 4f 44 4d b1 19 45
       611.9129 847.73615 829.3385 2459.0813

weight f4 [128, 64, 3, 3]
000000 47 6e be be 22 1e 25 bf 28 68 0c be 10 ba 70 bf
       -0.3719351 -0.64499104 -0.13711607 -0.9403391
000010 20 f8 28 3f cc 65 92 bf ee bc 90 3f 68 dd fd 3d
       0.6600361 -1.1437316 1.1307657 0.123957455
000020 d3 db 0e 3f 83 6b 6b 3f da 2c 8b 3e e4 58 30 bf
       0.55804175 0.91960925 0.27182657 -0.68885636
000030 d4 5a 6d bf e2 1a b2 bb db 78 10 be 44 90 3f bf
       -0.9271672 -0.0054353336 -0.14108603 -0.74829507
000040 ab 0c ab be ef 47 5a bf ee c8 bf bf 9e 98 4d bf
       -0.33408102 -0.8526601 -1.4983194 -0.80311
000050 3a 4c 8c be 02 ab bb 3e 69 fd e0 bf 81 87 d5 bf
       -0.27401906 0.36653906 -1.7577335 -1.6681978
000060 31 04 61 3f ba 6e 7a bf 03 e3 21 bf 45 81 c7 bd
       0.8789702 -0.97825205 -0.6323702 -0.09741453
000070 f7 98 8a bd 1a 81 82 bf cd b6 30 bf 49 10 81 3f
       -0.06767457 -1.0195649 -0.6902893 1.0083095
000080 e4 25 ae be fc 5b fe be 99 fc a2 3e 13 b7 90 3c
       -0.34013283 -0.49679554 0.31833342 0.017665422
000090 14 b9 45 bf f3 c8 f9 bf d5 57 c4 bd b4 76 fa bc
       -0.7723553 -1.951445 -0.09587065 -0.03057418
0000a0 a6 28 5a 3f 71 33 22 bc 47 b0 88 be b6 be 96 3f
       0.85218275 -0.00989996 -0.2669699 1.177695
0000b0 9c c3 50 be 9a 19 b1 ba 04 b8 32 3f 95 11 9a 3d
       -0.20387119 -0.0013511658 0.69812036 0.07522885
0000c0 55 33 d6 be 88 2b c3 3f 82 04 91 bf 34 56 c6 3e
       -0.41836038 1.524766 -1.1329501 0.38737643
0000d0 34 7b af bf 78 3d f3 3e 04 2e a2 be 75 bd 37 bf
       -1.3709474 0.47507834 -0.31675732 -0.71773463
0000e0 2f f6 18 bf 9f 61 dd bd 3b c3 4e be fc 77 d2 3c
       -0.59750646 -0.10809635 -0.20191662 0.025691979
0000f0 4a 7c f7 3d a9 3f 4a bf 31 2c 63 3e a2 01 a6 be
       0.12084253 -0.7900339 0.22184826 -0.3242312
000100 f4 93 c4 be a6 a9 5c be 0e f4 1d 3f 86 30 10 bd
       -0.3839413 -0.2154909 0.6170052 -0.035202526
000110 8c b3 3d 3f a4 08 df be de ff 13 bf b3 de 5e be
       0.7410209 -0.4356128 -0.578123 -0.2176464
000120 27 57 b8 3e 26 56 3a bd 70 2f b0 be db f6 99 3d
       0.36003992 -0.045492314 -0.34411192 0.07517787
000130 f4 0f 86 bf 18 78 82 bf 9c ea 47 bb 17 6a d3 be
       -1.0473619 -1.01929 -0.0030504828 -0.41291878
000140 fa 6b 6a 3f 7e bf 23 3e d1 5c 9a bd b0 28 b0 be
       0.9157101 0.15991017 -0.075372346 -0.34406042
000150 8e 82 59 bf a3 d2 44 3c 1f c4 2d bf 05 6d 40 be
       -0.84964836 0.01201311 -0.6787738 -0.18791588
000160 41 3b 91 bf 41 6d df be 71 25 01 be 41 49 39 bf
       -1.1346208 -0.43638042 -0.12611939 -0.723774
000170 7e e8 7d 3d d3 ae 78 3e dc 96 b6 be 48 83 2b 3e
       0.0619893 0.2428544 -0.35661972 0.16749299
000180 e5 1f 74 3f d0 ed e5 be ec 32 49 bf 19 4c e5 be
       0.9536117 -0.44908 -0.78593326 -0.4478462
000190 1b f2 b5 3d 15 fd ac be 2f 17 1c be d3 ad 9e 3e
       0.088840686 -0.33786836 -0.15243219 0.30991992
0001a0 9f 41 ee be 0a 4a 49 be 3c f4 3e 3e 3f d4 ea bc
       -0.4653444 -0.1965715 0.18647856 -0.02866566
0001b0 e6 83 36 3f 70 51 d7 3e c5 52 44 be cb 1d 86 3e
       0.7129501 0.4205432 -0.19172199 0.26194605
0001c0 6a a8 87 bf 83 0e 15 bf c0 f7 c8 3e ac 64 5b 3e
       -1.0598271 -0.5822527 0.39251518 0.21425122
0001d0 70 b8 ac be 69 73 93 bf b5 cf 6e bf 60 d0 81 bf
       -0.33734465 -1.1519595 -0.93285686 -1.0141716
0001e0 1a 46 14 be 79 24 5f 3f 6e 40 1c 3e c3 1e 97 3d
       -0.14479867 0.8716503 0.15258953 0.07378914
0001f0 c3 38 9f 3f b2 8f 3f be c6 bc ef 3e 6e 1f b2 3f
       1.2439197 -0.18707159 0.4682371 1.3915842
000200 16 1b c2 3e 26 98 bf bd 34 48 7a 3f c7 d7 c3 3e
       0.3791129 -0.09355192 0.97766423 0.38250563
000210 39 e6 0e c0 6e bd 04 3f e0 b1 75 3e 4d 5b b9 be
       -2.2328017 0.51851547 0.23993635 -0.3620247
000220 87 a5 66 bf c9 d0 8c bf b2 a6 8c bf 07 61 99 bd
       -0.90096325 -1.1001216 -1.0988371 -0.074892096
000230 01 29 c1 bf 45 a1 a9 3f 49 6f 3c be aa d4 18 bf
       -1.5090638 1.325234 -0.18401827 -0.596995
000240 33 b3 3c be 6e 10 64 3e 6e 39 0a 3f 52 d5 22 bf
       -0.18427734 0.22271892 0.5399388 -0.6360675
000250 06 fe 4d 3e 2d 30 aa 3e 59 9a 87 be 7f d1 6d 3d
       0.20116434 0.3323988 -0.26484945 0.05806112
000260 ef 71 e0 be 8e 92 9e be 75 28 c6 bd 05 31 ec be
       -0.43836924 -0.30971187 -0.09675685 -0.4613115
000270 30 a3 50 bf 2a ef f4 be 31 c7 ea 3d 57 c5 03 be
       -0.81499004 -0.47838718 0.11463774 -0.12868248
000280 54 a0 3d be 38 b1 c7 be 47 75 2b be 1f 63 c0 bd
       -0.18518192 -0.39002395 -0.16743957 -0.09393906
000290 6c 5f 01 bf 73 8f d7 be 02 a9 0c bf e5 19 94 3f
       -0.5053623 -0.4210163 -0.54945385 1.1570402
0002a0 da 19 af be 98 62 d5 bc 92 1e 65 be f1 2a 8b bf
       -0.3419941 -0.02604799 -0.22374943 -1.087248
0002b0 c8 22 bc be e9 b2 59 bf 44 83 0f 3e ef f4 a0 3e
       -0.36745286 -0.8503862 0.14014918 0.3143687
0002c0 15 85 5f 3f f5 e9 5f be 36 37 e0 bd f9 e5 fb be
       0.8731244 -0.21866591 -0.10948031 -0.49198893
0002d0 8a 3e 28 bf e1 28 06 bf a6 07 e8 bf 60 22 59 bf
       -0.6572043 -0.52406126 -1.8127334 -0.8481808
0002e0 0a da 82 3e 21 e9 8d be a3 91 86 3e a6 4f 8a 3e
       0.25556976 -0.27716926 0.26282987 0.27013892
0002f0 2f b5 63 3b 01 1c 41 3f c0 45 31 3f 43 21 41 be
       0.0034745445 0.75433356 0.69247055 -0.18860345
000300 31 c0 9d bf 8b d5 5a bf de 3d 6d be a0 8a 86 3e
       -1.2324277 -0.8548209 -0.23168132 0.26277637
000310 07 a0 63 3e 20 cb 9b 3f 78 ce f1 bc a1 91 59 bf
       0.22229014 1.2171364 -0.029517397 -0.8498784
000320 2b fb 94 bf 45 09 36 3f 5e 33 80 bd e8 26 e1 be
       -1.163915 0.71107894 -0.062597975 -0.43974996
000330 c6 81 1e bf d6 e6 78 be 61 dd 51 bc c9 15 92 3d
       -0.6191677 -0.24306807 -0.0128091285 0.071330614
000340 38 1b d4 3d 30 f9 4b be 00 16 20 3f 73 15 13 be
       0.10356754 -0.19919276 0.6253357 -0.14363651
000350 d7 61 1d bf 3f 0a 9d bf a3 99 66 3e 99 c6 46 3f
       -0.61477417 -1.2268752 0.22519545 0.77646786
000360 bd 00 7c bf 12 a3 a5 bc f0 27 b3 bf 68 7d 89 3f
       -0.98438627 -0.02021936 -1.3996563 1.0741396
000370 cc 42 b1 be 58 5c 0d 3f ae dc f7 bf d3 35 b7 3e
       -0.34621274 0.5521903 -1.9364221 0.35783252
000380 da 10 da bd c8 5c cd be e5 c5 7f be f2 79 dc be
       -0.106477454 -0.4010985 -0.24977835 -0.43061787
000390 2c bc 7d bf b6 e5 51 3e 8a ef 5c 3f 98 5d 10 be
       -0.9911525 0.20497784 0.8630301 -0.14098203
0003a0 be b0 98 3e c4 ac cf be bc ec 76 bf 2e 53 90 be
       0.29822344 -0.40561497 -0.9645498 -0.2818846
0003b0 67 f0 a9 bf 70 49 1e 3f 03 0a 47 bf 9b 23 e1 3e
       -1.327649 0.61830807 -0.7774965 0.43972477
0003c0 da 47 dc bf fe 79 25 3e a1 89 8e 3e 70 da 1d bf
       -1.7209427 0.16159818 0.27839378 -0.61661434
0003d0 c5 61 8f bf 49 a5 a3 be f8 46 a0 3d 34 d4 56 be
       -1.1201712 -0.3196204 0.07826036 -0.20979387
0003e0 24 d8 1c bf e0 87 4d 3f 2f ad 82 3f cc 89 64 3f
       -0.61267304 0.80285454 1.0209101 0.8927276
0003f0 ee eb 82 bd 1f 3f 5a 3d cf 0e c8 be b6 fd 8d be
       -0.06392656 0.053282853 -0.39073798 -0.2773263

bias f4 [128]
000000 32 11 01 3c 06 53 be bd 31 99 d0 bc 49 4f 60 3a
       0.007877635 -0.09293179 -0.025463672 0.0008556736
000010 25 ca 37 bd 84 5f da 3c 75 f5 6c bd 4f d9 f2 3c
       -0.044870514 0.026656874 -0.057851274 0.029644636
000020 64 01 7d 3d 14 c2 05 3d 0b 05 20 bd 6a eb 91 bc
       0.061768904 0.03265579 -0.03906731 -0.01781245
000030 14 6a 52 3c bf a5 af bb 5e b9 8c bb 66 c8 a3 3d
       0.012842674 -0.0053603346 -0.0042945584 0.07997207
000040 64 2d cf 3c e6 8f 6a 3b 9b 10 18 bc 7f ea 33 3d
       0.025290199 0.0035791337 -0.009281303 0.043924805
000050 79 2e 57 bc 88 2c 38 bd cd 99 37 3d 28 73 c3 3b
       -0.013133639 -0.044964343 0.04482441 0.0059646554
000060 da bf 35 bc a4 2e 74 3d 88 dc f9 bc 06 b6 67 3c
       -0.011093104 0.059614792 -0.030500665 0.014142519
000070 de 0d aa 3a 4e c4 f9 3c 9d 64 94 bc 69 e0 68 bd
       0.0012974103 0.030489113 -0.018114382 -0.05685464
000080 6f d9 64 3c 0f 48 d5 3a c8 c0 e7 bc 71 17 04 3d
       0.013967856 0.0016272085 -0.028290167 0.032248918
000090 cd a7 d2 bc 09 14 64 3c 35 96 26 bd bf 1e 88 3c
       -0.02571478 0.013920792 -0.040670592 0.016616223
0000a0 5e 6b ed bb fd 3d a2 3c 75 8d a8 bc 84 4f 3d bc
       -0.007245465 0.019804949 -0.020575264 -0.0115546025
0000b0 33 16 03 bd 32 da f1 3c bd 34 35 bd cd db c2 3c
       -0.032003593 0.029522989 -0.04423975 0.02378645
0000c0 c6 dd 48 3d b4 2b 22 3d a5 60 e7 3c 5f b1 d0 3c
       0.049039625 0.03959246 0.028244326 0.025475202
0000d0 eb 47 92 bb d2 86 5a 3c 2e d5 a9 bc 68 81 23 bd
       -0.0044641397 0.013337808 -0.020731535 -0.039918333
0000e0 cb 58 1f bd 14 64 94 bc 0b 12 2b 3c 53 36 b2 bc
       -0.03890304 -0.018114127 0.0104413135 -0.02175442
0000f0 20 61 ef bb 9d a0 fa 3c c2 5c 24 bd 10 7d 9b bc
       -0.0073052794 0.030594165 -0.040127523 -0.018980533
000100 03 c3 b4 bb 21 02 03 3d 1a b2 83 bc 97 cd b5 bb
       -0.0055164113 0.031984452 -0.016076136 -0.00554819
000110 37 90 4b 3d a0 40 f9 3c d1 50 04 bd 07 a6 1b bd
       0.04969808 0.030426323 -0.032303635 -0.038000133
000120 79 25 8b bd 3f aa 3b bd 8b 1f 52 3c 33 3e 2a bd
       -0.06794257 -0.045816656 0.012824903 -0.041563224
000130 da 17 15 bd d8 a7 bd 3c e1 c2 0e bd 07 dd 4f 3d
       -0.0363997 0.023151323 -0.03485382 0.050747897
000140 19 14 3c b9 8a 59 1e bd 55 e1 a1 bb f2 fd 13 3c
       -0.00017936564 -0.03865961 -0.0049401917 0.009032713
000150 1f 5e be 3c c7 c4 e9 bc b8 ab 02 bd 4d 60 c7 bc
       0.02323824 -0.028536214 -0.031902045 -0.024337912
000160 2a a1 56 bc 96 1b 6d 3c 91 28 95 3d 6e 0a c5 bc
       -0.013099948 0.014471909 0.07283128 -0.024052825
000170 42 d2 90 3c f3 68 cb 3b d6 d3 2c 3c 0a e6 53 3c
       0.017678384 0.0062075793 0.0105485525 0.012933264
000180 39 5d d2 bc 72 0c 26 3d d5 b1 1e 3d 50 15 8a ba
       -0.025679218 0.040539213 0.038743813 -0.0010534916
000190 67 92 03 bd 55 21 ed 3b 80 84 8b bd b5 fc 16 3d
       -0.032122042 0.0072366395 -0.06812382 0.036862094
0001a0 90 aa 02 bd 68 4d 64 3c e7 02 a7 3c 5c fd a5 bc
       -0.031900942 0.013934471 0.020387126 -0.020262413
0001b0 7b 12 a5 3b 58 b8 98 bd 52 4d 1a 3d 83 cd 50 3d
       0.0050376034 -0.07457036 0.037671395 0.05097724
0001c0 08 58 75 bc e9 a7 2d bb 34 e0 8a 3a b7 78 be 3c
       -0.014974602 -0.0026497787 0.0010595382 0.02325092
0001d0 79 46 4c 3b 9f 6c df 3c a5 e4 f0 3c fd 8f 96 3c
       0.0031169935 0.027273474 0.029405901 0.018379206
0001e0 9b 58 14 3d cc 5a fc 3b dc f6 06 3d f3 16 a0 3c
       0.036217313 0.0077012535 0.032950267 0.019542193
0001f0 5e fd bd 3c ad c4 3e 3d 42 c5 ac 3c 30 1f 06 bd
       0.023192104 0.046574283 0.021090154 -0.032744586

weight f4 [128]
000000 3b af 49 3f 39 54 73 3f 1d bc 6a 3f 07 42 5b 3f
       0.78783005 0.9505039 0.9169329 0.85647625
000010 13 c5 2d 3f 56 6f 57 3f a9 fe 41 3f 52 31 50 3f
       0.67878836 0.8415426 0.75779206 0.81325257
000020 d5 99 36 3f e1 04 16 3f ad 1b 62 3f 4a 9e 40 3f
       0.7132848 0.58601195 0.8832348 0.7524153
000030 d8 06 61 3f 5f 07 51 3f 0c a1 21 3f fd f8 24 3f
       0.8790107 0.8165187 0.63136363 0.64442426
000040 eb 7d 5f 3f d4 3e 62 3f 0d 8f 37 3f a8 d3 2c 3f
       0.8730151 0.8837712 0.71702653 0.6751046
000050 41 7c 5a 3f 0c f2 67 3f 7c f5 57 3f 7a 72 31 3f
       0.85345846 0.9060371 0.84358954 0.693153
000060 9e 29 2e 3f fe 52 30 3f 62 79 4f 3f 35 bf 49 3f
       0.6803225 0.68876636 0.8104459 0.78807384
000070 28 3a 35 3f c4 49 2e 3f 69 15 29 3f a3 93 5b 3f
       0.70791864 0.6808131 0.66048294 0.8577215
000080 1c 5a 43 3f 10 66 38 3f 30 c3 33 3f 9c e5 4a 3f
       0.7630937 0.72030735 0.7021971 0.79256606
000090 22 c0 6b 3f 56 85 4d 3f 8e 55 40 3f f0 6a 2d 3f
       0.92090046 0.8028158 0.75130546 0.677413
0000a0 94 eb 7d 3f 99 f5 59 3f ef 9e 63 3f 72 27 4f 3f
       0.9918759 0.8514038 0.8891439 0.80919564
0000b0 73 2a 16 3f c0 30 49 3f 82 f1 48 3f 02 ee 57 3f
       0.5865852 0.7859001 0.7849351 0.84347546
0000c0 42 b0 46 3f 3f 7a 40 3f 34 f8 25 3f dd 66 4a 3f
       0.776127 0.7518653 0.6483185 0.79063207
0000d0 0b 46 4b 3f 53 a3 48 3f e5 26 57 3f 2c de 22 3f
       0.7940375 0.78374213 0.84043723 0.6362026
0000e0 dc 02 7c 3f 83 9c 51 3f 05 61 24 3f c6 8b 4b 3f
       0.98441863 0.8187944 0.6421054 0.7951015
0000f0 52 c6 1f 3f d8 10 51 3f 72 5a 33 3f 04 74 4b 3f
       0.6241199 0.81666327 0.70059884 0.794739
000100 b6 64 4d 3f 80 8f a5 3e f5 f3 53 3f f2 24 55 3f
       0.802318 0.32336044 0.82794124 0.832595
000110 8d 4b 7f 3f f5 81 4c 3f 75 a6 4b 3f 37 37 47 3f
       0.99724656 0.798858 0.7955087 0.77818626
000120 33 92 5e 3f 35 d4 3b 3f 6d 1a 56 3f 30 5d 71 3f
       0.8694183 0.7337068 0.8363407 0.9428282
000130 d2 74 70 3f 83 69 22 3f fc ef 51 3f 9f 9e 37 3f
       0.93928254 0.6344225 0.8200681 0.7172641
000140 d0 5c 43 3f 17 09 47 3f b4 72 60 3f c3 bf 39 3f
       0.76313496 0.77748245 0.87675023 0.7255823
000150 3b 98 60 3f e6 f0 46 3f 8f d5 5e 3f 57 99 47 3f
       0.87732285 0.7771133 0.87044615 0.77968353
000160 c0 5b 36 3f dc 15 22 3f ed 58 39 3f 86 be 6e 3f
       0.7123375 0.63314605 0.72401315 0.93259466
000170 d4 5a 7f 3f 1d 94 96 3e 6a 61 44 3f 0c 40 46 3f
       0.9974797 0.29409876 0.7671114 0.7744148
000180 e7 65 6c 3f 57 b4 52 3f f1 40 39 3f 93 12 3b 3f
       0.9234299 0.82306427 0.7236472 0.73075217
000190 95 a0 60 3f f7 aa 4e 3f 38 d0 55 3f 1c 5f 59 3f
       0.8774503 0.8072962 0.8352084 0.8491075
0001a0 df 5b 41 3f 11 a9 2f 3f b7 53 30 3f 49 6b 4c 3f
       0.7553081 0.6861735 0.6887774 0.79851204
0001b0 81 5e 5a 3f b3 0d 46 3f 2f 72 5f 3f 71 c8 5d 3f
       0.8530045 0.77364653 0.87283605 0.86633974
0001c0 9c 69 31 3f 64 26 59 3f ae 87 5d 3f 7c b7 88 3f
       0.6930177 0.84824204 0.86535156 1.0680995
0001d0 9e de 32 3f bb f8 7c 3f 66 6e 4d 3f cc 26 59 3f
       0.69870937 0.9881703 0.8024658 0.84824824
0001e0 ca ef 50 3f 1c f4 75 3f c0 f5 60 3f 3e 8d 3d 3f
       0.8161589 0.96075606 0.87874985 0.74043643
0001f0 e6 2f 48 3f 7d 6e 1b 3f bf 7c 69 3f 39 c5 24 3f
       0.7819809 0.60715467 0.9120597 0.6436344

bias f4 [128]
000000 c3 7e 5c bf f9 fe a3 bf a6 5c b2 bf aa f9 ad bf
       -0.86130923 -1.2812186 -1.3934524 -1.3591816
000010 a5 fb ab bf d7 6a a9 bf ff 43 a1 bf e4 3b b5 bf
       -1.3436171 -1.323573 -1.2598876 -1.4158902
000020 34 8f c4 bf b6 73 a1 bf 00 37 92 bf 8e 32 b4 bf
       -1.5356202 -1.2613437 -1.1423035 -1.4077928
000030 da a0 8c bf 27 db ab bf 00 a2 91 bf 09 6f b4 bf
       -1.0986588 -1.3426255 -1.1377563 -1.4096385
000040 10 60 9e bf 86 76 9f bf 53 c2 a7 bf af 43 c3 bf
       -1.2373066 -1.2458045 -1.3106178 -1.525503
000050 0e af a6 bf 9b d4 93 bf 7e 58 9b bf 3e 0a 95 bf
       -1.3022172 -1.1549257 -1.2136381 -1.1643751
000060 06 69 cf bf 7f df 9b bf e3 65 94 bf d9 04 8b bf
       -1.6203926 -1.217758 -1.1593593 -1.0860854
000070 db 51 e5 bf 99 44 be bf 71 55 ab bf 1f 36 aa bf
       -1.7915605 -1.4864684 -1.338545 -1.3297766
000080 fe 80 84 bf 3b 21 a0 bf 15 dd 9c bf fe 03 a3 bf
       -1.0351865 -1.2510141 -1.2254969 -1.2735593
000090 31 7d a9 bf 83 ec 86 bf 76 e0 03 c0 8c 4d d4 bf
       -1.324133 -1.0540928 -2.060575 -1.6586165
0000a0 a8 58 ad bf 09 fc 88 bf 82 6b a8 bf 50 a6 c3 bf
       -1.3542681 -1.0701915 -1.3157809 -1.528513
0000b0 bf f1 ab bf 75 11 dd bf ac d4 9f bf 6c 4e ca bf
       -1.343315 -1.7270952 -1.2486777 -1.5805182
0000c0 ec 11 a3 bf 2d 26 7e bf 6d be ad bf bd 83 7d bf
       -1.2739844 -0.99277 -1.3573738 -0.9902914
0000d0 82 55 c6 bf 2c 57 ca bf 1e fb 91 bf 3f ef a7 bf
       -1.5494845 -1.5807853 -1.140476 -1.3119887
0000e0 a7 49 aa bf c3 cf 94 bf f3 33 cf bf 32 63 d2 bf
       -1.3303727 -1.1625904 -1.6187729 -1.6436522
0000f0 11 3a d8 bf bf 83 97 bf 6e 99 b1 bf c6 08 c9 bf
       -1.689272 -1.1837081 -1.3874948 -1.5705802
000100 8c d6 a5 bf 1a 9a 58 bf 4e fc 80 bf a1 c7 d1 bf
       -1.29561 -0.8461014 -1.0076997 -1.6389047
000110 6d 2a be bf 4e e2 92 bf 00 fc a5 bf 10 22 65 bf
       -1.4856697 -1.1475313 -1.2967529 -0.895051
000120 2d 93 a8 bf 76 c1 e4 bf 6d 05 92 bf 30 b1 a5 bf
       -1.3169914 -1.787154 -1.1407906 -1.2944698
000130 cf 68 a0 bf f7 aa b9 bf 45 11 a0 bf 29 f9 c5 bf
       -1.2531985 -1.4505299 -1.250527 -1.5466663
000140 93 3b b8 bf da 23 b9 bf 4a 47 9a bf f6 fc 8f bf
       -1.4393181 -1.4464066 -1.2053006 -1.1249073
000150 cc 50 98 bf 0f ef b3 bf be 2b 9d bf 86 c9 b4 bf
       -1.1899657 -1.405733 -1.2278974 -1.4124
000160 b6 eb 89 bf fd e4 80 bf 10 71 b5 bf b9 12 a1 bf
       -1.0775058 -1.0069882 -1.4175129 -1.2583839
000170 f0 9c aa bf b2 30 6c bf e7 c8 9a bf e9 aa e1 bf
       -1.3329144 -0.92261803 -1.209256 -1.7630283
000180 45 47 9b bf b1 10 83 bf 9e 02 da bf 3b 40 62 bf
       -1.2131125 -1.0239469 -1.7032049 -0.8837926
000190 d3 fc be bf 7f bf 94 bf 17 c1 be bf 32 3a 97 bf
       -1.4920906 -1.162094 -1.4902676 -1.1814635
0001a0 6d 23 c1 bf d2 a6 b3 bf 70 bd bf bf ac 57 b2 bf
       -1.5088936 -1.4035285 -1.4979687 -1.3933005
0001b0 66 51 9c bf 27 71 8f bf b3 a8 cd bf af ae 92 bf
       -1.2212341 -1.1206406 -1.6067108 -1.1459559
0001c0 02 20 d4 bf 01 9a 81 bf 13 9c aa bf d1 44 bd bf
       -1.6572268 -1.0125123 -1.332888 -1.4786626
0001d0 99 d3 af bf 2c 3d c2 bf ee da 80 bf 28 6a 9e bf
       -1.373645 -1.5174918 -1.0066812 -1.2376146
0001e0 59 c9 87 bf 9b f3 8f bf 74 a3 91 bf de 5d 7c bf
       -1.0608321 -1.1246217 -1.1378007 -0.9858073
0001f0 e7 12 d3 bf bc 6d b6 bf 37 d8 aa bf 66 58 b8 bf
       -1.6490144 -1.4252238 -1.3347234 -1.4401977
